models/squares/100/class0_teacher_config.pt (torch, 144495 bytes, 9 tensors)

decoder.0.weight f4 [2, 400]
000000 b2 46 08 3d 3d 31 dc bd ae 48 21 be 5e fa a5 3c
       0.033270545 -0.10751579 -0.15750381 0.020260986
000010 af af 23 be 0d 82 c9 bd c5 67 a2 bd e7 52 9f 3c
       -0.15984987 -0.09839258 -0.07929949 0.01944871
000020 0d 99 d3 bd a1 48 b4 bd 51 a7 be bd 78 1f 09 be
       -0.103319265 -0.08802915 -0.09309257 -0.1339091
000030 b2 f5 08 3c 02 47 31 bd 38 35 cf 3c 9f 6c fe 37
       0.00835936 -0.04328061 0.025293931 3.032974e-05
000040 8c a6 f4 3c 9f 35 b5 bb 0f 84 ae bc bb 1c 92 bd
       0.029864572 -0.005530074 -0.021303205 -0.07134386
000050 54 c8 f9 bc 2a 91 ab 3c ea 70 59 bd ec 3b 0e bd
       -0.030491032 0.020943243 -0.0530862 -0.034725115
000060 8c 6f 79 3c 71 b7 0c bd 37 81 ba bc d6 23 09 be
       0.015224349 -0.03435463 -0.022766693 -0.13392577
000070 14 2e 59 3d 7d 11 81 bd 75 3b 4d 3c d3 40 e4 bd
       0.05302246 -0.06302164 0.012526383 -0.11145177
000080 6a bd bc bc 82 21 e7 bd 9a 7e 5a bd 3c 08 9e bc
       -0.023039538 -0.11285688 -0.053343393 -0.019291036
000090 54 fe 29 be 58 9f a2 bd bf b6 24 be e5 76 09 be
       -0.16600925 -0.07940549 -0.16085337 -0.13424261
0000a0 0a 8a a7 bd f4 89 3b 3d 02 3c da bb 00 93 08 bd
       -0.08180626 0.04578586 -0.0066599855 -0.033343315
0000b0 38 81 9f bd 86 e6 16 bc 2f 49 1e be dd d6 bd bd
       -0.077883184 -0.0092102345 -0.15457605 -0.092694975
0000c0 7a 02 1a 3d c2 ae 1a 3c 04 1e 9d 3b 7b d7 bb bd
       0.037600018 0.00944108 0.004794838 -0.09171959
0000d0 18 87 9c bd 72 c9 dd bb 10 5b 27 be ae a6 75 3c
       -0.076429546 -0.006768399 -0.16343331 0.014993353
0000e0 f3 06 93 bd 9f 15 0f be 5b 5c 11 bd 6a 90 11 ba
       -0.0717906 -0.13973092 -0.035488468 -0.00055528304
0000f0 a8 b9 dc bc 05 c1 c9 3b 38 0f d0 bc 96 95 86 3d
       -0.026943997 0.006157043 -0.025397882 0.065715
000100 d3 1b da bd 7b 94 27 3d 59 59 a9 bd 10 69 21 3c
       -0.10649838 0.040913086 -0.08268995 0.009851709
000110 2f 79 c5 bd aa a4 5c 3d a5 e2 6d 3b 52 ef e0 ba
       -0.096422546 0.053867973 0.003629842 -0.0017161167
000120 28 4a a9 3c 91 61 a8 bb 6c 14 aa bd 03 e2 a1 bb
       0.020665243 -0.005138584 -0.083046764 -0.004940273
000130 7c 4d 98 bc 62 e0 ce 3c ac 39 34 bd 28 5b ba 3c
       -0.018591635 0.025253478 -0.044000313 0.022748545
000140 01 03 0b 3d e6 2e 7e bd 44 3a fb bd 2b 33 b9 bc
       0.03393841 -0.062056445 -0.12266973 -0.022607407
000150 47 ba da bd e7 4d 32 bc c2 29 ee bd 68 ae 2f bd
       -0.10680061 -0.010882831 -0.116290584 -0.042890936
000160 ea ec 35 bc c8 16 1d 3d e7 89 82 3d 98 9c 2d bd
       -0.011103848 0.038351804 0.06373959 -0.042385668
000170 8a 52 5f bd 58 47 21 bd e4 a7 52 bd de 2b ff bd
       -0.054522075 -0.03937468 -0.051429644 -0.12459539
000180 d8 6d 9c bd 26 06 b2 bd 8e 04 34 bc f5 39 ce bd
       -0.076381385 -0.08692579 -0.010987414 -0.10069648
000190 28 0e ec bd c8 8f 3b bc e0 57 d5 3c 0d ce 06 be
       -0.115261376 -0.011447854 0.026042879 -0.1316454
0001a0 19 a0 d0 bd 7a 39 5d 3d de fe e3 3c e2 aa 44 3d
       -0.10186786 0.054009892 0.027831491 0.04801453
0001b0 2b 89 c7 bd 54 27 48 bc 1a 92 03 be 1e 71 39 bc
       -0.097429596 -0.012216408 -0.12848702 -0.011318473
0001c0 86 ec f3 bc 34 cb 1e bd c9 fc 19 bb cf ec 22 be
       -0.02977587 -0.03876801 -0.002349662 -0.15910648
0001d0 7c 62 87 bd 7c eb 20 bd 51 94 0d bc 87 06 9c 3d
       -0.06610581 -0.039287075 -0.008641318 0.076184325
0001e0 b7 78 e1 bd f3 fc ca bc 99 63 d8 bc 3f 0e 4d 3d
       -0.11009353 -0.024778819 -0.02641468 0.050062414
0001f0 2a d8 54 3d 06 aa 3b bc ba 63 11 bb a7 23 25 bd
       0.051963963 -0.011454111 -0.0022184686 -0.040317204
000200 ef ef d4 bb a6 e2 f7 bd fe 7f 51 bd d6 f0 0f bd
       -0.006498329 -0.12103777 -0.051147453 -0.03514179
000210 b9 f0 db bc fe 6b 96 bd be bd 21 3b 46 a8 60 bc
       -0.026848184 -0.073448166 0.0024679746 -0.0137119945
000220 c8 de 25 be 33 7f 8c bd a7 db 5a 3d 0e 47 02 3c
       -0.16198266 -0.06860199 0.053432133 0.007951511
000230 2c a9 f8 bd 16 1c 16 bc 2c ac 70 3c b7 fa 89 bd
       -0.12141642 -0.00916197 0.0146894865 -0.06737273
000240 5c 3a ac bd 67 07 e5 bc 52 51 f1 bd 6c 29 79 3c
       -0.08409569 -0.027957631 -0.11783089 0.01520763
000250 22 fc 98 3d a6 95 41 bd f6 b2 fc bd 1d 43 0c bd
       0.074699655 -0.047261856 -0.123388216 -0.03424369
000260 b8 56 7d 3d 63 00 13 3d d9 6a 5f 3d 37 b6 95 bd
       0.06185028 0.03588904 0.054545257 -0.07310145
000270 2c f4 2b bd b8 74 e9 bd c5 c5 98 bd 10 09 8f bd
       -0.041980907 -0.113992155 -0.074595965 -0.069841504
000280 6b 72 35 3d 92 4b 77 bc 4c 39 43 3d 9d b8 15 3d
       0.04429857 -0.015093701 0.047662064 0.036553014
000290 e7 cd 21 be 77 7e 22 3d 4f fc 64 bd ff 98 94 3c
       -0.15801202 0.039671388 -0.055904683 0.01813936
0002a0 60 16 59 bc 11 ef 39 3d 92 f6 17 be 84 47 41 bd
       -0.0132499635 0.045394007 -0.14840153 -0.047187343
0002b0 80 87 6f bd 06 ef 5d bc 00 67 d7 bc 48 23 8e bd
       -0.058478832 -0.013545757 -0.026294231 -0.06940323
0002c0 84 a4 31 bd f3 48 45 bc e2 7b 5c 3d 16 a4 18 bb
       -0.043369785 -0.012041318 0.05382908 -0.0023291162
0002d0 10 62 15 3d 09 5a 08 bb 92 6e 88 bd f3 0a b8 3b
       0.036470473 -0.0020805618 -0.066617146 0.0056165396
0002e0 80 1a b2 bd 89 68 e4 bd 51 1b 73 3a f5 80 fe bd
       -0.08696461 -0.11152751 0.0009273785 -0.1242694
0002f0 ec b2 5f bd 40 9d 94 3d c3 71 35 3d 01 fc 86 3d
       -0.054613993 0.072565556 0.044297945 0.06591035
000300 0c 76 b2 bd 85 b6 50 3d 9a 90 1a be 35 ce 95 3c
       -0.08713922 0.050955314 -0.15094224 0.018286804
000310 23 46 9d 3c 4d 42 67 3d a2 e3 77 bc f0 7c 5d bd
       0.019198483 0.056459714 -0.0151299555 -0.054074228
000320 3d f4 87 3c 92 f0 17 be 16 f1 12 bd 5d 36 b0 bc
       0.016595954 -0.14837864 -0.03587445 -0.021510297
000330 14 a1 a3 bd ba 0c 23 bd 64 89 11 be 43 9a a9 bc
       -0.079897076 -0.03980706 -0.14212567 -0.02070344
000340 35 9f 00 3d 61 30 31 3d 1a 90 17 be ab eb be bd
       0.03140183 0.04325903 -0.14801064 -0.09322294
000350 ec f1 92 bc e2 26 f2 bd 78 30 7e 3c e7 c5 bb 3a
       -0.017937623 -0.118238226 0.015514486 0.0014325947
000360 56 e6 12 be 49 e4 dc bd 6a 92 03 be 45 cc 43 3d
       -0.14345679 -0.107857294 -0.12848821 0.04780223
000370 f9 9f 88 3c a6 a1 a4 bd 86 88 86 3b 66 27 e7 bd
       0.016677843 -0.080386445 0.0041056303 -0.112868115
000380 88 44 ff bc 81 4c 90 3b 56 6a 6f 3d 98 46 96 bc
       -0.031160608 0.004403651 0.05845102 -0.018344209
000390 8b 4f 90 bd c6 34 0a 3c 44 3b 87 3c 9d fb 8c bd
       -0.070464216 0.008435434 0.016507752 -0.06883929
0003a0 ad ac d5 3c ce 11 ad bd bb 8c d2 bd 25 f0 95 bd
       0.026083315 -0.084506616 -0.102807485 -0.073211946
0003b0 7d 97 f7 3b b2 cc e3 bb eb b2 2c 3d df 5f e2 bd
       0.0075559006 -0.006951892 0.042162817 -0.11053442
0003c0 34 d3 a0 3c 40 18 e7 bd 41 36 68 bd 30 23 22 be
       0.01963196 -0.11283922 -0.056692366 -0.15833735
0003d0 e1 d7 dd bd 52 a7 21 bc 66 06 2e bd 29 b9 09 3c
       -0.10832191 -0.009866552 -0.04248657 0.008405962
0003e0 e6 77 2d 3d c0 ec 45 3d 1c 12 ad bd de 6f 21 3d
       0.042350672 0.048321486 -0.0845072 0.039413325
0003f0 e9 ae 13 bd d1 a9 39 3a e4 f4 ec bd fc f2 1a 3d
       -0.03605548 0.00070824946 -0.11570147 0.037829384

projector.0.weight f4 [40, 4]
000000 f3 b7 ac be c8 f9 2c 3e 17 dc db 3e df 25 a0 3c
       -0.33734092 0.16892159 0.42941353 0.019549308
000010 28 1a 0d 3f 5d f0 00 3f 2c 0d ba 3e 4a 1a 93 3d
       0.55118036 0.50366765 0.36338174 0.071827486
000020 21 46 cc be c1 9e b6 be ef 3c f2 be 7c ac e2 be
       -0.39897254 -0.35667995 -0.47312114 -0.4427222
000030 29 86 4a be 78 65 53 be 53 f6 b0 3e 76 9a 46 be
       -0.1977774 -0.20644176 0.3456293 -0.1939486
000040 bb ab cd 3d e7 78 67 be 3d be d6 be d9 aa f8 bd
       0.100425206 -0.22604714 -0.41942015 -0.121419616
000050 cc 12 6b 3e c3 40 80 3e f4 de 1b be e8 00 82 3d
       0.22956389 0.2504941 -0.15221769 0.06347829
000060 2a f9 e2 3e ba 4e 86 be ab 4d 95 be d8 4d f0 3e
       0.44330722 -0.2623194 -0.29160818 0.4693439
000070 65 3e 89 3e e0 06 e2 3e 21 5f a7 be 67 e5 b1 3e
       0.26805416 0.4414587 -0.32689765 0.34745333
000080 d2 f7 65 be 02 a6 2c 3e d3 67 3e 3e 73 46 3b 3e
       -0.22457817 0.16860202 0.18594293 0.18288593
000090 9f 54 9e be 95 9e 72 3e 92 2f 06 bd 02 8c e0 3e
       -0.30923936 0.23693307 -0.03276021 0.43856817
0000a0 e5 91 8e be 2c 7a db 3e e4 31 c3 be e5 f1 8f be
       -0.27845684 0.42866647 -0.38124 -0.28114238
0000b0 53 3d 59 bd 85 c6 e9 3e 33 9e be 3e 09 50 9c 3d
       -0.053037 0.4565927 0.3723007 0.07632453
0000c0 b9 92 be be 93 78 b0 3e 41 36 d5 be 56 6c c2 be
       -0.37221316 0.3446699 -0.41642955 -0.3797328
0000d0 0e b1 02 bf b8 e6 db 3d cb ce 06 bf 38 e5 d9 bd
       -0.51051414 0.107373655 -0.5265929 -0.10639423
0000e0 94 1d e4 be 73 97 24 be 02 80 9b be 0a f1 e5 be
       -0.44553816 -0.16073398 -0.303711 -0.4491046
0000f0 77 fd d8 be d9 f0 f6 3d a5 25 59 3e e9 07 d0 be
       -0.42380878 0.12057657 0.21205766 -0.40631035
000100 cd 19 e7 3e 07 51 bf 3e 67 75 48 3e 3e 73 ae 3e
       0.45136872 0.37366506 0.19576035 0.34072298
000110 c6 cd 45 3e c3 04 e2 be 1e 54 6b 3d 1f 58 07 bf
       0.19316778 -0.44144258 0.057453267 -0.5286884
000120 01 c3 16 3e ab 71 00 be 81 f2 c2 3e fe ae c4 bd
       0.14722826 -0.12543361 0.3807564 -0.096036896
000130 6c cb db 3e f9 eb af be 74 0b af 3d 64 08 d7 3d
       0.42928636 -0.3435972 0.085471064 0.10499647
000140 7e 62 e3 be 5f 87 cd be 49 39 ef be f6 dc da be
       -0.4441108 -0.40142342 -0.46723393 -0.42746705
000150 93 5a 84 3e b5 d8 01 bf 5d 56 d9 bc 13 29 e3 3d
       0.25850353 -0.50721294 -0.026530439 0.11091819
000160 bc 3a da 3e a9 c2 f9 be 97 04 5d be 71 64 55 be
       0.42622936 -0.48781326 -0.21583782 -0.20839097
000170 cc 32 cd 3e 92 a0 ea 3e d3 64 f4 3e f5 a7 7d be
       0.40077817 0.4582563 0.47733173 -0.24771102
000180 0c c7 e6 3e c1 2d c6 3e ee 00 92 be 4a 92 b6 3e
       0.45073736 0.38706782 -0.28516334 0.35658485
000190 63 c1 6c 3e 38 50 23 bd d0 48 89 be a1 1a 04 bd
       0.23120646 -0.039871424 -0.26813364 -0.032251958
0001a0 77 e4 99 be 06 d7 1a 3e 81 47 5a be 4b 83 3d 3e
       -0.30057117 0.15121087 -0.21316339 0.18507116
0001b0 07 8b 1a be 7d eb 25 be 8a 98 75 bd 71 20 c9 bd
       -0.15092097 -0.16203113 -0.059959926 -0.09820641
0001c0 3a 5c 41 3e 86 d5 4a be ef 16 33 3e a2 2b 9e be
       0.18882838 -0.19808015 0.17489217 -0.30892664
0001d0 a7 f6 8f bd dc 85 02 3f 48 f6 c6 3e b4 f2 5a be
       -0.07029467 0.50985503 0.38859773 -0.21381646
0001e0 e8 3b 86 3e c3 b1 98 be 64 3a 2c be a8 53 61 3e
       0.2621758 -0.2982312 -0.1681915 0.22004569
0001f0 ba d1 88 3e f3 b8 af be 84 52 fb 3e 68 15 e2 3e
       0.2672251 -0.34320793 0.49086392 0.44156957
000200 50 18 b4 3e 53 bb f5 be c5 e1 05 3e 9d e1 ba be
       0.351748 -0.4799448 0.13074405 -0.36500254
000210 7e 04 cf be f6 b8 ef 3e 83 5a d1 3e 78 f7 29 be
       -0.40433115 0.46820801 0.40889367 -0.16598308
000220 46 ef db be 87 25 d9 3c 70 1b ba bc 86 64 02 bd
       -0.4295599 0.026507152 -0.022718161 -0.031834148
000230 97 48 8d be 2a c1 0b be b0 9d df be 5c 75 08 3e
       -0.27594444 -0.13647905 -0.43674994 0.13326019
000240 d4 11 d5 be ab fb fb 3e 25 f9 89 be ca 36 d3 bd
       -0.41615164 0.49215445 -0.26947895 -0.103131846
000250 1b b8 a7 be df ea ea bb 84 32 ca 3e cc 98 35 bd
       -0.3275765 -0.007169112 0.39491665 -0.04433517
000260 83 a6 e7 be c9 ea ae bd 93 e0 82 3d d1 95 d6 be
       -0.45244226 -0.085408755 0.063904904 -0.41911176
000270 39 4b ed bd c7 53 7a bd e6 43 a5 3e 63 d0 75 be
       -0.11586613 -0.061115053 0.32278365 -0.24005274

projector.0.bias f4 [40]
000000 12 81 b2 bd 99 1d 26 3e 5b 87 bd be 10 18 d9 3e
       -0.087160245 0.16222228 -0.3701733 0.4240117
000010 c2 13 1a 3d 94 42 bd 3e 6c 2e ca 3e 91 d1 b3 bc
       0.0376165 0.36964858 0.39488542 -0.021950515
000020 a5 55 16 3f 29 98 28 be 75 ef 6c bd 97 89 31 be
       0.58724433 -0.16464294 -0.05784555 -0.17337643
000030 43 ec 1c be 4c 5d ad be 3d 83 f7 bd d3 a1 bf 3e
       -0.15324502 -0.33860242 -0.120855786 0.3742815
000040 5f 75 60 3d 1a 53 dc 3e 31 72 71 3d d9 20 a8 be
       0.054799434 0.4303215 0.058946792 -0.3283756
000050 06 f0 17 be bb 78 2b be 1c 9e 17 3e 34 f3 26 3e
       -0.14837655 -0.16745274 0.14806408 0.16303712
000060 51 46 d2 3e a2 08 b7 be ab 32 ae 3e 42 0f 0f 3f
       0.41069272 -0.35748774 0.34023032 0.55882657
000070 64 fa a3 be 25 8b ce 3e 50 c1 03 3f 3c 1c 4a be
       -0.3202697 0.40340534 0.51466846 -0.19737333
000080 b0 f9 cd 3d fc 6a 07 3e ca 2c b5 3d 70 7a 80 bd
       0.1005739 0.13224405 0.088464335 -0.06273353
000090 cd b4 f1 be 85 e6 16 3f 2d b2 10 3e 34 72 c4 bd
       -0.47208253 0.58945495 0.14130469 -0.09592095

projector.2.weight f4 [400, 40]
000000 00 7d da 3b 28 4f ce 3c 30 8b 33 3e 89 19 e5 3c
       0.006667733 0.025184229 0.17533565 0.027966278
000010 63 37 1b bc 36 dd 06 be d0 ae 6c 3d d4 af a2 bd
       -0.009473654 -0.13170323 0.0577839 -0.07943693
000020 ef c0 c4 bd 00 b0 93 bb 00 4b 27 bb 58 16 a8 3d
       -0.09607112 -0.004507065 -0.0025526881 0.08207387
000030 7d 39 03 be 32 a0 ad 3d 1c a7 c6 bd cb b2 a6 bc
       -0.12814899 0.084778205 -0.09699842 -0.020348927
000040 5c b0 08 3d 4c b9 0a be 12 1d 2d be ae 72 06 bc
       0.033371314 -0.13547248 -0.1690562 -0.008206053
000050 c0 c8 c0 bd 36 c6 ce bd fc b3 26 3d 26 da 94 bd
       -0.0941329 -0.100963995 0.04069899 -0.07268171
000060 9b 40 ef bd 76 dd 8b bd f2 13 cd bc 05 33 fb 3d
       -0.116822444 -0.0682935 -0.025033925 0.122655906
000070 bd 2e 8e 3d 47 5c 19 be b3 a5 18 3e 09 8e b1 3c
       0.06942508 -0.14976607 0.14906959 0.021674173
000080 19 0d 65 bc 8e 2b bc bd 56 00 a4 3d 43 bf e1 3d
       -0.0139801735 -0.09187995 0.080078766 0.110228084
000090 80 65 9b 3b dc 68 a2 3d 3e ec ba bd c0 40 26 be
       0.0047423244 0.079301566 -0.09127091 -0.16235638
0000a0 3f 4f c6 3d 67 84 2f 3e 1a 2b 05 3d 12 96 88 3d
       0.09683084 0.17140351 0.032511808 0.06669249
0000b0 51 9a a5 3d 2f ca 34 3e e7 0a 1d 3e e9 96 da 3d
       0.08086074 0.17655252 0.1533619 0.10673315
0000c0 51 be dd 3d 90 a2 70 3d c8 b8 19 3e a6 c5 b2 bd
       0.108273156 0.05874878 0.15011895 -0.08729105
0000d0 cf 45 4c 3e 4e 4b 3e bd da fd 48 bd c3 e2 18 3d
       0.19948505 -0.046458535 -0.049070217 0.03732563
0000e0 2c 4f 64 bc 62 0c 20 3e f5 62 0b 3e 74 e9 88 3e
       -0.013934892 0.15629724 0.13611968 0.2674061
0000f0 bb a1 3f 3d f7 f3 ae 3d c9 64 fc 3c d6 08 18 3e
       0.046785098 0.08542626 0.030809777 0.1484712
000100 0f 9f 59 3d 93 c6 05 3e fd 57 d7 3d 6c 7f 1b 3e
       0.053130206 0.13064031 0.10514829 0.15185326
000110 44 79 d4 bd ff fa a8 3c 33 9a 2b 3d f2 8b ea 3b
       -0.10374692 0.020627497 0.041895103 0.007157796
000120 51 17 7c bc b1 2d 4d 3d 21 3b 49 3e ef 8b 06 3e
       -0.015386418 0.050092403 0.19651462 0.13139318
000130 d2 35 48 3e 61 80 04 bd 7c 94 ab 3d e6 64 64 3e
       0.19551781 -0.032348994 0.083779305 0.22304115
000140 e6 00 aa 3d 28 6d ea 3b 0d c9 e2 3d 16 a3 00 bc
       0.083009526 0.0071541257 0.11073504 -0.007851383
000150 d8 b6 db 3d b3 44 04 3e 6c c8 ae bd f5 d0 79 bd
       0.10728234 0.12916832 -0.08534321 -0.060990293
000160 e8 f1 ac bd 6c 09 10 be 30 49 9a 3c 28 93 ee 3d
       -0.084445775 -0.14066094 0.018833727 0.116491616
000170 e8 ee 80 3d 45 91 ee bd 06 38 9f bd 70 56 a1 bd
       0.06295568 -0.11648802 -0.077743575 -0.07877815
000180 4d 58 8c 3e 35 6d d0 bb 03 24 4e 3e a6 73 20 3d
       0.27411118 -0.0063606747 0.20130925 0.03917279
000190 ca a6 ad 3d 25 3b 38 3d cc 8c 83 bd 41 ae 46 3e
       0.08479078 0.04497828 -0.06423339 0.1940241
0001a0 12 d6 26 3c 81 79 89 bc 38 25 a6 3d 0b 57 1e 3e
       0.010182874 -0.01678157 0.08112568 0.15462892
0001b0 08 e7 d0 bd 07 08 de 3d 2e 57 ba 3d 31 bf 76 bd
       -0.10200316 0.10841375 0.090986595 -0.060240928
0001c0 38 7b b4 3d 08 fe 7d 3c 1c f1 2c bd 82 c1 2c 3d
       0.088125646 0.01550246 -0.042222127 0.04217673
0001d0 91 48 92 bd 42 04 b2 3d 7d a8 6d bd eb 71 9f 3d
       -0.07142747 0.08692218 -0.05802201 0.077854
0001e0 c6 f2 07 3d cc c5 e3 3d d1 89 bd bd 00 8b 3b 3e
       0.03319051 0.11121711 -0.09254802 0.18314743
0001f0 2a c7 6f 3b c8 b7 b1 bd d9 ce 5f be b0 26 6d bd
       0.0036587217 -0.086776316 -0.2185625 -0.057898223
000200 4f c7 15 39 78 c5 2e 3d ff 8b 6e bd b6 84 0a 3e
       0.00014283996 0.04266879 -0.05823898 0.13527188
000210 79 48 e4 bd 68 b0 c7 bd 7c 25 85 3c e8 d2 9c 3d
       -0.111466356 -0.09750444 0.016253226 0.07657415
000220 f4 fa 91 bd 25 7b da bd ae 3a 81 bd 74 7f 94 3c
       -0.07127944 -0.10668019 -0.063100204 0.01812718
000230 31 32 6c 3d 61 6a 2c 3e ed e4 17 3e 20 3a df bd
       0.057665054 0.16837455 0.14833422 -0.10899758
000240 2c 07 52 bb 49 8a 5a be 8c 76 0b 3e f0 ad 3e 3e
       -0.0032047732 -0.21341814 0.13619441 0.1862104
000250 da 54 01 3e 67 69 f6 3d a3 b6 8b bd d1 85 27 3e
       0.12630025 0.12031823 -0.068219446 0.1635964
000260 5c f2 e3 3d 6c c1 86 bd 73 77 48 3d 6f b0 96 3d
       0.11130211 -0.06579861 0.04894204 0.07357871
000270 89 47 06 bd 47 83 0b 3d dd 9f 0f bd cd 4c c6 3c
       -0.032783065 0.034060743 -0.035064567 0.024206543
000280 5e 09 ae 3d 89 b3 28 be b2 77 fd bd c1 82 d0 3a
       0.084978804 -0.16474737 -0.12376346 0.0015908108
000290 e9 b3 16 3e 76 cc 12 be 10 8d eb bc 7e 1a db 3d
       0.14717068 -0.14335808 -0.028753787 0.10698412
0002a0 a2 02 8e 3d 00 c3 35 bb 70 b0 73 bc db a6 cf 3d
       0.06934096 -0.0027734637 -0.014873609 0.10139247
0002b0 fe 01 f2 3d 71 be c8 bd 98 70 67 3d 0b ef 1e be
       0.11816786 -0.09801949 0.056503862 -0.15520875
0002c0 3f c2 a7 3d fa 80 1a 3b f7 52 2d be 7b 29 21 be
       0.081913464 0.0023575411 -0.1692618 -0.1573848
0002d0 14 55 73 bd 7a 30 10 be 86 58 fd 3d 01 b4 d1 bd
       -0.05940731 -0.14080992 0.123704 -0.10239411
0002e0 cc 9d 3e bd 20 5b fc 3b 66 a4 91 bd 60 8b 2f bc
       -0.046537206 0.0077012926 -0.07111435 -0.010714382
0002f0 82 42 ab bd f8 98 70 bd 55 b6 f9 bd 2c d1 88 3d
       -0.08362295 -0.058739632 -0.1219298 0.06680521
000300 d3 5a 29 be 45 b9 82 3d c2 06 71 bd 50 00 2d 3d
       -0.16538553 0.063829936 -0.058844335 0.042236626
000310 78 67 f1 3c 5a 7d 91 bd e8 d7 7b 3d 41 2a 96 bd
       0.029468283 -0.07103987 0.0614852 -0.07332278
000320 1d a6 e1 bd 6f b8 40 bc 2a 75 4d 3e f1 ad 68 3e
       -0.11018012 -0.011762722 0.20064226 0.22722603
000330 ed 24 50 3e ca 49 b9 bd 45 52 d6 3c d5 1b 63 3e
       0.20326586 -0.09047277 0.026162276 0.22178586
000340 2f b2 92 bd 83 41 4d 3e 5a e4 3b 3e 62 b7 ab bd
       -0.07162892 0.20044522 0.18348828 -0.08384587
000350 c1 5e 25 bc 68 18 97 bd 7a fc 59 3e a6 78 2b bd
       -0.010093392 -0.07377702 0.21287718 -0.041863106
000360 dd 74 a5 3d 1f 5c 52 3e 7a fa 00 3e db 2a 9d 3d
       0.080789305 0.20542954 0.12595549 0.0767419
000370 67 7d 65 3e 3a 56 e1 3d 71 71 22 3e 2e 35 3e bc
       0.22411118 0.110027745 0.15863587 -0.011609359
000380 5b b0 c2 bc e9 d0 55 3b bd 66 ca 3d eb c5 27 3d
       -0.023765733 0.003262574 0.09882877 0.040960234
000390 81 1a 1b 3d d7 d7 2e 3e ce 29 2d bd ef 8f 80 3c
       0.037867073 0.17074524 -0.042276196 0.015693633
0003a0 0f b9 37 3e de b5 0c 3e 88 c5 94 3b 66 31 e9 bd
       0.17941688 0.13741252 0.004540149 -0.11386375
0003b0 3a 54 31 3c ff bf 71 3d 6e a3 4e 3e 7f b7 5d 3e
       0.010823304 0.059020992 0.20179531 0.2165203
0003c0 ce ab 86 bd 96 67 e6 bd 33 f1 00 be 73 db 15 bd
       -0.06575738 -0.11250226 -0.1259201 -0.036586236
0003d0 5c 84 bc bd 2a ab 14 be ae 4e b8 3d 20 07 b2 3c
       -0.09204933 -0.14518419 0.08999382 0.021731913
0003e0 c6 0d 0e be dc 07 03 3d 28 d5 0f be 69 61 b0 bd
       -0.13872442 0.031989917 -0.14046156 -0.086123295
0003f0 d0 56 9a bc 0f 21 1a be 44 f5 cd 3d 2e 02 3d 3d
       -0.018840224 -0.15051673 0.10056546 0.046144657

projector.2.bias f4 [400]
000000 41 a6 42 3d b8 b8 71 3d 6c 84 3f 3e 21 13 c9 bd
       0.047521833 0.059014052 0.18702859 -0.09818102
000010 21 aa 83 bc df 88 82 3e a0 e5 f9 bd 42 20 4a be
       -0.016072335 0.2549505 -0.122020006 -0.19738868
000020 41 cc 87 3c aa b1 30 3e 5e 95 a3 3e 36 e3 33 3e
       0.016576888 0.17255273 0.31949896 0.17567143
000030 ea fe f6 bd 69 2d 89 3b 67 21 15 3d 4e 6a 13 3e
       -0.1206034 0.0041863215 0.036408808 0.14396021
000040 1a 49 0e be 60 5c ff 3d cd 34 1a 3d 4e d4 dc bd
       -0.13895074 0.12468791 0.03764801 -0.107826814
000050 6f 65 96 3e c5 3c f0 bb 04 d6 35 3e f3 3f 94 3e
       0.29374263 -0.007331463 0.17757422 0.2895504
000060 30 be 00 3e 58 e9 09 bd 99 4b f8 3d 20 0e 46 bd
       0.12572551 -0.0336698 0.12123794 -0.048353314
000070 4e dd 18 bd bb ef 6f 3e 36 de 79 3e 6c e9 f0 3c
       -0.037320428 0.23431294 0.24401173 0.02940818
000080 72 14 37 3e 16 00 01 3e 23 8a cd 3d 00 d1 e0 bb
       0.17878893 0.12597689 0.10036113 -0.0068608522
000090 5f cf 62 3c 86 37 5d ba 16 74 8d 3e 7f d1 b7 3d
       0.013843386 -0.00084387546 0.2762763 0.08975505
0000a0 6d e3 42 bd a0 91 ce 3d d7 64 03 be 7e 31 a1 3d
       -0.04758017 0.100863695 -0.12831436 0.07870768
0000b0 87 20 91 3e fa 40 07 be 1e cc e0 3c 0c a1 e7 3d
       0.2834513 -0.1320838 0.02744108 0.11310014
0000c0 cc f6 8a bc 85 7d 37 3e 53 fc 86 3d b2 f7 8d 3e
       -0.016963385 0.17918976 0.06591096 0.2772804
0000d0 3f 43 26 3e ba af cb 3d 21 36 33 3e 62 01 b3 3b
       0.1623659 0.099456266 0.17501117 0.0054628113
0000e0 21 8d cf 3d f5 74 e5 bd 2b e0 01 be d2 ec 8c 3e
       0.1013434 -0.112039484 -0.1268317 0.2752443
0000f0 59 6b 4d 3e 19 0d 7f bd 79 55 2d 3e 9d 76 e3 bb
       0.20060481 -0.06226835 0.16927136 -0.00694163
000100 51 0e bf 3d 3f e2 8c 3c 8e ca c4 3b e1 72 92 3c
       0.093289025 0.017197726 0.0060055917 0.017877044
000110 09 cc 76 3e 82 8e af 3d b1 aa 39 3e 26 ce e2 3d
       0.2410127 0.08572103 0.1813152 0.11074476
000120 26 c7 a0 3c a4 6c 1e 3d d5 a6 9c 3e 9b b6 95 3d
       0.019626211 0.038677827 0.30596033 0.0731022
000130 d3 73 5c 3e 3b 8a 3a be 4f 44 28 be 40 82 1e 3b
       0.21528558 -0.18216793 -0.16432308 0.0024186522
000140 59 c6 fe bd 5d 0d 56 3e 12 60 3a 3e 49 b9 90 3e
       -0.124401756 0.20903535 0.1820071 0.2826636
000150 a9 39 42 3e 0c 83 09 be 73 7f 89 bd c2 27 ae bd
       0.18967308 -0.13428897 -0.06713762 -0.08503677
000160 5f a1 8c 3e a5 3d 1c 3e d9 75 5b 3e e8 d0 2b 3e
       0.27466866 0.1525789 0.21431674 0.1677891
000170 bf bd 88 3e 79 52 56 3e ce d6 c6 bc 94 7c 12 3d
       0.26707265 0.20929898 -0.024272349 0.03576334
000180 96 26 99 bd 02 a1 8f 3e 26 4f e0 3d c0 15 08 3e
       -0.07478063 0.28052527 0.10952596 0.13289547
000190 82 c4 58 3c 93 79 ed 3d 8a 6f 0f bd cb 04 57 3c
       0.013230445 0.11595454 -0.03501848 0.013123701
0001a0 f1 fa 96 3d e0 b3 5d 3e 40 5b 39 3e 04 1d ec 3d
       0.07372082 0.21650648 0.18101215 0.11528972
0001b0 d1 e9 0f be d7 75 02 3c 40 ad 98 3e 6e 71 7a 3e
       -0.14054038 0.0079626655 0.2981968 0.24457332
0001c0 f3 00 2c 3e 48 14 76 bd 32 a8 01 3e 46 fb c1 bc
       0.16797237 -0.060077935 0.12661818 -0.023679387
0001d0 94 d8 4b 3e 8f 43 87 3d db 96 24 3e d2 d3 29 3e
       0.19906837 0.06604683 0.16073172 0.1658471
0001e0 0c c3 3e 3e e3 7d 82 bd d5 08 38 3d b0 03 3c 3e
       0.18629092 -0.06371667 0.044930298 0.18360782
0001f0 7a 49 f5 bd 2c 12 95 3d 06 b2 9b 3d a9 7e 08 3e
       -0.11976905 0.07278857 0.07602315 0.13329567
000200 f9 ce 17 3e 2f ef 40 bd d9 02 04 3e 57 21 d5 bd
       0.14825048 -0.047103103 0.12891711 -0.1040675
000210 93 f7 11 be f7 9d 3d bd d6 ed 1f 3e 3f f8 90 3e
       -0.14254598 -0.046293225 0.15618071 0.28314397
000220 d7 38 0a be 44 a1 7f 3e e8 fe 10 be 5b 2b 58 3e
       -0.13498245 0.24963862 -0.14159739 0.21110289
000230 b6 70 ad 3d 3e 73 4a 3e a8 bb c9 bc b9 e9 6b 3e
       0.084687635 0.19770524 -0.024625614 0.23038377
000240 41 b7 17 3c 4a 43 ab bd b8 0b dd bd 85 05 ca bc
       0.00926 -0.08362444 -0.10793251 -0.024660835
000250 5f 79 3d bd 1f 49 99 3d 9c eb ea bc 91 a3 64 bd
       -0.046258327 0.0748465 -0.0286768 -0.05582005
000260 96 62 06 3d ae 67 c8 bc 79 af ee 3d 3d 99 d1 3d
       0.032808863 -0.0244635 0.116545625 0.10234306
000270 fc 3c 99 3e ed de 4d 3e bd 84 0b 3e 37 79 11 3e
       0.2992934 0.2010457 0.13624854 0.14206396
000280 dd 41 44 3d 5d 64 8f 3e 94 1f cc 3d 5e a1 8a 3e
       0.047914375 0.2800626 0.099669605 0.27076238
000290 04 19 30 3d 6c 28 85 bd d5 06 3f 3e d3 20 ae 3d
       0.042992607 -0.065018505 0.1865495 0.085023545
0002a0 66 d6 98 3d 12 2d b6 3d d5 5b 86 bd f7 fc e5 3d
       0.07462768 0.08895315 -0.06560484 0.1122989
0002b0 03 a2 54 3b a4 62 79 3d b1 ff 25 3c 64 7b 31 3e
       0.00324452 0.060885087 0.010131762 0.17332226
0002c0 6f a6 9d 3d a5 0d 4f be a9 86 f2 3d 1f df 65 3e
       0.0769776 -0.20220049 0.11842091 0.22448395
0002d0 93 cf 18 3e 79 f1 5b bc a1 d0 28 bb b9 3b 94 ba
       0.14922933 -0.013424271 -0.0025759118 -0.0011309303
0002e0 da 5e 05 3e 62 f3 dd 3d b7 03 8c 3e 71 3e 93 3d
       0.13024464 0.10837437 0.27346584 0.07189644
0002f0 bc 64 22 3e a1 99 90 3e c1 d2 ab bd 9a 29 86 3e
       0.1585874 0.2824221 -0.083898075 0.26203614
000300 8b ce cd 3d 16 b7 09 3e c2 9c e7 3d 97 62 53 bd
       0.100491606 0.13448748 0.11309196 -0.051607694
000310 d5 34 8a 3e a4 5f e7 3b b8 d3 75 bd 84 4a 50 3e
       0.26993433 0.007060962 -0.060016364 0.20340925
000320 ef 87 23 bd 4f 3f d2 bd 58 83 28 bd 8c 00 e3 3c
       -0.03992456 -0.102659814 -0.041140884 0.027710222
000330 b9 f9 0e 3d b0 ed aa 3d 8d 6a ba 3d 1a 4f b7 3d
       0.034906123 0.083461165 0.09102354 0.08950634
000340 a9 da 26 be 96 54 1f 3e 28 4b 91 bd 7b ae 47 3d
       -0.1629435 0.1555961 -0.07094413 0.048750382
000350 b6 02 d8 bd 0b 5c 68 3e 17 a1 82 3e c0 53 f0 3d
       -0.10547392 0.22691362 0.25513527 0.11734724
000360 41 e4 3c bd 80 a3 15 3e aa 3a 20 bd 0e b1 b3 3d
       -0.046116117 0.14613152 -0.039118446 0.08774005
000370 4b a1 01 3e d4 9f 36 3e fc 5d ce 3d 80 b2 aa 3c
       0.12659185 0.17834407 0.1007652 0.020837069
000380 c0 21 87 3e 91 4f 0a 3e 1c 02 07 bd 6c d0 5f 3e
       0.26392937 0.13506915 -0.032960996 0.2185685
000390 b1 ea bf 3a 0b 60 05 be 85 09 bb 3c 84 45 aa bd
       0.0014642087 -0.13024919 0.022831688 -0.0831404
0003a0 31 f8 9a 3e 8c ca d7 3d 37 61 5e 3d c5 d7 73 bc
       0.3026748 0.105366796 0.05429193 -0.014882986
0003b0 bc 04 ff 3d a4 03 1a 3e 97 54 5a 3d 68 8a 42 bd
       0.12452075 0.15040451 0.053303327 -0.047495276
0003c0 ad 92 61 3d 42 8e 9a bd 35 f0 e6 3d 15 03 1e be
       0.05507152 -0.07546665 0.112762846 -0.15430863
0003d0 aa 69 ef bd a5 c3 27 3c a8 29 00 bd c8 84 8f 3e
       -0.11690076 0.010239516 -0.031289726 0.28030992
0003e0 ff 9b 32 3e 28 41 20 3e 3c ca 60 3e 0b eb 7f bc
       0.1744232 0.15649855 0.21952146 -0.015620003
0003f0 0a 21 81 3e 57 22 52 bd 10 22 c7 bc a1 9b 22 3d
       0.2522052 -0.05130228 -0.024308234 0.0396992

projector.4.weight f4 [40, 400]
000000 97 73 09 3d 01 90 9e 3d 58 11 72 3d 57 a8 46 bc
       0.0335575 0.0774231 0.05909857 -0.012125096
000010 98 00 91 3c 50 bd cb 3d c0 8b 89 bb 2f 3d 5e 3d
       0.017700478 0.09948218 -0.0041975677 0.054257568
000020 dc e8 86 bc 48 73 87 3d ce 03 d8 3c ab ef 76 3d
       -0.016468458 0.06613785 0.026369002 0.06028716
000030 21 b4 e8 3a ec d9 c9 3d ed 71 d0 bc ce 0e 04 3d
       0.0017753878 0.098560184 -0.025444949 0.03224068
000040 3d 1f 44 3d 2d 46 80 3a c8 51 96 3d 7c 2c 51 3d
       0.047881354 0.0009786539 0.07339817 0.051067814
000050 9a 73 88 3c 16 ac b0 3d ad 14 91 3d c0 22 0b 3d
       0.016656686 0.08626573 0.07084022 0.033968687
000060 6b 59 99 3d f8 7d 64 3d be 6a c7 3d 3d 3b d8 bc
       0.07487758 0.055784196 0.09737156 -0.026395435
000070 47 06 39 bd ff c0 27 3d 45 2c dc 3d 45 ae 32 bc
       -0.045172002 0.04095554 0.10750631 -0.010905807
000080 15 4e c2 3d e7 47 a3 3d 04 c3 e6 3c 54 de 20 bc
       0.09487549 0.07972699 0.028169163 -0.009818632
000090 65 a1 b0 3d ba 74 ad 3c 71 c7 95 3d f6 86 ad 3c
       0.086245336 0.021173824 0.07313431 0.021182518
0000a0 ea 2f 46 bd ec c3 99 3d 3e 14 f5 3c 12 60 84 3c
       -0.04838554 0.07508072 0.029916879 0.016159091
0000b0 d0 20 ae 3d b0 3f 0e bb 05 91 ae 3d b5 0f ac 3d
       0.08502352 -0.0021705441 0.08523754 0.084014334
0000c0 d2 42 6a 3d df 57 72 3d 9e d1 b4 3d 5d ae eb 3c
       0.05719263 0.05916583 0.08829044 0.028769666
0000d0 46 7f 0c 3d 61 b1 cd 3c 91 1e 8f 3d 30 dd 2d 3b
       0.034301065 0.025108995 0.06988252 0.0026529543
0000e0 f7 5c eb 3c cb 64 6c 3d fc b5 91 bc 21 72 ba 3d
       0.028730853 0.05771331 -0.017786972 0.091037996
0000f0 6c f7 c5 3d a2 83 c9 3c c0 0f 85 3c 22 c5 86 bb
       0.096663326 0.0245989 0.016242862 -0.0041128555
000100 47 5f 63 3d 5d 3f c0 3d a7 6b 88 3d fe b1 a8 3c
       0.055510785 0.093870856 0.06661158 0.020592686
000110 ad 61 c9 3d ae 9a 62 3d fe 98 6d 3c 2d 71 3f 3d
       0.09833083 0.055323295 0.014501808 0.046738792
000120 28 13 d9 bb ba 18 96 bc c0 7b a5 3d 38 91 b6 3d
       -0.006624598 -0.018322337 0.08080244 0.08914417
000130 92 6b ba 3d c2 92 8c 3c 02 cf a1 3d 62 5f a3 3c
       0.09102549 0.017159823 0.07900812 0.019942943
000140 13 8c bc 3c cf d9 da 3d 53 82 89 3d 48 9d e3 3d
       0.023016011 0.10686075 0.067143105 0.111139834
000150 48 1d 59 3d 72 13 d9 3c 76 2d 29 bd d0 f6 0c bd
       0.05300644 0.02649853 -0.04130312 -0.034415066
000160 e5 12 7f 3d 97 5a e3 3d bc a0 a0 3c 72 eb 84 3d
       0.06227388 0.11101263 0.019607894 0.0649022
000170 5a 3b 47 3d f3 17 a0 3c 2a 46 41 3b 75 64 12 bd
       0.048640586 0.01954267 0.0029491284 -0.035740335
000180 9f e8 89 3d 39 4d 2c 3d 9c 1c f3 3c bb 03 29 3d
       0.06733822 0.042065833 0.029676728 0.041263323
000190 b7 45 d0 3b af a5 64 3d 08 9f 50 3d 0b 94 9e 3c
       0.006355967 0.05582207 0.050932914 0.019357702
0001a0 76 f2 74 bc c3 89 69 3d e1 24 57 3d 40 21 8f 3d
       -0.014950385 0.057016145 0.052525405 0.06988764
0001b0 bb fa 7b bc 94 2f 9d 3d 83 d8 c1 3d 20 67 30 3d
       -0.015379603 0.076750904 0.094651245 0.043067098
0001c0 9f cb 8d 3d 0b 96 9f 3d 13 9d 1d bd e8 14 b9 3d
       0.06923603 0.0779229 -0.038479876 0.09037191
0001d0 df 49 d4 3d 71 9c 1b 3d fe 17 34 3c 38 4c ec bb
       0.10365652 0.03799099 0.010992048 -0.0072112344
0001e0 b0 94 7d 3d d3 34 b2 bc 28 68 fd 3c 43 4b a0 bc
       0.061909378 -0.021753704 0.030933455 -0.019567138
0001f0 d6 17 1b bd 30 cf 56 3b 9c 5d 58 3d 3e 96 ea 3b
       -0.03786453 0.0032777302 0.052823648 0.0071590235
000200 8c 4c ed 3d 11 58 68 3d 90 45 7b 3d 57 2e 41 3d
       0.11586866 0.05672461 0.061345637 0.047163334
000210 4a dd b3 bc b4 3d a3 3b 1f 35 0b 3c 38 22 1e 3d
       -0.021956105 0.004981721 0.008496552 0.038606852
000220 6c aa 93 3d 08 3c dc 3c 08 83 08 bd 01 2c bc 3c
       0.0721024 0.026884094 -0.033328086 0.022970201
000230 66 d6 0e bd 1a 4c 8f 3d 67 3a b5 3d 20 ac 7e 3c
       -0.034872435 0.06996937 0.0884903 0.0155439675
000240 26 fc 6e 3d a7 a8 0c 3d 22 cb 5c 3d 64 8a 48 3c
       0.058345936 0.034340527 0.05390466 0.012240026
000250 7e af 23 3c 4b 36 b5 3d ff b0 8f 3d e5 f0 01 bc
       0.009990571 0.08848246 0.07016181 -0.007930969
000260 75 58 e1 3c fa ae 48 bd 41 a8 be 3d 6d f1 ae 3c
       0.027508 -0.048994996 0.09309436 0.021355355
000270 8e 80 ba 3d 95 5b 98 3c 29 25 2a 3d 24 75 4d 3d
       0.09106551 0.018598357 0.041539345 0.050160542
000280 d5 6b f2 3c 42 35 57 3d 06 85 80 3c 17 fa b3 3d
       0.029592434 0.052541025 0.01568843 0.08787935
000290 80 20 73 bb 79 0b 17 3d e5 2c 90 3d 3a 89 62 3d
       -0.003709823 0.036876176 0.07039813 0.05530665
0002a0 26 de b9 3c f0 a2 4b 3d e9 f0 84 bc 9b 96 6c 3c
       0.022688936 0.049715936 -0.016228156 0.014440204
0002b0 d3 68 a1 3d be 4e ab 3c 72 4f 21 3d 6a 26 c1 3d
       0.07881322 0.02091157 0.039382406 0.09431155
0002c0 48 eb b8 3d a0 95 08 bd c7 af fd 3b 47 48 af 3c
       0.09029251 -0.03334582 0.0077419016 0.02139677
0002d0 51 12 f7 3c c7 67 a8 3d 88 b0 16 bd e2 1d d9 3c
       0.030160101 0.08222919 -0.036789447 0.026503507
0002e0 fe bb f5 3c 01 67 33 3c db 05 0e 3d 04 9e fa 3c
       0.029996868 0.010949851 0.034673553 0.030592926
0002f0 9f 61 40 3d e9 9c b5 3c cc 07 93 3b e3 7f b9 3d
       0.0469681 0.022169547 0.0044870134 0.090575956
000300 98 17 32 3c ef 19 71 3d 4d 8d da 3d 8a 07 8e 3d
       0.010869883 0.058862623 0.10671482 0.06935032
000310 25 35 99 3d 7e 96 30 bc 6e 59 00 bd 0c cc 92 bb
       0.0748084 -0.010778068 -0.031335287 -0.0044798907
000320 78 af b2 3c ac b0 79 bc 1f 86 34 3d b8 9a 69 3d
       0.021812186 -0.015239876 0.04407322 0.057032317
000330 f1 cc 7e 3d 73 ad a7 3d c0 b8 a1 bb 95 d9 97 3c
       0.062207166 0.0818738 -0.004935354 0.018536368
000340 13 fd bb 3d 3c 5c 3e 3d 07 7a a2 3c 9e c3 97 3c
       0.091791295 0.04647468 0.019833578 0.018525895
000350 b3 c1 df bc 1f 5b 6a 3c ec 96 65 3d e0 7c 06 3d
       -0.027314043 0.0143039515 0.056052133 0.032833934
000360 f2 2f 7d 3d 44 20 13 3d bd 88 56 3d 47 e7 58 3d
       0.061813302 0.035919443 0.052376498 0.05295494
000370 34 94 fd 3c b3 cb b4 3d e3 2d 83 3d 0b bb 82 3d
       0.030954458 0.08827915 0.064052366 0.06383332
000380 f6 01 c1 3d a5 a1 32 3d 20 12 a4 3d 37 d3 aa 3d
       0.09424202 0.043611187 0.080112696 0.08341067
000390 fd ee a6 3d 15 75 b1 3d 4c 74 a8 3d aa 99 b9 bc
       0.08151052 0.0866491 0.08225307 -0.02265628
0003a0 08 15 6b 3d f1 31 f5 ba 5b 57 40 3d 60 83 86 3d
       0.057393104 -0.00187069 0.04695831 0.065680265
0003b0 80 01 b5 3d 49 ed b3 3b 31 02 96 3c a2 49 1b 3d
       0.08838177 0.005490933 0.018311592 0.03791202
0003c0 88 1b c8 3b 7d 20 76 3b b0 50 96 3c 77 46 92 3d
       0.0061067976 0.0037555986 0.018349022 0.07142346
0003d0 f2 fd 98 3d 4c 84 91 3d 17 29 ba 3c 7a 5b 16 3d
       0.07470311 0.07105312 0.022724671 0.036708333
0003e0 48 fb 51 3d 57 a9 40 3d 60 39 cb 3d fe 69 8e 3d
       0.05126503 0.047036495 0.09923053 0.0695381
0003f0 8d d8 b3 3d 96 18 98 3c 40 10 3c 3c 97 af 61 3d
       0.08781538 0.018566411 0.011478484 0.055099096

projector.4.bias f4 [40]
000000 dc cd 07 3e f3 4b 2c bd 2f dc 25 3e 24 98 46 3e
       0.13262123 -0.04206462 0.16197275 0.19393975
000010 2a 1d 41 bd 7d 71 ba bd 9e 79 2b bd 27 59 cb bd
       -0.047146954 -0.091036774 -0.04186403 -0.09929114
000020 75 a7 66 bd eb 68 1d bd 8b 71 71 3e 33 1c 31 3e
       -0.056312043 -0.038430136 0.2357847 0.17295913
000030 57 15 fb bc bc 1b 71 bd 2a 5d 32 3e f1 90 88 bd
       -0.030649824 -0.05886434 0.17418352 -0.066682704
000040 a2 d0 b9 3c 2d 90 03 3e 0d 6a 3e bd 0d 39 0b bd
       0.022682492 0.12847967 -0.046487857 -0.033989955
000050 00 99 a9 bb 0c 40 4f bc c6 0f 20 bd 20 72 95 bd
       -0.0051757097 -0.012649547 -0.039077543 -0.07297158
000060 c8 8a 12 bd 3c 97 23 3e f2 db b4 3c 8c db ff 3d
       -0.035776883 0.1597566 0.022077534 0.12493047
000070 e3 84 60 bd 30 e9 11 3e 30 71 3a bd 05 5a 66 bd
       -0.05481423 0.1424911 -0.0455181 -0.056238193
000080 e9 24 5d bd 61 a8 46 bc ba 8b cc bc 88 47 a4 bc
       -0.05399028 -0.012125106 -0.02496897 -0.02005364
000090 f7 55 7d bd 5c 13 2b 3e c2 75 1f bb 2f 07 0a 3e
       -0.06184956 0.16706604 -0.0024331664 0.13479303

projector.6.weight f4 [4, 40]
000000 2e d5 86 3c ab ea b8 bd 40 54 a9 3c c1 74 eb 3d
       0.016459074 -0.09029134 0.020670056 0.114968784
000010 04 06 a5 3d 42 fe fc 3d 84 80 38 3d c3 38 2d 3d
       0.08057788 0.12353183 0.045044437 0.04229046
000020 78 c3 48 bd 29 2f 1f 3e dc 5e 5f 3e 14 6c 4c 3e
       -0.04901454 0.15545334 0.2181353 0.19963104
000030 bf f1 aa bd 0c 11 06 bd 10 f3 9e 3d 1b 01 12 3e
       -0.08346891 -0.0327311 0.07761204 0.14258234
000040 ba 77 e9 3d 73 12 8d 3d cf 47 a2 bd 44 7c 96 3d
       0.11399789 0.068882845 -0.07923853 0.073479205
000050 97 5e 00 3e 39 8f be bc bc 8c fc bd c5 95 83 bd
       0.12536083 -0.023261653 -0.123315305 -0.06425051
000060 13 c0 f7 bb a2 34 f2 3d b2 b9 03 be 9a 96 47 3e
       -0.007560739 0.11826445 -0.12863806 0.19491044
000070 6b c5 b4 bd b3 f0 1b 3e ac 0a 40 3e c9 4d b6 bd
       -0.08826717 0.15228538 0.18754071 -0.08901555
000080 a0 a2 02 3e d2 cf 06 3e 38 6e 15 3d 2c 4c 48 3e
       0.12757349 0.13165215 0.036482066 0.19560307
000090 1a 79 85 3d ad e4 1f 3e fd a3 5a 3b 93 d3 54 3e
       0.06517239 0.15614577 0.0033361905 0.20783834
0000a0 04 be 67 3e 2c 52 c5 bd 33 ae 32 3e 73 d3 0b 3e
       0.22631079 -0.09634814 0.17449264 0.1365488
0000b0 66 8e f6 3d d9 31 f5 bb 60 4a d0 3b 37 9a 6a bd
       0.12038879 -0.007482749 0.0063565224 -0.057275977
0000c0 e6 a0 30 3e af 71 c6 3b cd c5 5c 3e 19 78 c9 3c
       0.17248878 0.0060560326 0.2155983 0.0245934
0000d0 42 88 c0 3b f4 4d 84 3d 0e 5e 55 3e 65 21 0e bd
       0.005875618 0.06460181 0.2083666 -0.034699816
0000e0 ba 29 cd bd fd 2a a5 3d c6 06 f3 3d a6 0e eb 3d
       -0.10017724 0.0806484 0.11866526 0.11477403
0000f0 ff e0 10 be 3d 25 97 bd ea 03 7b bd 2d 7c 34 bd
       -0.14148329 -0.073801495 -0.06128303 -0.044063736
000100 80 7e 29 3d 91 36 8c 3d 10 d8 9f 3d b0 4a 0b 3c
       0.041380405 0.06846345 0.078048825 0.008501694
000110 43 e4 84 bd a0 74 26 3e 67 d5 69 bd d1 80 bd bd
       -0.0648885 0.16255426 -0.057088282 -0.092530854
000120 9a 98 5d 3d 58 c1 a1 bd e9 15 0e be 09 ff c3 bd
       0.05410061 -0.078982055 -0.13875546 -0.095701285
000130 c0 4e 07 3e af f6 29 3e 73 de 99 bd 2d bb b4 3d
       0.13213634 0.16598009 -0.07513132 0.088247634
000140 06 40 14 3d fc 5f bf bb c9 c0 78 3d e5 43 e8 3c
       0.03619387 -0.0058402997 0.06073073 0.028352687
000150 e8 47 8b bd de ae 66 bd 2e 15 f8 3d 3b 1a a4 3d
       -0.068008244 -0.05631911 0.12113415 0.080128156
000160 9c 76 3c bc 85 5a 14 3d 66 f5 81 3d 50 82 e7 bc
       -0.011502888 0.03621914 0.06345634 -0.02826038
000170 4e 79 9f 3c c9 95 6d bd 95 11 66 3e 56 27 fa 3c
       0.019467022 -0.058004174 0.22467645 0.030536335
000180 88 75 e0 bd b8 7d ee 3d 50 e7 02 be 00 0f 66 3b
       -0.10959917 0.11645073 -0.12783551 0.0035104156
000190 b6 22 8d bd 37 fc 0c 3e 3e 03 a1 3d 9c 89 c9 3c
       -0.06891386 0.13768087 0.078619465 0.02460175
0001a0 46 9a f9 bc 37 61 4d 3e 62 9e 0f bd 48 73 10 3b
       -0.030469071 0.20056616 -0.035063155 0.002204137
0001b0 17 17 0c 3e 26 02 9f bd 5a 9a 9a bd 00 d5 69 3d
       0.13680683 -0.07764082 -0.075489715 0.0570879
0001c0 11 22 6d bd 64 11 80 bd 05 8f 1c 3e 6d b7 a7 bc
       -0.057893816 -0.06253317 0.15288933 -0.020473206
0001d0 c5 41 96 bd db 1a 54 3e 05 91 74 bb a9 3e 4c bc
       -0.07336763 0.2071337 -0.0037317884 -0.012466111
0001e0 6d 2c af 3d d5 e6 0c 3e 81 9f 0a 3e 83 5e 21 3e
       0.085533954 0.1375993 0.13537408 0.1575871
0001f0 7e 7a 16 bd 2a 9b 21 3e 49 5c 07 3e c6 a6 17 3e
       -0.03673791 0.15781847 0.13218798 0.14809713
000200 2f 3c 3f 3d 5d 4d 02 ba 51 12 4a 3e 36 31 4f 3e
       0.046688255 -0.00049706345 0.1973355 0.20233616
000210 a6 75 9a 3d 84 ed 53 3e 79 23 79 3d 36 5b 71 bc
       0.07541971 0.20696074 0.060824845 -0.014731219
000220 20 bc af bb b2 02 89 3d 54 f8 a8 3d 58 ae 18 bd
       -0.0053630024 0.06689967 0.0825049 -0.037275642
000230 c0 a3 10 be 72 41 88 ba fe 4b 02 be ef b5 1d 3e
       -0.14124966 -0.0010395481 -0.12724301 0.15401433
000240 41 39 cd 3d 3b 98 0b 3e 7c 61 84 3d 3f 15 18 3e
       0.10020686 0.1363229 0.06463906 0.14851855
000250 af 6f 19 3e eb 63 c9 3d 51 8e b0 bd a9 97 80 3d
       0.1498401 0.09833511 -0.08620895 0.06278927
000260 ea c6 7a 3d 64 9d 3a 3e 70 75 6a 3d 17 b7 cc 3d
       0.061224855 0.18224102 0.057240903 0.09995859
000270 e3 a7 8d bd 4c 1c 28 bd 15 49 10 3d e7 8c 23 3e
       -0.069167875 -0.04104261 0.035225946 0.15971719

projector.6.bias f4 [4]
000000 bc 3a 7e 3e 8f 7c 4b 3d e6 60 79 3d 26 da e4 3d
       0.24827093 0.049679335 0.060883425 0.11174421
