models/squares/100/class0_student_config.pt (torch, 45575 bytes, 6 tensors)

predictor.0.weight f4 [100, 2]
0	0x3e0ff501	0.14058305
1	0xbeff11d2	-0.49818283
2	0xbf34807d	-0.7050856
3	0xbf327419	-0.697084
4	0xbf5918de	-0.8480357
5	0xbcea38e0	-0.028591573
6	0xbe1de43b	-0.15419094
7	0x3e9f53ad	0.31118527
8	0xbef087ba	-0.4697855
9	0x3e7efdb5	0.24901469
10	0x3eec588f	0.46161315
11	0xbf40074c	-0.75011134
12	0xbeac7f70	-0.33690977
13	0x3f11c8fc	0.569473
14	0x3ec2a58b	0.38016924
15	0x3da4132d	0.0801147
16	0xbf06f3e4	-0.527159
17	0x3ee1e1e0	0.4411764
18	0xbeb0bf19	-0.34520796
19	0xbe92a1a0	-0.28638935
20	0xbd491a7b	-0.04909752
21	0x3d866221	0.06561685
22	0xbf600ef9	-0.87522846
23	0xbc0b43be	-0.008500038
24	0x3ebb782c	0.3661512
25	0xbe7c28da	-0.24624959
26	0x3ef18d81	0.4717827
27	0x3e447be4	0.19187886
28	0x3f38f65d	0.7225092
29	0xbf02897b	-0.5099103
30	0x3f0b6e31	0.54465014
31	0xbec23b55	-0.37935892
32	0xbe975258	-0.2955501
33	0x3f25649a	0.6460663
34	0x3ebfd7da	0.3746937
35	0x3ec8e620	0.3923807
36	0xbf90fd21	-1.1327249
37	0xbcd61a32	-0.026135538
38	0xbed39f13	-0.41332301
39	0x3e733a9a	0.23752823
40	0x3d91bcce	0.0711609
41	0x3c585790	0.01320447
42	0xbecc26d0	-0.39873362
43	0xbbca1693	-0.006167242
44	0xbdda7897	-0.10667532
45	0x3cd49a2d	0.025952423
46	0xbf3405f5	-0.7032159
47	0x3d09e661	0.033666972
48	0x3edef1ff	0.43544003
49	0xbeb57400	-0.35440063
50	0xbefc94c8	-0.4933226
51	0xbc209396	-0.009800812
52	0xbfaae3e1	-1.3350793
53	0xbdbb0280	-0.09131336
54	0xbec9f867	-0.39447328
55	0x3f0ceacf	0.5504579
56	0x3f27a744	0.654896
57	0xbe90a258	-0.28248858
58	0x3df3718b	0.11886891
59	0x3e7ca0ec	0.24670762
60	0x3ddf931c	0.10916731
61	0xbf46461a	-0.77450716
62	0x3e956200	0.2917633
63	0x3e04f84c	0.12985343
64	0x3ead3b02	0.33834082
65	0x3efc0a61	0.49226668
66	0x3f1ac1f5	0.60452205
67	0x3e1b55a2	0.15169385
68	0xbebf5c0c	-0.37374914
69	0xbf1dc171	-0.61623293
70	0x3daa23fe	0.08307646
71	0xbefdc13b	-0.49561486
72	0x3ea5f2eb	0.32411894
73	0x3e671062	0.22564843
74	0xbed4a33f	-0.41530797
75	0xbef20e44	-0.4727651
76	0xbe86eab0	-0.26350927
77	0x3f0d05e3	0.5508711
78	0x3ea19c45	0.31564537
79	0xbe625e0b	-0.22106187
80	0xbecf510c	-0.4049152
81	0xbf3280e3	-0.69727916
82	0x3f2295c4	0.63509774
83	0x3e508ad0	0.20365453
84	0x3e619c35	0.22032245
85	0xbeb16520	-0.34647465
86	0xbefe8a20	-0.49714756
87	0x3ed61b6a	0.4181779
88	0x3e67badc	0.22629875
89	0x3ecb2553	0.39676914
90	0x3e91e3c6	0.2849409
91	0x3ef68f75	0.48156324
92	0x3ea7977d	0.32732764
93	0x3ecbd394	0.3980986
94	0x3ec97be1	0.39352325
95	0x3c577ce6	0.013152337
96	0xbf27432a	-0.6533686
97	0x3edc51bc	0.43031108
98	0xbed433ed	-0.41445866
99	0x3f1a0f97	0.6018004
100	0x3e49b74e	0.19698831
101	0xbdfa781a	-0.12229939
102	0x3e975e23	0.29564008
103	0xbe79411f	-0.24341248
104	0x3e8e22b6	0.27760857
105	0xbf4bb838	-0.7957797
106	0x3e606ca4	0.21916443
107	0xbea7e303	-0.32790384
108	0x3e498571	0.1967981
109	0x3e09def4	0.13463956
110	0xbe50dbb4	-0.2039631
111	0xbef17caa	-0.47165424
112	0x3eefe4eb	0.46854338
113	0xbf354d38	-0.7082095
114	0x3ee5f395	0.449124
115	0x3f0467f6	0.5172113
116	0x3e9468f2	0.28986317
117	0xbd289fee	-0.041168146
118	0xbb856b80	-0.004071653
119	0xbed366ce	-0.4128937
120	0x3f05e4bf	0.52302164
121	0xbdd13e0e	-0.10216914
122	0x3ecbd43b	0.39810356
123	0xbf070afe	-0.5275115
124	0xbdb0a340	-0.086248875
125	0xbe542124	-0.20715767
126	0xbd7d25e0	-0.0618037
127	0xbecb7220	-0.39735508
128	0x3ec574ea	0.3856576
129	0x3eacb72b	0.33733496
130	0xbf09eec0	-0.5387993
131	0x3dbe027a	0.09277816
132	0xbe723fec	-0.23657197
133	0x3ef66b35	0.48128667
134	0xbe25aa91	-0.16178347
135	0x3e210e4e	0.15728113
136	0x3eb991fb	0.36244187
137	0xbddeb991	-0.10875238
138	0x3c191da8	0.0093454495
139	0x3f090fd4	0.53539777
140	0xbf648deb	-0.8927905
141	0x3d3ea558	0.046544403
142	0xbe277990	-0.16354966
143	0xbe94d51d	-0.29068843
144	0xbc29edfd	-0.010371682
145	0x3f0e56c5	0.5560115
146	0xbdc1f8a7	-0.09471255
147	0x3f03108c	0.51197124
148	0xbdaef938	-0.085436285
149	0x3e27a737	0.16372381
150	0xbe01879f	-0.12649392
151	0xbd0691cb	-0.032853883
152	0xbf004595	-0.50106174
153	0x3ecbc3ef	0.39797923
154	0x3ea98236	0.33107156
155	0xbf10f3d0	-0.5662203
156	0x3f0b7790	0.5447931
157	0xbd9f4455	-0.07776705
158	0xbd005382	-0.03132964
159	0x3e82b4e0	0.25528622
160	0x3e2e72c7	0.17035972
161	0xbefed6f9	-0.49773386
162	0x3ec228a1	0.37921622
163	0xbe40ffef	-0.18847631
164	0x3d3c6b00	0.04600048
165	0x3ec4811c	0.38379753
166	0xbe150abc	-0.14554876
167	0x3f003e95	0.5009549
168	0x3ea96f1f	0.3309259
169	0xbed2b863	-0.411563
170	0x3f01be74	0.50681233
171	0x3ec4c0a6	0.3842823
172	0xbe7984e4	-0.243671
173	0xbe22f020	-0.15911913
174	0xbef18351	-0.471705
175	0xba583f6e	-0.0008249198
176	0x3e7856c2	0.24251845
177	0x3e0f95bf	0.14021967
178	0x3e2ba170	0.16760802
179	0xbf264b24	-0.64958405
180	0xbe866f0b	-0.26256594
181	0xbee9ea2a	-0.45686466
182	0x3e9f7252	0.31141907
183	0x3c45e6e1	0.012078972
184	0xbe9db979	-0.30805567
185	0x3ece4bff	0.40292355
186	0x3d4b52d6	0.049639545
187	0x3dff5602	0.124675766
188	0x3e40a774	0.18813878
189	0xbd3ded0d	-0.046368647
190	0xbe950efc	-0.29112995
191	0xbee00533	-0.43753967
192	0xbf2a306c	-0.66480136
193	0x3ebe3032	0.37146145
194	0xbef5c44a	-0.4800132
195	0x3ec10efa	0.3770674
196	0x3d1ce095	0.038300116
197	0x3e5d1906	0.21591577
198	0x3e997ea0	0.2997942
199	0x3eccb1c3	0.3997937

predictor.0.bias f4 [100]
0	0xbde37f04	-0.11108211
1	0x3f12981d	0.57263356
2	0x3f59b84f	0.8504686
3	0x3effb8d7	0.4994571
4	0xc0370992	-2.8599591
5	0xbee16c7e	-0.44028085
6	0x3e12dc7a	0.14341918
7	0x4022fd9d	2.5467293
8	0x3e36572e	0.17806694
9	0xbf1072e2	-0.564253
10	0x403e3ccc	2.9724607
11	0x3f1d4959	0.61440045
12	0xc044605b	-3.068381
13	0xc0089b48	-2.1344776
14	0x404cd6d4	3.200612
15	0xc01f29c3	-2.486924
16	0x40262836	2.5962043
17	0x402311d6	2.5479636
18	0x3f57ded2	0.8432437
19	0x3fcb90ae	1.5903528
20	0xc059daec	-3.403987
21	0x3f479b6f	0.7797155
22	0xc003fe8d	-2.0624115
23	0xbf8c667d	-1.0968777
24	0xc0410afd	-3.0162957
25	0x3f5992f9	0.8498989
26	0x4005c408	2.0900898
27	0xc03b85cd	-2.9300416
28	0x3f7a1872	0.9769355
29	0x3f25016b	0.6445529
30	0x3f6734e9	0.9031511
31	0xc001c9f7	-2.027952
32	0x401cb050	2.4482613
33	0x4012dcbc	2.2947226
34	0x3ef73486	0.4828226
35	0xbeabff43	-0.33593187
36	0x3f971537	1.1803349
37	0xbefd461c	-0.49467552
38	0x403ca7a5	2.9477322
39	0x3f951dfe	1.1649778
40	0x3ec5d8fe	0.38642114
41	0xc0150147	-2.328203
42	0x40374921	2.8638384
43	0xbd025829	-0.031822357
44	0xc0039959	-2.0562346
45	0x401b4387	2.4259965
46	0x3e7952a6	0.24347934
47	0xc01c44d6	-2.4417014
48	0x400f0f25	2.2352993
49	0x3f0b4d05	0.544144
50	0xc0535dc9	-3.3025992
51	0x408df818	4.436535
52	0xbfab02d9	-1.3360244
53	0x3ea28922	0.3174525
54	0x3f3ca2be	0.73685825
55	0x3ef8fb16	0.48629063
56	0x3fe4503b	1.7836984
57	0xbfe2c0d6	-1.7715099
58	0xbfd6271f	-1.6730689
59	0xbe8099d5	-0.25117365
60	0x3e20af23	0.1569181
61	0x3f8aba1f	1.083805
62	0xbe255e58	-0.1614927
63	0x3f25d609	0.64779717
64	0x3f74f15d	0.9568079
65	0xbf9b2e7a	-1.2123559
66	0x3ff9f912	1.9529135
67	0xbfad1a6c	-1.3523688
68	0x4009feca	2.156176
69	0xc00c29d6	-2.1900535
70	0x4031fca7	2.7810457
71	0xbe2b3f80	-0.16723442
72	0xbf989aee	-1.1922281
73	0xc013370e	-2.3002353
74	0x406ab8b0	3.6675224
75	0x3f008414	0.50201535
76	0xbf4c5f45	-0.7983287
77	0xbf4d425e	-0.80179393
78	0xc034dc27	-2.825937
79	0xc004b591	-2.073582
80	0x402579ea	2.585566
81	0xbf74a26f	-0.95560354
82	0xbfe35f30	-1.7763424
83	0xbfb15993	-1.3855461
84	0xbfab0b7a	-1.3362877
85	0xc01c0ed1	-2.4384043
86	0xbef99ce8	-0.48752522
87	0xbe90550d	-0.2818989
88	0x3fe18304	1.7618108
89	0x3fb9c0c8	1.4511957
90	0x3ebaaf86	0.3646204
91	0xc0380735	-2.87544
92	0xbfc72377	-1.5557698
93	0xc011304b	-2.2685726
94	0xc036cef4	-2.8563814
95	0xbed8f791	-0.42376378
96	0x3fb0cb6a	1.3812077
97	0x3f2e0ce3	0.67988414
98	0xbe54f49c	-0.20796436
99	0xbf522cd2	-0.8209964

predictor.2.weight f4 [100, 100]
0	0xbe38ca5e	-0.18045947
1	0xbd9577c3	-0.07298233
2	0xbe31cf98	-0.17364347
3	0xbd746967	-0.059670832
4	0xbd63c500	-0.055607796
5	0xbb9e143b	-0.004824189
6	0x3bc7afe2	0.006093965
7	0x3d8aecb2	0.06783427
8	0x3cfd7f3b	0.030944457
9	0x3d662646	0.056188844
10	0xbd90c97b	-0.07069679
11	0xbccd7db4	-0.025084354
12	0xbd525039	-0.051346038
13	0xbd54e72c	-0.051978275
14	0xbc8a5b48	-0.01688923
15	0xbdb02878	-0.08601469
16	0x3ccfd20e	0.025368717
17	0x3d883ab1	0.066518195
18	0xbd735f2f	-0.059416946
19	0xbd9d1659	-0.07670278
20	0x3d23bffb	0.03997801
21	0xbd31da7b	-0.04342125
22	0xbe1530a4	-0.14569336
23	0x3bc534c6	0.006018254
24	0xbd95296f	-0.072832935
25	0xbdce648a	-0.1007777
26	0xbd6bae55	-0.057539303
27	0xbd437b07	-0.04772475
28	0x3d91ce76	0.071194574
29	0x3ab36ff1	0.0013689977
30	0xbe399a07	-0.18125163
31	0xbd3d0313	-0.04614551
32	0xbd69d6fa	-0.057089783
33	0xbd69678c	-0.056983516
34	0x3d9c7bd5	0.076408066
35	0xbe2a8515	-0.1665233
36	0x3d42608e	0.047455363
37	0x3d88bd79	0.06676764
38	0xbdfedcaf	-0.12444436
39	0x3d8a7329	0.06760246
40	0x3d70fce2	0.058834918
41	0x3b67067e	0.0035251672
42	0xbca6ee7a	-0.020377386
43	0xbe08877d	-0.13332935
44	0x3c8cdb15	0.01719431
45	0xbde740ef	-0.11291682
46	0xbd47ddff	-0.048795696
47	0x3d1c0019	0.03808603
48	0x3a7b84f0	0.00095946994
49	0x3d378050	0.044800103
50	0xbd4114bb	-0.04713891
51	0xbe14fd76	-0.14549813
52	0xbd56a663	-0.052404772
53	0xbd4e828c	-0.050417468
54	0xbda6916d	-0.081332065
55	0xbd3a04d7	-0.045414772
56	0xbd81e46d	-0.06342397
57	0x3d50e98b	0.051003974
58	0xbca00c7a	-0.0195372
59	0xbda859dd	-0.08220265
60	0x3d568c5b	0.052379947
61	0xbcb5c34b	-0.02218785
62	0xbbe2b0e0	-0.006918058
63	0x3dbec877	0.093155794
64	0xbdaab484	-0.08335212
65	0xbd0f3e65	-0.034971613
66	0xbc4b1641	-0.012395442
67	0xbdc3d66d	-0.09562383
68	0xbc092d76	-0.008372655
69	0x3d58bb57	0.052913036
70	0x3d04314a	0.03227357
71	0x3d6d8fd6	0.0579985
72	0x3d0680f8	0.032837838
73	0x3c8bb63d	0.017054671
74	0xbc8d3e71	-0.017241688
75	0xbd3ecaa4	-0.046579972
76	0x3d01a4da	0.031651355
77	0x3c025382	0.00795448
78	0xbd85e89d	-0.06538508
79	0xbdc0fea5	-0.094235696
80	0xbe342ffc	-0.1759643
81	0x3ce7d547	0.02829994
82	0xbd0287cd	-0.03186779
83	0x3d4edaaf	0.05050152
84	0xbd595ceb	-0.05306713
85	0x3d8bdb26	0.068289086
86	0x3d5bfb02	0.053706177
87	0x3c39dbd2	0.011343913
88	0xbd07e430	-0.0331766
89	0xbe4168b0	-0.18887591
90	0xbd98209b	-0.07428094
91	0x3cb3ebe1	0.021963062
92	0x3d6a17c6	0.05715158
93	0x3b48786f	0.0030589362
94	0x3ca1a14f	0.019730238
95	0xbbbb3120	-0.0057126433
96	0xbd3d1b8b	-0.046168845
97	0xbdf0fa2b	-0.11766466
98	0x3d756f55	0.059920628
99	0x3d12f5f8	0.035879105
100	0xbcaaab72	-0.020833705
101	0xbd11f126	-0.035630368
102	0x3c6104d8	0.013734065
103	0x3d8752eb	0.06607612
104	0xbdb1fe81	-0.08691121
105	0x3c0d0b50	0.008608654
106	0xbda87b97	-0.08226698
107	0xbdd40d27	-0.10354071
108	0x3d4461aa	0.047944702
109	0xbd90de3d	-0.070736386
110	0xbdc59382	-0.096472755
111	0xbe07b9fa	-0.13254538
112	0xbdb159fc	-0.08659741
113	0xbc03fd42	-0.008055987
114	0x3c24a087	0.010048038
115	0xbdee2263	-0.116276525
116	0x3d844ed4	0.06460348
117	0xbdbcb387	-0.092139296
118	0xbda52a7d	-0.080647446
119	0xbd184c83	-0.037182342
120	0xbd20c269	-0.039247904
121	0x3c85c062	0.016327087
122	0xbe03f175	-0.12885077
123	0xbd93c93f	-0.07216119
124	0xbd6b624d	-0.057466794
125	0xbdab320e	-0.083591565
126	0x3d2483ba	0.040164687
127	0xbdf84955	-0.12123362
128	0xbdf51ddb	-0.11968585
129	0x3d92607b	0.071473084
130	0xbd1c5767	-0.03816929
131	0x3d26beb2	0.040709205
132	0xb981a425	-0.00024727095
133	0xbd3c3069	-0.045944605
134	0x3cb8b294	0.02254609
135	0xbd80db2b	-0.06291803
136	0xbd87b97f	-0.066271774
137	0xbcf517a8	-0.029918507
138	0xbca43ef6	-0.020049553
139	0x3c66588a	0.014059195
140	0x3dc96a99	0.09834785
141	0x3c3219f6	0.010870447
142	0xbd051226	-0.03248801
143	0xbd86212e	-0.06549297
144	0xbc968d28	-0.018377855
145	0x3d8ac90d	0.06776629
146	0x3d1f22bb	0.03885148
147	0x3d699d1f	0.057034608
148	0xbe0e1af5	-0.13877471
149	0xbc1892eb	-0.009312372
150	0xbdc98b44	-0.09841016
151	0xbdbf919f	-0.09353947
152	0xbd6d72a3	-0.057970654
153	0xbce66159	-0.02812259
154	0xbd9ea773	-0.07746782
155	0x3d90fbe7	0.070792966
156	0x3c81c1ed	0.015839541
157	0xbd55c50b	-0.052189868
158	0x3c97babe	0.018521663
159	0x3d81acf7	0.063318186
160	0x3d2c5509	0.042073283
161	0xbd81349b	-0.06308862
162	0xbcd83a88	-0.026395097
163	0x3c073158	0.008251511
164	0xbaa2eea2	-0.0012430737
165	0xbd8eee1d	-0.0697901
166	0x3a4256aa	0.00074134266
167	0xbdba1ef7	-0.09087937
168	0x3ce25439	0.027628051
169	0xbda23a60	-0.079212904
170	0xbdb1d9b0	-0.08684099
171	0xbd62bfd0	-0.055358708
172	0xbde2439f	-0.11048054
173	0x3d923d52	0.07140602
174	0x3c9ff603	0.019526487
175	0x3d2452f6	0.04011818
176	0xbd9efa9b	-0.07762643
177	0xbc3fcb67	-0.01170621
178	0xbdb98039	-0.0905766
179	0x3d5e0374	0.054202512
180	0xbdb2e4bc	-0.08735034
181	0xbcc2708b	-0.023735305
182	0x3d4c7be4	0.04992284
183	0x3c474c7e	0.012164233
184	0xbd13f980	-0.036126614
185	0xbd69e1d4	-0.057100132
186	0x3d114ece	0.035475545
187	0xbe1b1ef6	-0.1514853
188	0xbd36a2d6	-0.044588886
189	0xbc0b30a5	-0.0084954845
190	0x3d46d4b6	0.0485427
191	0xbcad50fb	-0.021156779
192	0x3d8b8f21	0.06814409
193	0x3d8215e4	0.063518316
194	0xbc5e1598	-0.013554953
195	0xbd0dec26	-0.034649037
196	0xbe105ca6	-0.14097843
197	0xbdb9ac11	-0.09066022
198	0xbc0496d4	-0.008092601
199	0xbc4d9845	-0.012548511
200	0x3df95996	0.1217529
201	0x3d2c181e	0.042015187
202	0x3e3add42	0.18248466
203	0xbd3f4a60	-0.04670179
204	0x3d87b7a8	0.066268265
205	0x3e221766	0.15829238
206	0x3d6466a0	0.055761933
207	0xbdd55eeb	-0.10418495
208	0xbcf079b5	-0.02935491
209	0xbcb2e954	-0.021839775
210	0x3d4e0588	0.050298244
211	0x3dfdade9	0.12386686
212	0x3dec9c4f	0.11553251
213	0x3d4bb23c	0.049730524
214	0x3db370d9	0.08761758
215	0x3d630d53	0.05543263
216	0x3c4abe3e	0.012374459
217	0x3c9c7a86	0.019101392
218	0x3e7f2bdc	0.24919075
219	0xbd342f52	-0.04399044
220	0x3d3cd639	0.046102736
221	0x3cd0e960	0.025501907
222	0xbd271864	-0.040794745
223	0xbd62fa79	-0.05541465
224	0x3d50afde	0.05094897
225	0xb9f8aa37	-0.00047429066
226	0x3f85e914	1.0461755
227	0xbda6b94c	-0.08140811
228	0x3d85dec9	0.065366335
229	0x3d5fb331	0.05461425
230	0xbe41a207	-0.18909465
231	0xbd94c08a	-0.072632864
232	0xbcf8e489	-0.030382412
233	0xbd0ee37c	-0.034884915
234	0xbd047ab6	-0.03234359
235	0x3c5ce2dd	0.013481823
236	0xbd808a46	-0.062763736
237	0x3dbc962f	0.09208333
238	0xbcb4ac83	-0.022054916
239	0xbc0175d3	-0.007901627
240	0xbd1b5faa	-0.03793303
241	0xbdaff8dc	-0.08592388
242	0x3d9744b9	0.07386155
243	0x3c01d1a6	0.007923519
244	0x3c76a8b7	0.015054873
245	0x3b809e64	0.0039251316
246	0x3c63a514	0.013894338
247	0x3d3ba15a	0.045808174
248	0xbd9da268	-0.07696992
249	0x3ae86315	0.0017729724
250	0x3d57ef5c	0.052718505
251	0xbdd4a8e6	-0.10383777
252	0x3e98d4a2	0.29849726
253	0x3d136605	0.035985965
254	0xbd94565d	-0.07243035
255	0xbd69875d	-0.057013858

predictor.2.bias f4 [100]
0	0xbe1a3b79	-0.1506175
1	0xbdbb63af	-0.091498725
2	0x3a7ea201	0.00097134715
3	0xbffaf41e	-1.9605749
4	0x3d016003	0.031585705
5	0x3c6ff2b8	0.014645271
6	0xbde22e1a	-0.110439494
7	0x3c3768da	0.011194432
8	0xbd91b02b	-0.071136795
9	0xbddcee3e	-0.107876286
10	0x3b8f069d	0.004364802
11	0xbfc1ef60	-1.5151176
12	0xbfc486f1	-1.5353681
13	0xbc84d538	-0.016214952
14	0xbcdd665b	-0.027026346
15	0x3d17ddd3	0.037076782
16	0xbd7bcb24	-0.061473027
17	0xbd87436e	-0.06604658
18	0x403f0c1d	2.9851143
19	0xbdd98c74	-0.106224924
20	0x3ca2b698	0.019862458
21	0x3d2216ff	0.039572712
22	0xbdd71bb6	-0.10503332
23	0xbcd413c8	-0.025888339
24	0xbdd1bef6	-0.10241501
25	0xc028b70a	-2.6361718
26	0xbe031bff	-0.12803648
27	0xbfb05938	-1.3777227
28	0xba6dc260	-0.00090697967
29	0x3d7382ec	0.05945103
30	0xbc9be325	-0.01902921
31	0x40154a00	2.3326416
32	0xbce335fa	-0.027735699
33	0x3e9eca3d	0.3101367
34	0xbd2e5ca9	-0.042568836
35	0xbd9e2e8b	-0.07723721
36	0xbd3265ab	-0.04355399
37	0xbcc8a077	-0.024490578
38	0xbc83d11b	-0.01609092
39	0xbda0c742	-0.078505054
40	0xbd829e69	-0.063778706
41	0xbdc0cd93	-0.0941421
42	0x3d128ca6	0.035778664
43	0x3dbfdf57	0.093687706
44	0x3d2c257e	0.042027943
45	0xbded41d6	-0.11584823
46	0xbe3658db	-0.17807333
47	0x3da9ed2b	0.08297189
48	0x3c801802	0.015636448
49	0xbe2499bd	-0.16074272
50	0xbf9bdbad	-1.2176415
51	0xbc2eed82	-0.010676743
52	0xbd7d7319	-0.061877344
53	0xbd4878b5	-0.04894324
54	0xbc960879	-0.018314587
55	0x3b8e1ef1	0.0043371846
56	0xbd0a27b5	-0.033729274
57	0x3e66acd7	0.2252687
58	0xbdba38ac	-0.090928406
59	0x3fad03e2	1.351681
60	0x3c07da70	0.008291826
61	0xbdf9d2ba	-0.12198396
62	0x3d71c3a6	0.059024476
63	0x3ee28a45	0.44246116
64	0xbdf3831a	-0.1189024
65	0xbdb0c5ab	-0.08631452
66	0xbc8a9949	-0.016918795
67	0xbecc7108	-0.39929986
68	0xbd5380cb	-0.0516365
69	0x3cff03a4	0.031129666
70	0xbd1de354	-0.038546875
71	0xbd1e77ef	-0.038688596
72	0xbd90855f	-0.070566885
73	0x3d814755	0.06312434
74	0x3dc06d9f	0.093959086
75	0xbcc29899	-0.023754405
76	0xbf4c65a4	-0.7984259
77	0xbd8c36e0	-0.06846404
78	0xbfd119ff	-1.6336058
79	0xbd3ee4ec	-0.046605036
80	0x404d2855	3.2055867
81	0xbdb2c0b1	-0.08728159
82	0x3eccc564	0.39994347
83	0xbd24e6a4	-0.04025902
84	0xbd958c4b	-0.073021494
85	0xbe269fea	-0.1627194
86	0x3fbcecd1	1.4759771
87	0xbdf8d59f	-0.1215012
88	0xbfff1d48	-1.9930811
89	0xbd536c06	-0.05161669
90	0xbf97a8d4	-1.1848397
91	0x3d593838	0.05303213
92	0xbcb73776	-0.022365313
93	0xbc0c5c90	-0.0085669905
94	0x3c270839	0.0101948315
95	0xbfd49e5f	-1.6610831
96	0xbf0ec71f	-0.55772585
97	0x3d7d65ae	0.061864547
98	0xbdf92b39	-0.12166447
99	0xc00462a4	-2.0685205

predictor.4.weight f4 [4, 100]
0	0xbcb85336	-0.022500616
1	0xbccb9f0f	-0.024856118
2	0x3c4b914b	0.012424777
3	0xbe8549ec	-0.2603296
4	0x3dc54698	0.09632605
5	0x3dd88f35	0.105741896
6	0xbb77a623	-0.0037788234
7	0x3db6793f	0.089098446
8	0xbd09bc96	-0.033627115
9	0x3b79d072	0.0038118628
10	0x3d3efe88	0.04662946
11	0x3d0bc948	0.034127504
12	0xbc89f805	-0.016841898
13	0x3d467bf2	0.048458047
14	0xbcd75a4a	-0.02628817
15	0x3da50c21	0.08058954
16	0xbca1ea4e	-0.019765045
17	0xbdd9eb87	-0.106406264
18	0x3df3f9ca	0.11912878
19	0xbd34091e	-0.043954007
20	0xbd066a71	-0.032816354
21	0x3d8b61a6	0.06805734
22	0x3d85eec6	0.06539683
23	0x3db16f75	0.08663837
24	0x39b23799	0.0003399223
25	0xbea804ea	-0.3281625
26	0x3c86c625	0.016451905
27	0xbe11dcde	-0.1424441
28	0x3d7a40a3	0.0610968
29	0xbbb4edf1	-0.005521529
30	0xbcc90c87	-0.024542106
31	0x3e1f97ca	0.15585247
32	0x3cfa677c	0.030566923
33	0x3da0825f	0.07837366
34	0x3d4fa146	0.05069091
35	0x3bf63a86	0.0075143008
36	0x3cf5d179	0.03000711
37	0xbd425530	-0.047444522
38	0x3bc44857	0.005990069
39	0x3d3553ba	0.0442693
40	0xbd42135d	-0.047381748
41	0xbb83194b	-0.004000818
42	0xbd0259b0	-0.031823814
43	0x3ccb5058	0.024818584
44	0xbc1d5da8	-0.009604849
45	0x3d4a16ab	0.049338024
46	0x3b4f4f98	0.0031633135
47	0xbcc01c8f	-0.023451118
48	0x3c0053ae	0.007832451
49	0xbd98c50e	-0.0745946
50	0xbd70e78d	-0.058814574
51	0xbd8587b1	-0.06520022
52	0x3c6b731e	0.014370708
53	0x3beebfe1	0.0072860573
54	0x3d1d402b	0.038391273
55	0x3d965059	0.07339544
56	0x3cd9a25b	0.026566675
57	0x3c671411	0.014103905
58	0x3d7c0b4d	0.061534215
59	0x3d5b2c8e	0.053509288
60	0xbd69d5d3	-0.057088684
61	0xbc0583e3	-0.00814912
62	0xbdc114b8	-0.0942778
63	0x3d815bfa	0.06316371
64	0xbd65b966	-0.056085013
65	0x3cf21a43	0.029553538
66	0x3bdef733	0.006804371
67	0xbd885f57	-0.0665881
68	0xbd13a694	-0.036047533
69	0x3cac05d8	0.02099888
70	0xbc67af7a	-0.014140958
71	0x3d95a91f	0.07307648
72	0xbb03e5f5	-0.0020126079
73	0xbdb64cfb	-0.089014016
74	0xbd8dd8cd	-0.06926117
75	0xbd1cc874	-0.038277104
76	0x37ce13d4	2.4566347e-05
77	0xbc5c4a09	-0.013445386
78	0xbd410d91	-0.04713208
79	0x3d179ddf	0.037015792
80	0x3ea5f61b	0.32414326
81	0xbd5acf5a	-0.053420402
82	0x3b71da58	0.0036903825
83	0x3c84ccd3	0.016210949
84	0x3c320298	0.010864876
85	0xbd9e55bb	-0.077311955
86	0x3bd30fd0	0.006441094
87	0x3b2788a4	0.0025563622
88	0xbe368a07	-0.17826091
89	0x3ca2d034	0.01987467
90	0xbd015492	-0.031574793
91	0xbb7ff3f1	-0.0039055313
92	0x3d6489ba	0.05579541
93	0xbd9ce59a	-0.076609805
94	0x3d5b11ab	0.053483646
95	0xbc7aace9	-0.015300014
96	0xbe7e551d	-0.24837156
97	0x3cb790d4	0.022407927
98	0x3c87e22c	0.01658734
99	0xbd5dcc11	-0.05414969
100	0x3d0a0b30	0.033702075
101	0xb9d36e31	-0.00040327155
102	0x3d49b002	0.04924012
103	0x3af5379f	0.0018708593
104	0xbdfea7ca	-0.12434347
105	0x3d5a28f0	0.053261697
106	0x3d60c551	0.054875676
107	0xbd42ab6d	-0.047526766
108	0xbca5de09	-0.020247476
109	0xbc709c97	-0.014685771
110	0xbc8b3418	-0.016992614
111	0xbd9e02b2	-0.07715358
112	0xbdfccad0	-0.12343371
113	0x3db9d91f	0.09074616
114	0x3d4b68b3	0.049660396
115	0x3da6f1eb	0.08151611
116	0x3cf0180f	0.029308347
117	0x3d19ad62	0.037518866
118	0x3c706ac1	0.01467389
119	0x3c16fdae	0.009215755
120	0xbbea36b3	-0.007147634
121	0x3d76ba58	0.060236305
122	0x3d25f1b9	0.040513728
123	0xbd0037a0	-0.031303048
124	0x3d049939	0.032372687
125	0xbd0d9ea1	-0.03457511
126	0xbdb465ca	-0.08808477
127	0x3dfd25a8	0.12360698
128	0xbca18a29	-0.0197192
129	0x3d666733	0.056250762
130	0xbd137895	-0.036003668
131	0x3d89892e	0.06715618
132	0x3d8b7a2d	0.068104126
133	0xbc1bb0c1	-0.009502591
134	0x3d72439f	0.05914652
135	0x3e0666fc	0.13125223
136	0x3dbe472d	0.092909195
137	0xbd1af8c0	-0.037834883
138	0x3d8222c7	0.063542895
139	0x3c83b159	0.016075777
140	0x3cef6fca	0.02922811
141	0xbd08d805	-0.033409137
142	0xbb885a60	-0.004161164
143	0x3c87c70c	0.016574405
144	0x3d83fb2f	0.06444394
145	0x3d9e0f74	0.07717791
146	0x3d910adf	0.070821516
147	0xbd91e652	-0.07124008
148	0x3d07a1ed	0.03311341
149	0xbe2835fd	-0.16426845
150	0xbd8da8d7	-0.06916969
151	0xbd1a8baa	-0.03773085
152	0x3d557802	0.0521164
153	0x3c6df1f7	0.014523021
154	0xbc5d8d54	-0.013522465
155	0xbe9381a1	-0.28809837
156	0x3d12fa1c	0.035883054
157	0xbda3eeed	-0.08004556
158	0xbd51c656	-0.05121454
159	0xbd3c2982	-0.045938022
160	0x3daa96d1	0.08329547
161	0xbcb04ead	-0.02152189
162	0x3dbe724f	0.092991464
163	0xbc44fe6c	-0.0120235495
164	0xbe1184f8	-0.1421088
165	0x3d784341	0.060611013
166	0xbda80f09	-0.08205993
167	0x3d42bba4	0.04754223
168	0x3c6bd9c4	0.014395181
169	0xbd6cd570	-0.057820737
170	0x3d9d2d20	0.076746225
171	0xbc085e57	-0.008323274
172	0xbc4b7274	-0.0124174245
173	0xbd51da2d	-0.05123346
174	0x3d269682	0.04067088
175	0x3d514922	0.051095136
176	0x3d5290fb	0.051407795
177	0x3ccf83b7	0.025331361
178	0xbdb9cae1	-0.09071899
179	0xbdb29993	-0.08720698
180	0xbdcb1b49	-0.099173136
181	0x3c9a7576	0.018854838
182	0xbd903b50	-0.07042563
183	0xbcedff0d	-0.029052282
184	0x3d7157ae	0.05892151
185	0xbced38d7	-0.028957767
186	0x3d95c70f	0.07313358
187	0x3d8eff9c	0.06982347
188	0xbc82a342	-0.015946988
189	0x3c92d4d7	0.017923756
190	0xbeba6206	-0.3640291
191	0x3db00503	0.08594706
192	0x3d3310de	0.043717258
193	0xbdb14ddb	-0.08657428
194	0x3bc49517	0.005999218
195	0xbe04f7eb	-0.12985198
196	0x3ddc914a	0.10769899
197	0xbdc04498	-0.09388083
198	0x3d862cb2	0.06551494
199	0xbe1749b9	-0.14774217
200	0x3c3f9893	0.011694091
201	0xbcf28467	-0.02960415
202	0x3c862a2d	0.016377533
203	0x3db0f3e0	0.086402655
204	0xbc6d3cbb	-0.014479811
205	0x3d8e9fde	0.06964086
206	0xbd1d01c7	-0.038331773
207	0x3d71401a	0.058899023
208	0xbccf260a	-0.025286693
209	0xbc3a8dd3	-0.011386353
210	0xbd864d83	-0.06557753
211	0x3c20b910	0.009809747
212	0x3ca310a4	0.019905396
213	0x3d3448a2	0.04401458
214	0x3d0e7257	0.03477701
215	0x3dd8a20c	0.10577783
216	0x3d8479cb	0.06468543
217	0xbe1290e9	-0.14313091
218	0xbe2dd6ca	-0.16976467
219	0x3d93e2a4	0.07220963
220	0xbd9fc9d8	-0.078021705
221	0x3dc5df74	0.09661761
222	0xbd0b8de9	-0.034070883
223	0x3dcb28e9	0.09919912
224	0x3d6c7314	0.057726935
225	0x3e553afd	0.20823283
226	0xbdc8b0a5	-0.09799317
227	0x3df5c269	0.119999714
228	0xbc88646b	-0.016649446
229	0x3d0d8a70	0.034555852
230	0xbc1a5577	-0.0094197905
231	0xbe2981eb	-0.16553466
232	0xbd46e564	-0.048558608
233	0x3d40afa0	0.04704249
234	0x3d8f46ac	0.069959015
235	0xbd8a0043	-0.06738331
236	0x3d875ca7	0.06609469
237	0xbda30da0	-0.07961583
238	0x3d74b0d3	0.059738945
239	0xbc2c15ac	-0.010503214
240	0x3d09ec35	0.03367253
241	0xbd3cc224	-0.046083584
242	0xbda489f5	-0.08034126
243	0xbd174cd4	-0.036938503
244	0xbc020c40	-0.007937491
245	0x3dbd2847	0.09236198
246	0x3d8d3e3b	0.06896635
247	0xbd4e3c8a	-0.050350703
248	0x3c89fd91	0.016844543
249	0xbcf6eae2	-0.030141298
250	0xbdd0ac76	-0.10189144
251	0x3d496e2a	0.049177326
252	0x3ccc6770	0.024951667
253	0x3d831893	0.064011715
254	0x3c1a4f19	0.009418272
255	0xbda933ef	-0.08261859

predictor.4.bias f4 [4]
0	0x4014cb00	2.3248901
1	0x3f45d377	0.77275795
2	0xbfd80bc7	-1.6878594
3	0xbfc9f6ce	-1.5778444
