models/squares/100/class0_teacher_config.pt (torch, 144367 bytes, 9 tensors)

decoder.0.weight f4 [2, 400]
0	0x3e220b5a	0.15824643
1	0x3dc2458d	0.09485922
2	0x3d3880c3	0.04504467
3	0x3e1d580b	0.15365617
4	0x3c3dff2f	0.011596485
5	0x3e1857c8	0.14877236
6	0x3df083f9	0.11743922
7	0x3d4af082	0.049545772
8	0x3dba6070	0.09100425
9	0xbd3d942d	-0.04628389
10	0x3e070437	0.13185202
11	0xbba17551	-0.0049273153
12	0x3d8fbf35	0.07018892
13	0x3d2ce9fd	0.042215336
14	0x3dba9d97	0.09112089
15	0x3e0d05e1	0.13771774
16	0x3dcfb66f	0.10142218
17	0x3ca74f82	0.020423654
18	0x3e1a93f2	0.15095499
19	0xbc6b8500	-0.014374971
20	0x3d4f1e4c	0.050566003
21	0x3cbd9c64	0.023145862
22	0x3cb284c4	0.021791823
23	0xba87175d	-0.0010306645
24	0x3add106d	0.0016865857
25	0x3d1d99b6	0.03847667
26	0x3de2836c	0.11060223
27	0x39e380fc	0.00043392915
28	0x3dac3cef	0.0841006
29	0xbd1aa74e	-0.03775721
30	0x3d7c7c0c	0.061641738
31	0x3db3d208	0.08780295
32	0x3d037fef	0.03210443
33	0x3df2f5df	0.118633024
34	0x3d382d53	0.0449651
35	0x3dc131c3	0.094333194
36	0xbc98c959	-0.018650698
37	0x3dab4729	0.08363182
38	0x3db87b4d	0.09007893
39	0x3da72319	0.08160991
40	0xbd1145cc	-0.035466954
41	0xbc175d24	-0.009238515
42	0x3d8db5f1	0.06919468
43	0x3d843631	0.06455649
44	0xbcc000f3	-0.023437953
45	0xbc917b17	-0.01775889
46	0x3e0afe5f	0.13573597
47	0x3d11ebf6	0.03562542
48	0x3e0cb5d8	0.13741243
49	0x3e197f93	0.14990072
50	0x3ddedfbf	0.1088252
51	0x3bfb5e73	0.0076711713
52	0xb9f0c10b	-0.00045920195
53	0xbc5d4f79	-0.013507717
54	0xbce0b807	-0.027431501
55	0x3deece73	0.11660471
56	0x3d135553	0.035970043
57	0xbcd2938f	-0.025705127
58	0x3de02b07	0.10945707
59	0x3d99916b	0.074984394
60	0x3e04527c	0.1292209
61	0xbc87e737	-0.016589744
62	0x3db137dd	0.08653233
63	0x3d4cc300	0.049990654
64	0x3c6abb57	0.014326892
65	0x3d922db3	0.07137623
66	0x3dea4449	0.114388056
67	0x3cc7897a	0.024357546
68	0x3d53acac	0.051678345
69	0x3e18e523	0.14931159
70	0x3e00f691	0.12594058
71	0x3dc9d23b	0.098545514
72	0x3e105085	0.14093216
73	0x3df344e1	0.11878372
74	0x3e079842	0.13241675
75	0x3dc641b8	0.096805036
76	0xbd1fa0c1	-0.038971666
77	0x3b36fc5e	0.0027921419
78	0x3dc1ad15	0.09456841
79	0x3e0b42a9	0.13599648
80	0x3dc17eb9	0.094479986
81	0x3c351374	0.011052001
82	0xbb52fd2a	-0.0032194355
83	0xbcbb25c3	-0.022845155
84	0xbcc2171b	-0.023692658
85	0x3d2f0363	0.04272784
86	0x3e04f6fe	0.12984845
87	0x3dac1512	0.08402456
88	0x3d231065	0.039810557
89	0xbd2996b1	-0.041403476
90	0x3d7aa582	0.061192997
91	0x3d9aeb38	0.07564396
92	0x3dc1ef3e	0.0946946
93	0x3d7cb57f	0.061696526
94	0xbd5c61ec	-0.053804323
95	0x3d3516f9	0.04421136
96	0x3e0167b5	0.12637217
97	0x3d3693e5	0.044574637
98	0x3da36f2e	0.0798019
99	0xbd11b7de	-0.03557574
100	0x3b59ae06	0.0033215298
101	0x3dcd61c0	0.1002841
102	0xbc8a08e2	-0.016849939
103	0xbcd04b23	-0.025426453
104	0x3ddb9f99	0.107238
105	0x3d296029	0.04135147
106	0x3e05fbfb	0.13084404
107	0x3e073878	0.13205135
108	0x3dbd3ff9	0.092407174
109	0x3d99fe6c	0.0751923
110	0x3df464bb	0.11933275
111	0xbc9d1f22	-0.019179884
112	0xbcc54b1f	-0.024083672
113	0x3c5cef37	0.013484768
114	0xbcbc734f	-0.023004202
115	0xbd025225	-0.03181662
116	0xbcfbb71c	-0.030726962
117	0x3e174f6c	0.14776391
118	0x3d243441	0.040088896
119	0x3d29ff43	0.041503202
120	0x3c0e87ac	0.008699339
121	0x3d7168a6	0.05893769
122	0x3d8bfeda	0.068357185
123	0xbd17cb90	-0.037059367
124	0x3d26bdbe	0.040708296
125	0xbc58b11d	-0.013225821
126	0x3dc61084	0.09671119
127	0x3df7a8ef	0.120927684
128	0x3d62dc0d	0.055385638
129	0x3dcdb6e8	0.10044652
130	0x3e0d9b54	0.13828784
131	0x3dbee09c	0.093201846
132	0x3e2094d7	0.15681778
133	0xbd39be05	-0.045347232
134	0x3d0a1e52	0.033720322
135	0x3de0c073	0.10974207
136	0xbd1ae48d	-0.03781562
137	0x3dcbc25d	0.09949181
138	0x3d029998	0.03188476
139	0xbc4b9595	-0.0124258
140	0xbd27b4f2	-0.040944047
141	0x3c68b118	0.014202379
142	0x3e01e8aa	0.1268641
143	0x3dec4c8b	0.11538037
144	0x3ca2554b	0.019816061
145	0x3ddc113f	0.10745477
146	0x3c13ea5e	0.009028045
147	0x3d6c37ac	0.05767028
148	0x3de5670c	0.11201295
149	0xbd1f378c	-0.038871333
150	0xbd5235e2	-0.051320918
151	0x3d85f6ff	0.065412514
152	0xbcfb8a4c	-0.030705594
153	0x3ddb3a58	0.107044876
154	0xbc9a9b61	-0.018872919
155	0x3d437624	0.04772009
156	0xbc58c605	-0.013230805
157	0xbb41267a	-0.0029472397
158	0x3db36adb	0.087606154
159	0x3e131105	0.14361961
160	0x3dd6289b	0.10456964
161	0x3c3e0b40	0.011599362
162	0x3db5da3b	0.08879515
163	0x3d90de2c	0.07073626
164	0xbcc8ff43	-0.02453578
165	0x3d3bd9ea	0.045862116
166	0x3d4ac1aa	0.0495011
167	0x3ccf71ee	0.02532288
168	0x3d3c519c	0.045976266
169	0x3b519266	0.003197813
170	0x3e20b0c6	0.15692434
171	0x3dd8fcb5	0.10595075
172	0xbc29799d	-0.010343936
173	0x3dc78ad5	0.09743277
174	0xbb5c50fa	-0.0033617602
175	0xbc90f934	-0.017696954
176	0x3d390ddc	0.045179233
177	0x3e1e8ac6	0.15482625
178	0x3c66fe1f	0.014098673
179	0x3d47f0cc	0.048813626
180	0x3d7a590e	0.061120085
181	0x3d5aea40	0.053446054
182	0xbcb5f224	-0.022210188
183	0x3d80b607	0.06284719
184	0x3dedae57	0.11605518
185	0x3d1ec53e	0.038762324
186	0x3d9eee0b	0.07760247
187	0x3d9c157c	0.07621285
188	0xbd44510a	-0.047928847
189	0x3df7f1c0	0.12106657
190	0x3c981f68	0.018569663
191	0x3e1da95d	0.15396638
192	0x3d012249	0.031526837
193	0x3d92e6c8	0.07172924
194	0xbd2d83a9	-0.04236189
195	0x3d4491a6	0.047990464
196	0x3d1a8946	0.03772857
197	0x3e08eea3	0.13372283
198	0x3d2d065a	0.042242385
199	0xbcd610ab	-0.026130995
200	0xbd24e527	-0.0402576
201	0x3de9ae03	0.11410143
202	0x3da93641	0.08262301
203	0xbd2ce26d	-0.042208124
204	0xbca3224d	-0.019913817
205	0xbc474ad2	-0.012163835
206	0x3d83cf1d	0.06435988
207	0x3d10eb61	0.035380725
208	0x3db142bc	0.08655307
209	0x3dfe40ef	0.12414729
210	0xbc9acd51	-0.01889673
211	0xbcb618cc	-0.022228621
212	0xbca012fd	-0.019540304
213	0x3d49636c	0.04916708
214	0xbd2c42a1	-0.04205573
215	0x3dc00526	0.09375982
216	0xbc20c51a	-0.009812618
217	0xbcbcd54f	-0.023050932
218	0xbd518868	-0.051155478
219	0xbcd7cc7f	-0.026342629
220	0x3e19a6bc	0.1500501
221	0x3dfb2478	0.12262815
222	0x3e0e0b53	0.13871507
223	0xbd4f166f	-0.050558504
224	0x3d445616	0.04793366
225	0x3c3d3600	0.011548519
226	0xbc2083bd	-0.009797034
227	0xbc58046d	-0.013184649
228	0x3dec7e19	0.11547489
229	0xbc2eaa49	-0.010660716
230	0x3d49a449	0.04922894
231	0x3d8e5758	0.06950253
232	0x3e12dbe3	0.14341693
233	0x3dc5c291	0.09656251
234	0x3c744f10	0.014911428
235	0x3de30532	0.11084975
236	0x3e034277	0.12818323
237	0x3da336de	0.079694495
238	0xbcdedd77	-0.027205212
239	0x3db2c7fb	0.087295495
240	0x3de4e4da	0.111764625
241	0x3d213f15	0.0393668
242	0x3d76afa0	0.060226083
243	0xbc90217a	-0.017594088
244	0x3da3507b	0.07974335
245	0x3ca5a08a	0.020218153
246	0x3e1d5c06	0.15367135
247	0x3ddbdfd4	0.10736051
248	0xbcbdc953	-0.023167288
249	0xbd5be8bc	-0.05368875
250	0x3cff9c14	0.031202354
251	0x3dd32485	0.103097
252	0x3d16db80	0.036830425
253	0x3dedb19e	0.116061434
254	0x3d9f7c71	0.07787407
255	0xbbd3ccf3	-0.006463641

projector.0.weight f4 [40, 4]
0	0xbedc3cd0	-0.43015146
1	0xbe88fd7f	-0.26755902
2	0xbed97d3b	-0.42478356
3	0xbecebed5	-0.40379968
4	0xbf03889a	-0.5138031
5	0x3dfd6ca8	0.1237424
6	0xbdbc39ac	-0.091906875
7	0xbe2854c1	-0.16438581
8	0x3ea83315	0.32851472
9	0xbe5a6ade	-0.21329829
10	0x3e7d8e00	0.247612
11	0x3e478245	0.19483288
12	0x3edf76fe	0.4364547
13	0xbe906f54	-0.28209937
14	0xbd9f7756	-0.077864334
15	0xbeac3d29	-0.33640411
16	0xbd09e722	-0.03366769
17	0xbeadcc22	-0.33944803
18	0x3f00273e	0.5005988
19	0xbe774ea7	-0.24151097
20	0xbe316702	-0.1732445
21	0x3ebe6d94	0.37192976
22	0x3ea2189e	0.31659406
23	0x3e95c64f	0.2925286
24	0x3e875eb7	0.2643945
25	0x3e878385	0.2646753
26	0xbecf1dfa	-0.40452558
27	0xbecb14ab	-0.39664206
28	0x3e37e825	0.1795965
29	0x3d678f9f	0.056533452
30	0xbeb18104	-0.34668744
31	0xbdd0bc6c	-0.101921886
32	0xbdd452d2	-0.10367359
33	0xbd68f796	-0.05687674
34	0x3ed28083	0.41113672
35	0x3d57b918	0.052666754
36	0xbedbea95	-0.4295241
37	0xbeb15e51	-0.3464227
38	0xbe768dbe	-0.24077508
39	0x3e8e5b2e	0.2780394
40	0xbd143fd1	-0.036193673
41	0x3e12e564	0.14345318
42	0xbe810c01	-0.2520447
43	0xbede11ed	-0.4337305
44	0xbd4abbe3	-0.04949559
45	0xbee52879	-0.4475744
46	0xbef2079b	-0.47271428
47	0xbea40527	-0.3203518
48	0xbddf364e	-0.1089903
49	0x3e9b250a	0.30301696
50	0x3cb59585	0.022166023
51	0xbec2bf28	-0.38036466
52	0xbe9d17c3	-0.3068219
53	0x3db8e1d0	0.09027445
54	0xbd0407ea	-0.03223411
55	0x3f0de915	0.5543378
56	0xbec95d33	-0.39328918
57	0x3e062054	0.1309827
58	0xbcc33d96	-0.023833077
59	0xbdc339de	-0.09532522
60	0x3e20456f	0.15651487
61	0xbe15b8b7	-0.14621244
62	0xbd43f303	-0.047839176
63	0xbe0be793	-0.13662557
64	0x3ebb7fec	0.36621034
65	0xbe5efeeb	-0.21776931
66	0xbec742b3	-0.38918075
67	0x3e5b1a63	0.21396784
68	0xbec3b8de	-0.3822698
69	0x3eb922cd	0.36159363
70	0xbed90ccc	-0.42392576
71	0x3dcbf4cc	0.09958801
72	0x3d8c1307	0.06839567
73	0xbde9bbe0	-0.114127874
74	0xbe91c539	-0.2847078
75	0xbe88d1fd	-0.26722708
76	0xbe30587b	-0.17221253
77	0x3de6ebc2	0.11275436
78	0xbe9ad01d	-0.30236903
79	0xbec87407	-0.39151022
80	0x3edd0a1c	0.43171775
81	0xbed81872	-0.4220615
82	0x3ea013b9	0.31265047
83	0x3ee57aa3	0.44820127
84	0x3e9b6cc0	0.30356407
85	0xbf0860de	-0.5327281
86	0x3e827bea	0.25485164
87	0x3e562d33	0.2091568
88	0x3f06256f	0.5240087
89	0x3e8e8448	0.27835298
90	0xbdbc2265	-0.09186248
91	0x3ea902df	0.33010003
92	0xbee05988	-0.43818307
93	0xbd0dbfb2	-0.034606643
94	0x3e9b0ebe	0.30284685
95	0x3e4d7dee	0.2006757
96	0x3ecb3e80	0.3969612
97	0x3e3d526d	0.18488474
98	0x3d7494d2	0.05971224
99	0xbee935c2	-0.45548826
100	0x3ec7043d	0.3887042
101	0x3ef51d61	0.47873977
102	0x3c1d36c6	0.009595579
103	0x3ebcfd5f	0.36912057
104	0x3df50545	0.11963896
105	0x3d98f59a	0.0746872
106	0xbe09d24d	-0.1345913
107	0x3eab55dc	0.33463943
108	0xbe973ae2	-0.29537112
109	0xbec16e3c	-0.37779415
110	0x3da86c32	0.082237616
111	0xbed0588c	-0.40692556
112	0xbee6a002	-0.4504395
113	0x3e0fce32	0.14043501
114	0x3eeb979d	0.4601411
115	0x3ef4320e	0.4769444
116	0xbe8797aa	-0.26482898
117	0xbe9799ea	-0.29609615
118	0x3e9513a8	0.2911656
119	0xbf09de7b	-0.53855103
120	0x3dbcefe8	0.09225446
121	0xbf0a011a	-0.5390793
122	0x3e393f61	0.18090583
123	0xbc5fb728	-0.013654508
124	0x3db76672	0.08955087
125	0xbe263774	-0.16232091
126	0x3eb79c2d	0.3586134
127	0x3cc90a50	0.02454105
128	0x3ec1bcef	0.37839457
129	0xbd79914d	-0.060929585
130	0x3e6e2f7c	0.23260301
131	0x3ea7472d	0.3267149
132	0xbc5beb84	-0.0134228505
133	0x3be2db39	0.006923106
134	0x3eae267d	0.3401374
135	0x3ef09f7e	0.46996683
136	0xbd933d38	-0.07189411
137	0x3cd1d7c0	0.025615573
138	0xbe3fc410	-0.18727136
139	0x3d028dd2	0.03187353
140	0x3e1f9383	0.15583615
141	0xbe6c97f8	-0.23104846
142	0x3e9ca7a7	0.3059666
143	0x3df2c4e7	0.118539624
144	0xbf00df14	-0.5034039
145	0x3ec36c99	0.3816879
146	0xbe57d4cc	-0.2107727
147	0x3e636035	0.22204669
148	0x3ea37096	0.31921834
149	0xbe3b78b9	-0.18307771
150	0xbcc8f6f3	-0.024531817
151	0x3eed1cb2	0.46310955
152	0xbd9ee78c	-0.07759008
153	0x3e9a9435	0.30191198
154	0x3d725530	0.059163272
155	0xbe41f57c	-0.18941301
156	0x3e2760d8	0.16345537
157	0xbec48e82	-0.38389975
158	0xbe9c8217	-0.30568
159	0xbee33202	-0.4437409

projector.0.bias f4 [40]
0	0xbebe5693	-0.37175426
1	0xbd65e4be	-0.05612635
2	0x3e6f95e6	0.23397025
3	0xbe94b92e	-0.2904753
4	0x3eb0449b	0.34427342
5	0xbe374d2d	-0.17900534
6	0xbed4386a	-0.4144929
7	0x3e20d4be	0.15706155
8	0x3e8afb10	0.2714467
9	0xbec37efa	-0.38182813
10	0xbe12a475	-0.14320548
11	0xbed3c0bf	-0.4135799
12	0x3efe9a20	0.49726963
13	0x3e7773f4	0.24165326
14	0x3e26c0a9	0.16284432
15	0xbcd17106	-0.02556659
16	0x3cba43c1	0.022737386
17	0xbdf4b4f1	-0.11948574
18	0xbeeea92b	-0.4661344
19	0xbe2c7aef	-0.1684377
20	0x3e40b536	0.18819126
21	0xbe83dedf	-0.25755975
22	0x3c188fb6	0.009311607
23	0xbe0ab0f1	-0.1354406
24	0xbd423fab	-0.047424
25	0x3f022ddb	0.5085122
26	0xbd93e6b4	-0.072217375
27	0xbd596c32	-0.0530817
28	0x3ec6351c	0.38712394
29	0xbe57f035	-0.21087725
30	0x3f08bba2	0.53411305
31	0xbea47582	-0.321209
32	0x3f050e1a	0.5197464
33	0x3ef21175	0.47278944
34	0xbef91329	-0.4864743
35	0x3eb60148	0.35547853
36	0xbee21858	-0.44159198
37	0x3e18ff4f	0.14941142
38	0xbe811846	-0.25213832
39	0x3f0419ad	0.5160168

projector.2.weight f4 [400, 40]
0	0x3dcda5f3	0.10041418
1	0xbd13902b	-0.03602616
2	0xbd188831	-0.037239257
3	0xbdcf0d5e	-0.101099715
4	0xbdc4da96	-0.096120045
5	0xbd86cede	-0.065824255
6	0x3d9f5970	0.07780731
7	0x3e09d69a	0.1346077
8	0xbcc34230	-0.023835272
9	0x3e20c76b	0.15701072
10	0xbd109f5d	-0.03530823
11	0xbda0ff1e	-0.0786116
12	0x3deb6607	0.114940695
13	0xbccf3aed	-0.025296653
14	0x3e3606fa	0.17776099
15	0xbcb60710	-0.022220165
16	0x3c5bac06	0.013407713
17	0x3dcd1858	0.10014409
18	0x3d8ab9e7	0.06773739
19	0x3e389d08	0.18028653
20	0xbe1ac42a	-0.15113893
21	0xbdf761b3	-0.120791815
22	0xbc579e96	-0.013160368
23	0xbaaa6f00	-0.0013003051
24	0xbd6758ea	-0.05648128
25	0x3df4e652	0.119579926
26	0x3e213e1f	0.15746354
27	0x3e2cca8e	0.16874143
28	0x3defcb13	0.11708655
29	0xbcf2a2dd	-0.029618675
30	0xbdb492ae	-0.088170394
31	0x3d16ec8c	0.036846682
32	0x3d00752b	0.03136174
33	0xbd8e967f	-0.069622986
34	0xbc98d151	-0.018654497
35	0xbda54f43	-0.080717586
36	0xbca52a61	-0.02016181
37	0x3d03b50b	0.032155078
38	0x3e22413c	0.15845197
39	0x3dfd1fbb	0.12359568
40	0xbd7feb88	-0.06248048
41	0xbace2367	-0.0015727103
42	0xbc56ffa3	-0.013122472
43	0x3dec7217	0.115451984
44	0x3dff1aa5	0.12456254
45	0x3dc31ff8	0.09527582
46	0xbd9c0474	-0.07618037
47	0xbe386089	-0.18005575
48	0x3d9cd37b	0.07657524
49	0xbda48ff4	-0.080352694
50	0xbde251f4	-0.110507876
51	0x3bc874aa	0.006117423
52	0xbe0ca0ed	-0.13733263
53	0xbd8a9868	-0.067673504
54	0xbe0fba59	-0.1403593
55	0xbda30d48	-0.079615176
56	0xbde8403a	-0.11340375
57	0x3d822eb4	0.06356564
58	0x3d6acb8f	0.057323035
59	0x3cd692fd	0.026193136
60	0x3c3d5444	0.011555735
61	0xbdb210ef	-0.08694636
62	0x3e170959	0.1474966
63	0x3e4782e5	0.19483526
64	0x3de35109	0.110994406
65	0x3c53287d	0.012888071
66	0xbdc509a2	-0.09620978
67	0x3dacc73c	0.084364384
68	0xbc6856c4	-0.014180843
69	0xbd7fbbb7	-0.06243488
70	0x3d690495	0.056889135
71	0x3c858c3c	0.01630222
72	0x3db08d61	0.08620716
73	0x3e3f0aac	0.18656415
74	0xbe06ee70	-0.13176894
75	0x3d4164b0	0.047215164
76	0xbd2658d5	-0.04061206
77	0x3db74c9f	0.08950161
78	0xbb516189	-0.0031949005
79	0x3df10b6b	0.11769756
80	0xbd27498b	-0.04084162
81	0xbe1a68fd	-0.15079112
82	0xbd849d2f	-0.06475293
83	0x3e029224	0.1275106
84	0xbe1c7a1e	-0.15280959
85	0xbcc0f5f8	-0.023554787
86	0x3d7b9f53	0.06143124
87	0xbe199c65	-0.15001066
88	0x3cb733f0	0.022363633
89	0x3db67e98	0.089108646
90	0xbd857ace	-0.06517564
91	0x3d8001f8	0.062503755
92	0x3da8e319	0.082464404
93	0x3e0deec9	0.1386062
94	0xbd97d7bf	-0.07414197
95	0xbcbc1d3f	-0.022963164
96	0xbd89aef9	-0.067228265
97	0xbdec375d	-0.11533997
98	0x3dcb6933	0.099321745
99	0x3dc3e0d5	0.09564368
100	0x3dc40226	0.09570722
101	0x3d5ce1b8	0.0539262
102	0x3d2635de	0.040578716
103	0x3d969388	0.07352358
104	0x3dae91f8	0.08523935
105	0xbd89c867	-0.06727677
106	0xbdece5cb	-0.11567267
107	0x3dfe624a	0.12421091
108	0xbdbb83de	-0.09156011
109	0x3d9a815a	0.07544203
110	0xbe2341dc	-0.15943092
111	0xbd8f17bc	-0.06986949
112	0x3e1bc6eb	0.152126
113	0xbdbd4204	-0.09241107
114	0xbd02f49c	-0.03197156
115	0xbdf976a2	-0.121808305
116	0x3e077ae5	0.13230474
117	0x3c9f8ea0	0.019477189
118	0x3e0bc9c1	0.13651182
119	0x3c8b2352	0.016984615
120	0x3e065023	0.13116507
121	0x3dbd05c9	0.09229619
122	0x3d157557	0.036488857
123	0x3e2f520d	0.17121144
124	0x3df9a6ea	0.121900395
125	0xbd05d96d	-0.032678057
126	0xbd7849d2	-0.060617276
127	0x3e15ad07	0.14616786
128	0x3c89abcb	0.01680555
129	0x3e0748a6	0.13211307
130	0xbd994c57	-0.07485264
131	0xbcd93af5	-0.02651737
132	0x3dc064fc	0.09394261
133	0x3e131abc	0.14365667
134	0x3d4a8a7a	0.049448468
135	0xbd8e34f4	-0.06943694
136	0x3daaff9e	0.08349536
137	0x3e0b7f73	0.13622837
138	0xbdb17e6e	-0.08666693
139	0x3e098264	0.13428646
140	0x3e1afc7b	0.15135376
141	0x3e114d92	0.14189747
142	0x3b394f33	0.0028275966
143	0x3e1d6952	0.15372208
144	0x3e3229d2	0.17398766
145	0x3e1a8d79	0.1509303
146	0x3d2dcd73	0.04243226
147	0xbe105ae2	-0.14097169
148	0x3e063127	0.13104688
149	0xbe0df166	-0.13861617
150	0xbcce6260	-0.025193393
151	0x3d08c887	0.033394363
152	0x3ddd002d	0.10791049
153	0x3de43826	0.11143522
154	0xbdf6c338	-0.12048954
155	0xbceeeb01	-0.029164793
156	0x3e1c36b1	0.15255238
157	0x3d3a7cd8	0.045529217
158	0xbd05744d	-0.032581616
159	0xbd6c21c7	-0.0576494
160	0xbe03a802	-0.12857059
161	0x3db9d512	0.09073843
162	0xbdc866d7	-0.0978524
163	0x3c39e400	0.011345863
164	0xbdab2b6a	-0.0835789
165	0xbe0449ab	-0.12918727
166	0xbe1e742e	-0.15474007
167	0x3d72b5e0	0.05925548
168	0x3e11df52	0.14245346
169	0x3c804426	0.015657496
170	0x3d36c3d4	0.04462035
171	0x3d3b5e9c	0.045744523
172	0x3e1d3423	0.1535192
173	0x3c525b50	0.012839153
174	0x3be3dec0	0.006954044
175	0x3d5a1444	0.053241983
176	0x3de5f99d	0.112292506
177	0x3e0e9a33	0.1392601
178	0xbce11b98	-0.027478978
179	0xbdff6a92	-0.124714985
180	0x3cd4a524	0.025957651
181	0x3e322973	0.17398624
182	0xbdc37f79	-0.09545798
183	0x3d949be5	0.07256297
184	0x3dd7657e	0.10517405
185	0xbde11708	-0.10990721
186	0xbda8bd09	-0.082391806
187	0xbd845f9a	-0.06463547
188	0x3db0355a	0.08603926
189	0x3df9869e	0.12183879
190	0x3e0416ea	0.12899366
191	0xbcfd55a1	-0.03092462
192	0x3d967425	0.073463716
193	0x3c428417	0.011872313
194	0x3e13a297	0.14417492
195	0xbd7570b4	-0.059921935
196	0x3e136458	0.14393747
197	0x3d5d6c2a	0.05405823
198	0xbc0befe0	-0.008541077
199	0x3c2cc920	0.010545999
200	0xbdcae78f	-0.099074475
201	0xbd6e6e89	-0.058210883
202	0x3dbb682d	0.09150729
203	0xbdca46fa	-0.09876819
204	0x3e52aa5b	0.20572798
205	0x3ddfe21b	0.10931798
206	0xbcb295e7	-0.021799995
207	0x3d1d7dd5	0.03845008
208	0x3d8f03ea	0.069831684
209	0xbd1579f7	-0.036493268
210	0xbe2721f3	-0.16321544
211	0xbd557b50	-0.052119553
212	0x3e14ea5a	0.14542523
213	0xbdb081ec	-0.08618531
214	0x3d77ea07	0.06052592
215	0x3d3bcd2b	0.04584996
216	0xbe08cb6a	-0.13358846
217	0x3bee99d9	0.0072815237
218	0x3cc79fd9	0.024368213
219	0x3da8b39d	0.082373835
220	0x3e4a87d5	0.19778378
221	0xbd364c48	-0.04450634
222	0x3de008c9	0.10939176
223	0xbd8bf962	-0.06834675
224	0xbdf00df4	-0.11721411
225	0x3e07775d	0.13229127
226	0x3e258953	0.16165666
227	0xbdf0607a	-0.117371514
228	0x3d91e557	0.07123821
229	0xbdbee427	-0.0932086
230	0x3d05a241	0.03262544
231	0xbd85e9a4	-0.06538704
232	0x3e1283f6	0.14308152
233	0x3e1663b8	0.14686477
234	0xbcc98af7	-0.024602396
235	0x3ddf4e83	0.10903647
236	0xbc3de54a	-0.011590311
237	0x3dccf327	0.10007315
238	0x3d9ae683	0.07563498
239	0x3dade649	0.08491189
240	0x3e091ce7	0.13389932
241	0x3da9de3d	0.08294342
242	0x3d2a2110	0.041535437
243	0xbde4e12c	-0.111757606
244	0xbc90edbc	-0.017691486
245	0xbdb5a8de	-0.088700995
246	0x3e00d643	0.12581734
247	0xbbe34a9b	-0.006936384
248	0xbc9f9d91	-0.019484313
249	0xbd2e8c79	-0.042614434
250	0xbdb5711d	-0.08859465
251	0xbc981e80	-0.018569231
252	0x3d1441aa	0.036195435
253	0x3e4e4690	0.20144105
254	0xbc838ae1	-0.016057434
255	0xbd23aa38	-0.039957255

projector.2.bias f4 [400]
0	0xbc5a6f47	-0.013332195
1	0x3e40dea3	0.18834929
2	0xbdb08860	-0.086197615
3	0x3e139a74	0.14414388
4	0xbe052858	-0.13003671
5	0x3d8ec8af	0.06971871
6	0x3a9d8d50	0.0012020264
7	0xbdb2573a	-0.087080434
8	0xbde50197	-0.11181944
9	0xbdd0d71d	-0.101972796
10	0x3d8ddae3	0.06926515
11	0xbc56c5d0	-0.013108686
12	0xbd85d720	-0.065351725
13	0x3d149e49	0.036283765
14	0x3da0f9d0	0.07860148
15	0x3d73d318	0.059527487
16	0x3d23debd	0.04000734
17	0xbd6285e2	-0.05530346
18	0x3d8e9de3	0.06963708
19	0x3d817daa	0.06322797
20	0xbdf4fef7	-0.11962693
21	0xbd11a51b	-0.035557847
22	0x3e379b75	0.17930396
23	0x3da6a32e	0.08136593
24	0x3d455107	0.048172977
25	0x3c6d784a	0.014494011
26	0x3bd8aaec	0.0066121724
27	0xbbb64d9b	-0.0055634505
28	0xbd026920	-0.031838536
29	0x3e09e791	0.13467242
30	0x3dde3787	0.10850435
31	0xbd246512	-0.04013545
32	0x3e188b47	0.1489688
33	0xbd7a6472	-0.06113095
34	0x3e175caa	0.14781442
35	0x3dc0c7ad	0.09413085
36	0x3e525e62	0.20543817
37	0x3dcb3fb5	0.099242605
38	0xbdc388fd	-0.09547613
39	0x3e09bdd7	0.13451324
40	0xbdcb0c69	-0.099144764
41	0x3e2f0423	0.17091422
42	0x3de9fc27	0.11425047
43	0x3e24b602	0.16085055
44	0xbd100490	-0.0351606
45	0xbdf912be	-0.12161778
46	0x3e3cf6f4	0.1845358
47	0xbe03043e	-0.12794587
48	0xbcc557e5	-0.024089763
49	0xbdb218a0	-0.08696103
50	0x3e44c4f6	0.1921576
51	0x3e47295b	0.1944937
52	0xbd985efe	-0.07439993
53	0x3e5a4ceb	0.21318404
54	0xbdb65843	-0.08903553
55	0x3da9e920	0.08296418
56	0x3df1adf5	0.11800758
57	0x3db5c50f	0.088754766
58	0x3e3301bb	0.17481129
59	0x3ce40036	0.027832132
60	0x3dbe3a72	0.09288491
61	0x3dd776ab	0.10520681
62	0x3e226ab6	0.1586102
63	0xbcd31776	-0.025768023
64	0x3e4bf814	0.19918853
65	0x3e5ccebd	0.2156324
66	0xbdcec471	-0.10096062
67	0x3db71910	0.08940327
68	0x3e10c76c	0.14138573
69	0xbd5bb524	-0.053639546
70	0x3d8b87f6	0.06813042
71	0x3e25a447	0.16175948
72	0x3e6d9086	0.23199663
73	0x3de01a64	0.109425336
74	0x3dee1dff	0.11626815
75	0xbdd64061	-0.10461498
76	0x3e178a3c	0.14798826
77	0xbd71cbb0	-0.059032142
78	0xbdaef8bc	-0.08543536
79	0xbdbf3555	-0.09336344
80	0x3e19c3bf	0.15016077
81	0xbdb574a8	-0.08860141
82	0x3e3c4109	0.18384184
83	0xbdf63bd0	-0.12023127
84	0xbc168926	-0.009187972
85	0x3e007193	0.12543325
86	0x3e731bf0	0.23741126
87	0x3c0a3812	0.00843622
88	0x3e2c6304	0.16834646
89	0xbd945bd4	-0.07244077
90	0x3da7d677	0.08195203
91	0xbdb1b363	-0.086767934
92	0x3de1f9f1	0.11034001
93	0x3cd6e99a	0.026234437
94	0xbdcf5ab4	-0.10124722
95	0xbcba66fc	-0.022754185
96	0x3e0f829c	0.14014667
97	0x3e1db926	0.1540266
98	0xbdc1b3dd	-0.09458134
99	0x3e66374b	0.2248203
100	0x3d5ad628	0.05342689
101	0x3dab760d	0.08372126
102	0xbd296373	-0.041354608
103	0x3cbdff81	0.023193123
104	0xbe084377	-0.13306986
105	0x3e11528f	0.1419165
106	0xbdcfe6f8	-0.10151476
107	0x3dc89b79	0.09795279
108	0xbe0db16c	-0.13837212
109	0x3e63f47f	0.22261237
110	0xbdf5a8fc	-0.11995122
111	0xbdd34639	-0.10316128
112	0x3e5196f1	0.20467736
113	0x3d94fdc7	0.07274967
114	0x3e2c14ba	0.16804782
115	0x3dc96386	0.09833436
116	0x3c8b771e	0.017024573
117	0x3e4c90cf	0.19977115
118	0xbc0249e4	-0.007952187
119	0xbdacd54e	-0.08439122
120	0xbcee9cb8	-0.029127464
121	0x3de30018	0.11084002
122	0x3e08831b	0.13331263
123	0x3d03ebac	0.032207176
124	0x3e47183d	0.1944284
125	0x3d667d71	0.056271974
126	0xbda33572	-0.07969178
127	0xbdb15f2c	-0.08660731
128	0x3e0f0409	0.13966383
129	0x3c31b5cd	0.010846567
130	0xbd8c00b5	-0.06836072
131	0xbd97992b	-0.07402261
132	0xbe1728b6	-0.14761624
133	0x3e505dc0	0.20348263
134	0x3e073882	0.1320515
135	0x3e0d928c	0.13825434
136	0x3d31ba43	0.043390524
137	0x3d807994	0.06273189
138	0x3e714b5c	0.23563904
139	0xbb14d9b2	-0.0022712764
140	0x3da99b87	0.082816176
141	0x3d74b4e8	0.05974284
142	0x3d920524	0.07129887
143	0x3d848af9	0.064718194
144	0x3e42c4ed	0.19020434
145	0x3d1caac2	0.038248785
146	0x3e17ba19	0.14817084
147	0xbd575f14	-0.052580908
148	0xbd274568	-0.040837675
149	0x3dffa3f4	0.124824435
150	0xbbef0001	-0.0072937016
151	0x3bf4dd38	0.0074726604
152	0xbccf933c	-0.025338762
153	0x3db90cb3	0.09035625
154	0x3e1851e1	0.14874984
155	0xbc7d77a5	-0.01547042
156	0xbdcb18ec	-0.09916863
157	0x3de4b44f	0.11167204
158	0x3decaa0a	0.1155587
159	0x3e05ee1d	0.13079114
160	0xbda9e36c	-0.082953304
161	0x3e421182	0.18951991
162	0x3d5475e6	0.05187025
163	0x3bb0139c	0.0053734314
164	0x3d357d97	0.044309225
165	0x3e45ab3f	0.19303606
166	0x3c972568	0.018450454
167	0x3c8df2fa	0.017327774
168	0x3de40c04	0.11135104
169	0x3b6ee982	0.00364551
170	0xbe2cd555	-0.16878255
171	0x3d5bdd1e	0.05367767
172	0x3dcbcbdb	0.09950992
173	0x3c90431c	0.017610125
174	0xbd35a4a2	-0.04434646
175	0x3df99e42	0.121883884
176	0xbdd1d5a6	-0.10245828
177	0x3e5e2f43	0.21697716
178	0xbd402229	-0.046907578
179	0xbe108bf6	-0.14115891
180	0xbb9b2866	-0.0047350405
181	0xbcd0c433	-0.02548418
182	0xbbc8ec60	-0.0061316937
183	0x3d809e65	0.06280211
184	0x3d1c6ef1	0.03819174
185	0x3ce5d812	0.028057132
186	0xbe038276	-0.12842736
187	0x3dbb549c	0.09146997
188	0xbba0ac6f	-0.004903368
189	0x3d360279	0.04443595
190	0x3e02c18b	0.12769143
191	0xbd39fa75	-0.04540487
192	0xbdf2cc98	-0.118554294
193	0x3dfb7b9b	0.12279435
194	0xbd325560	-0.04353845
195	0xbd3150e8	-0.04329005
196	0x3dd47aa2	0.10374953
197	0xbe072784	-0.13198668
198	0xbb41aa90	-0.0029551126
199	0xbe0d32a8	-0.13788855
200	0x3e2c024b	0.1679775
201	0xbd87b137	-0.06625598
202	0x3dee28e5	0.11628894
203	0x3e3170d5	0.17328198
204	0xbcbb43c6	-0.022859465
205	0x3dbae8cd	0.091264345
206	0x3e65c739	0.22439279
207	0xbdcf7835	-0.101303495
208	0xbd0f4b20	-0.034983754
209	0x3d810752	0.06300224
210	0x3cc0b4dc	0.02352374
211	0xbdc52a47	-0.096272044
212	0x3cd6edf0	0.026236504
213	0x3e0ae617	0.13564335
214	0x3d89c4f0	0.06727016
215	0x3e0e1de6	0.13878593
216	0x3db314d6	0.087442085
217	0x3e4696ad	0.19393416
218	0x3dc8f8ce	0.09813081
219	0x3dd9520e	0.10611354
220	0xbdda0ce6	-0.106469914
221	0x3dc97551	0.098368295
222	0x3e0c1fa2	0.13683942
223	0x3e2a441b	0.16627543
224	0xbe148f75	-0.1450785
225	0x3d900729	0.07032616
226	0xbdb3d846	-0.08781485
227	0x3cb20140	0.021729112
228	0xbdec200d	-0.11529551
229	0xbde92870	-0.11384666
230	0x39f4c640	0.00046687014
231	0xbd76740a	-0.060169257
232	0x3c9f1528	0.019419268
233	0x3e0118f1	0.1260717
234	0x3b9d39e3	0.0047981604
235	0xbd9fc795	-0.07801739
236	0x3de2e7ca	0.110793665
237	0x3e1ce2f8	0.15320957
238	0xbd231e8b	-0.03982405
239	0xbb84b053	-0.00404934
240	0xbe3bf7dd	-0.18356271
241	0x3e2d004d	0.16894646
242	0x3c680342	0.014160933
243	0x3d2a0094	0.041504458
244	0x3e0a2894	0.13492042
245	0xbce6ea30	-0.028187841
246	0xbd6b5b2c	-0.057459995
247	0x3d2036ab	0.039114635
248	0xbdae4941	-0.08510066
249	0x3ca23a42	0.01980317
250	0x3c641d28	0.013922967
251	0x3d119185	0.03553917
252	0x3d13a0b6	0.036041938
253	0x3d3df5be	0.046376936
254	0x3d57881b	0.052620035
255	0xbd52eb6f	-0.05149406

projector.4.weight f4 [40, 400]
0	0xbd2abb1b	-0.041682344
1	0x3cab4c91	0.020910533
2	0xbd63b573	-0.055592965
3	0xbbeee54d	-0.0072905184
4	0xbc60c288	-0.013718255
5	0xbc074d0c	-0.0082581155
6	0x3ca4d5aa	0.020121414
7	0x3c3a14f4	0.011357535
8	0xbc379f25	-0.011207377
9	0xbcdaf4bb	-0.026728025
10	0xbc494840	-0.012285292
11	0xbd047266	-0.03233566
12	0xbd853f00	-0.06506157
13	0xbce62bf0	-0.028097123
14	0xbd70fbdf	-0.058833953
15	0x3cf34d32	0.029699896
16	0xbd2383f9	-0.03992078
17	0xbd18f135	-0.037339408
18	0x3cb992a6	0.022652935
19	0xbd09f00a	-0.033676185
20	0x3c3083f4	0.010773648
21	0x3b34164d	0.0027479113
22	0xbca5ddcf	-0.020247368
23	0xbd2820ca	-0.041046895
24	0xbcc4d6c3	-0.024028188
25	0xbcfd49b8	-0.03091894
26	0xbadaf2f9	-0.0016704492
27	0xbd2f03aa	-0.042728104
28	0x3b8718e8	0.004122842
29	0xbd77f1ff	-0.06053352
30	0xbc6f6c98	-0.014613293
31	0x3c1a05ec	0.009400826
32	0xbd123abf	-0.035700556
33	0xbd1f687d	-0.038918007
34	0xbc01d928	-0.007925309
35	0x3ca05006	0.019569408
36	0xbc41f884	-0.011839036
37	0xbd06c188	-0.03289941
38	0xbaac75ab	-0.0013157626
39	0xbd8d2aa2	-0.06892897
40	0xbc7b7440	-0.01534754
41	0xbd7de2cd	-0.061983872
42	0xbd6f1b00	-0.05837536
43	0xbd91b752	-0.07115044
44	0x3d070039	0.032959197
45	0x3d1b7fb7	0.037963595
46	0x3c4e635e	0.012596933
47	0xbb9a3468	-0.0047059543
48	0xbc2ee040	-0.010673583
49	0xbd5d0cbf	-0.053967234
50	0xbd4ff927	-0.05077472
51	0xbd5889a9	-0.052865658
52	0xbb6c7c80	-0.003608495
53	0xbc33ddc6	-0.010978168
54	0x3c9638ae	0.018337574
55	0xbd61d007	-0.05513003
56	0xbd4f1ecd	-0.050566483
57	0xbd0458d1	-0.032311264
58	0x3c56c695	0.013108869
59	0xbca7eb03	-0.020497805
60	0xba783f1f	-0.0009469855
61	0x3c37cdac	0.01121847
62	0xbd8c9f33	-0.06866302
63	0x3cf2de92	0.029647145
64	0xbc246fb3	-0.010036397
65	0xbcd6b7b2	-0.02621064
66	0xbd5df579	-0.05418918
67	0xbb114dfd	-0.0022171729
68	0xbc34bb4a	-0.011030981
69	0x3d09c76b	0.033637445
70	0xbc122d04	-0.008921865
71	0xbcd45c4d	-0.025922919
72	0x3c90e7d1	0.017688664
73	0x3b6cb90d	0.003612104
74	0x3c702cd4	0.014659125
75	0x3c0cc1f0	0.00859116
76	0xbc60bce0	-0.013716906
77	0x3c6e745c	0.014554109
78	0xbcc29ab3	-0.023755407
79	0xbc2e94ec	-0.010655623
80	0xbd612ea7	-0.05497613
81	0x3d3ffa1f	0.046869393
82	0xbc9a06d6	-0.018802088
83	0x3d06f301	0.03294659
84	0xbc66f970	-0.0140975565
85	0xbaf3228a	-0.0018549722
86	0xbd8e421a	-0.069462016
87	0xbd11bca8	-0.035580307
88	0xbc91d737	-0.017802818
89	0xbd13d93f	-0.036095854
90	0xbd025cfa	-0.03182695
91	0x3a705ce4	0.0009169115
92	0x3cb7e7a9	0.022449331
93	0xbd257eec	-0.040404245
94	0xbc77a4c8	-0.0151149705
95	0xbcb50790	-0.022098333
96	0x3cb890ad	0.022529924
97	0xbc932f58	-0.017966911
98	0xbd1560bd	-0.03646921
99	0xbd4f99d7	-0.050683822
100	0x3cc55914	0.024090327
101	0xba1a7b16	-0.0005892975
102	0xbbba2be3	-0.0056815012
103	0x3cc124a0	0.023577034
104	0x3d2f0b09	0.042735133
105	0xbc360b68	-0.011111118
106	0xbc8fcf66	-0.01755495
107	0xbaf8da56	-0.0018985968
108	0xbd3772c7	-0.044787195
109	0xbc12e444	-0.008965556
110	0xbc31ac4c	-0.010844301
111	0xbc03975b	-0.008031691
112	0xbd9a6759	-0.07539243
113	0xbd143b17	-0.036189165
114	0xbd29a063	-0.041412722
115	0x3c6d9d8e	0.014502896
116	0xbccb945e	-0.02485102
117	0x3c513444	0.012768809
118	0x3cc5e2ef	0.024156062
119	0xbc681008	-0.014163978
120	0xbd25b28a	-0.04045347
121	0xbd2a7bf6	-0.041622125
122	0xbb7c0413	-0.0038454577
123	0xbd0810f8	-0.033219308
124	0x3b89df37	0.0042075175
125	0x3c456414	0.012047786
126	0x3c0bffea	0.008544901
127	0xbcd8d653	-0.026469385
128	0xbc1b5168	-0.009479858
129	0x3cfffbce	0.031248
130	0xbcb0d53c	-0.021586053
131	0x3c98290f	0.018574266
132	0x3d4421b9	0.047883723
133	0xbd38bc3b	-0.045101386
134	0xbd01dab9	-0.03170273
135	0xbd8f741d	-0.07004569
136	0xbd415b52	-0.04720623
137	0xbd0c1f57	-0.034209576
138	0xbd362d35	-0.044476707
139	0xbc01b8a4	-0.007917557
140	0x3cfe9282	0.03107572
141	0xbd43270b	-0.047644656
142	0xbc1d0dda	-0.009585822
143	0xbd91ae3b	-0.0711331
144	0xbcf89557	-0.030344648
145	0xbd646251	-0.055757824
146	0x3c36cd6c	0.011157375
147	0x3c8efd36	0.017454725
148	0x3c792e7c	0.015208837
149	0xbcd85400	-0.026407242
150	0xbc858856	-0.016300362
151	0x3c4cbebc	0.0124966465
152	0xbc08381e	-0.008314161
153	0xbd536f44	-0.051619783
154	0xbd15d345	-0.036578435
155	0x3c5d5f7c	0.013511535
156	0xbc175640	-0.009236872
157	0xbd262ea1	-0.040571813
158	0xbc086ccb	-0.0083267195
159	0xbd05bc90	-0.03265053
160	0x3cb6140e	0.02222636
161	0xbb35e77a	-0.002775638
162	0x3c14d87a	0.009084815
163	0x3ca7fe54	0.020507015
164	0x3b11ecb0	0.002226632
165	0xbae11a20	-0.0017173924
166	0x3c5bf9a4	0.013426218
167	0xbd379961	-0.044824008
168	0xbd577466	-0.05260124
169	0xbc845d1a	-0.016157676
170	0xbd24cb3b	-0.04023288
171	0xbd36551d	-0.044514764
172	0xbd3c8fef	-0.046035703
173	0xbd524ca4	-0.05134262
174	0xbc30b5d8	-0.010785542
175	0x3c163c7a	0.009169692
176	0x3c9cf392	0.019159112
177	0xbcde1661	-0.02711028
178	0xbca1c057	-0.019745035
179	0x3d0d92c3	0.03456379
180	0x3d20bf2b	0.039244812
181	0xbc9ec23d	-0.01937973
182	0x3d38cdeb	0.045118254
183	0x3c32bf20	0.010909826
184	0xbd73ab7b	-0.05948971
185	0xbd0f7db0	-0.035031974
186	0x3b1b4550	0.0023692437
187	0xbd28ead8	-0.04123959
188	0xbc61a5f8	-0.01377248
189	0x3bb91c28	0.0056491084
190	0xbd5592e7	-0.05214205
191	0xbba9d82b	-0.00518324
192	0x3b322c60	0.0027187094
193	0xbd599a84	-0.053125873
194	0x3c26cff8	0.01018142
195	0xbd8f3052	-0.06991638
196	0xbcc3a2e7	-0.023881389
197	0x3c8dffe2	0.017333928
198	0xbd41c19c	-0.04730378
199	0x3c35122c	0.011051696
200	0x3c067b0c	0.008208048
201	0xbd2c5d4f	-0.042081174
202	0xbc080034	-0.00830083
203	0xbd41ec08	-0.047344238
204	0x3c4f8e04	0.0126681365
205	0xbcf8dd2f	-0.030378906
206	0xbb35e42c	-0.002775441
207	0x3b68ad20	0.0035503581
208	0xbccaa9e5	-0.024739215
209	0xbd93401c	-0.07189962
210	0xbd91c2c2	-0.07117225
211	0x3d3e95ab	0.046529453
212	0xbb939a90	-0.0045045093
213	0xbd0dec9f	-0.034649488
214	0xbcf89712	-0.030345473
215	0x3adec0df	0.0016994736
216	0xbce582ef	-0.028016536
217	0x3b122397	0.0022299045
218	0xbd73789f	-0.059441205
219	0xbc92a616	-0.017901462
220	0xbd820b6d	-0.063498355
221	0x3b2d396e	0.0026431936
222	0xbd0d6c5a	-0.03452716
223	0xbc69aa4a	-0.0142617915
224	0xbd583e71	-0.052793924
225	0xbd0bc3e0	-0.034122348
226	0x3cd8492e	0.026402082
227	0x3ad2038e	0.0016022788
228	0x3cfdf212	0.030999217
229	0x3c3c3148	0.011486359
230	0xbd16c5da	-0.03680978
231	0xbd181321	-0.037127618
232	0x3b042f80	0.0020169914
233	0xbc4e0980	-0.012575507
234	0x3cf4fca2	0.029905621
235	0xbd638792	-0.05554921
236	0xbd8f78c1	-0.07005454
237	0xbd06aed7	-0.032881584
238	0xbd8d5a2d	-0.06901965
239	0xbd451f9a	-0.04812584
240	0xbbc05d67	-0.0058705094
241	0xbaaa9c65	-0.001301658
242	0xbc79ffb4	-0.015258718
243	0xbcfad2f5	-0.03061817
244	0xbb5ec1af	-0.0033989956
245	0xbd48bf13	-0.049010348
246	0xbd22d8ae	-0.039757423
247	0xbd9acdd4	-0.0755879
248	0xbd07b697	-0.033133116
249	0xbc926c00	-0.017873764
250	0xbd5a9f0d	-0.05337434
251	0xbc2eb574	-0.010663379
252	0xbd45c3ae	-0.048282318
253	0xbd7538cc	-0.05986862
254	0x3c56f0a5	0.013118898
255	0xbc81b86a	-0.015835006

projector.4.bias f4 [40]
0	0x3af5d8d3	0.0018756635
1	0xbc9262e2	-0.017869417
2	0x3dc9c0a2	0.09851195
3	0xb8fcd188	-0.000120553246
4	0xbd2096ad	-0.039206196
5	0xbd158fcc	-0.03651409
6	0xba8af440	-0.0010601357
7	0x3db30c1b	0.08742543
8	0x3d8e943b	0.069618665
9	0xbc5afc08	-0.013365753
10	0x3dedda9f	0.11613964
11	0x3c600e24	0.013675246
12	0x3dae6c20	0.08516717
13	0xbd16c669	-0.036810312
14	0x3d9a7752	0.0754229
15	0xbd5ff932	-0.05468101
16	0xbd0711f0	-0.03297609
17	0xbcf54b90	-0.029943258
18	0xbd467d84	-0.048459545
19	0x3c154364	0.009110305
20	0xbd048b4c	-0.032359406
21	0x3d1e83c8	0.038699895
22	0xbcffa988	-0.031208768
23	0x3d951ff6	0.07281487
24	0x3dd77ae6	0.10521488
25	0x3df07aeb	0.11742195
26	0xbbeee95b	-0.0072910017
27	0xbd34e980	-0.044167995
28	0x3d48b0d5	0.048996765
29	0x3d78243a	0.060581423
30	0x3c77aa7a	0.015116328
31	0x3cbd33c2	0.02309597
32	0x3df90197	0.12158506
33	0xbcea992b	-0.02863749
34	0x3ce2f077	0.027702553
35	0x3cc50e54	0.024054684
36	0x3d88f6a4	0.06687668
37	0x3e00f052	0.12591675
38	0x3c67de66	0.014152145
39	0x3de574a3	0.11203887

projector.6.weight f4 [4, 40]
0	0x3db86dc1	0.09005309
1	0x3e377587	0.17915927
2	0x3e1eb167	0.15497361
3	0x3dedcf37	0.11611789
4	0x3e1da789	0.15395941
5	0x3bd1f0c0	0.0064068735
6	0xbbe9b680	-0.0071323514
7	0x3de7c55e	0.11316942
8	0x3e1319fa	0.14365378
9	0xbafa00b6	-0.0019073698
10	0x3d04e692	0.03244645
11	0x3dbb4086	0.09143166
12	0x3c656da2	0.014003189
13	0x3df10096	0.1176769
14	0x3dc791e1	0.09744621
15	0xbdf010c7	-0.1172195
16	0xbdde8b5a	-0.10866423
17	0x3c424808	0.011857994
18	0xbd8f231d	-0.06989119
19	0xbd2a4296	-0.041567408
20	0x3c4c4d3a	0.012469584
21	0x3e17b677	0.14815699
22	0x3d951f00	0.072813034
23	0x3e3595c6	0.17732915
24	0x3c6ac920	0.0143301785
25	0x3cad7c5b	0.021177461
26	0xbde28966	-0.11061363
27	0xbdaf5b51	-0.08562339
28	0xbdc063c6	-0.0939403
29	0x3da6a187	0.08136278
30	0xbd11364c	-0.035452172
31	0x3cce74fe	0.02520227
32	0x3e11aa1f	0.14225052
33	0xbdcc40fc	-0.09973332
34	0xbd825940	-0.06364679
35	0x3cca4c34	0.02469454
36	0xbcc4cd0f	-0.02402356
37	0x3d6ac013	0.057312082
38	0x3e274c7c	0.1633777
39	0xbca37fe2	-0.01995844
40	0xba866c29	-0.0010255623
41	0xbd4e1403	-0.050312053
42	0x3ddb0996	0.10695188
43	0xbdda2004	-0.10650638
44	0xbe1d55d6	-0.15364775
45	0xbd65216b	-0.055940073
46	0x3b842860	0.0040331334
47	0x3ccfe5e4	0.025378175
48	0x3e082b6e	0.13297817
49	0xbe0224c4	-0.12709337
50	0x3dbbf252	0.09177078
51	0xbdffbe56	-0.124874756
52	0x3e37f064	0.17962795
53	0xbe04b148	-0.12958252
54	0xbd84db10	-0.06487095
55	0xbdff6abc	-0.1247153
56	0x3da5ea18	0.081012905
57	0xbd6146e6	-0.054999255
58	0x3c656289	0.014000543
59	0xbbea5269	-0.0071509373
60	0xbdb44909	-0.08802993
61	0x3dc5fb94	0.09667125
62	0xbd910069	-0.07080156
63	0x3dcb0896	0.09913747
64	0x3dbbb4a3	0.09165313
65	0x3e4b599f	0.19858406
66	0xbdda9aa3	-0.10674026
67	0x3de5b306	0.11215787
68	0x3dae4aaa	0.08510335
69	0xbcdd395f	-0.027004896
70	0x3d92a743	0.07160809
71	0x3e57c039	0.21069421
72	0x3e28a13a	0.16467753
73	0xbdca4770	-0.09876907
74	0x3e1f0431	0.15528943
75	0xbde20cb8	-0.11037582
76	0x3e061565	0.13094099
77	0x3e1e71ee	0.15473148
78	0xbd42ea6f	-0.047586855
79	0x3e3a4024	0.1818853
80	0xbdb9afef	-0.0906676
81	0xbd3e4f34	-0.046462253
82	0xbc85cc17	-0.01633267
83	0xbd0e2db5	-0.03471156
84	0x3d5d5758	0.054038376
85	0xbc8c400c	-0.017120384
86	0x3c432540	0.011910737
87	0x3dac58b3	0.084153555
88	0xbd7b0061	-0.06127966
89	0xbdd619c2	-0.10454132
90	0x3e5509d5	0.20804532
91	0xbe145b8c	-0.14488047
92	0x3e047539	0.12935342
93	0x3d4fc636	0.050726138
94	0x3e022139	0.12707986
95	0xbd156315	-0.036471445
96	0x3d3c2bd4	0.045940235
97	0x3d6b8412	0.057499
98	0xbd651ac4	-0.05593373
99	0xbcafd97c	-0.02146601
100	0xbdacda0c	-0.08440027
101	0xbdb93d26	-0.09044866
102	0x3e321c56	0.17393622
103	0x3d9fb094	0.077973515
104	0x3dd89ea8	0.10577136
105	0x3e56ac1d	0.20964094
106	0x3e247cdd	0.16063257
107	0xbd26cf66	-0.040725134
108	0x3d8b2869	0.06794817
109	0x3e39a6a5	0.18129976
110	0x3dea4565	0.11439017
111	0x3da3c550	0.07996619
112	0x3dced0b9	0.100984044
113	0x3de4101e	0.111358866
114	0x3e6535bf	0.22383784
115	0x3bfdf371	0.0077499677
116	0xbce23024	-0.027610846
117	0x3d94842e	0.07251774
118	0xbd8be513	-0.06830802
119	0x3de96038	0.113953054
120	0xbdff4e83	-0.12466147
121	0xbdc9d0f2	-0.09854306
122	0x3e1d923c	0.15387815
123	0x3dc0968d	0.09403715
124	0x3d5fb5a8	0.0546166
125	0x3dcbb4bc	0.09946582
126	0xbdb83bc8	-0.08995777
127	0x3d64febb	0.055906992
128	0x3dc3b688	0.095562994
129	0x3e1d6ba5	0.15373094
130	0x3e1389bf	0.14408015
131	0x3d0df730	0.034659564
132	0x3db50540	0.08838892
133	0xbdf66a71	-0.12032021
134	0x3e00f65c	0.12593979
135	0x3db9b972	0.09068574
136	0x3e19a605	0.15004738
137	0x3d021f22	0.03176797
138	0xbd5b8743	-0.053595793
139	0xbc9fb7b7	-0.019496782
140	0xbcc306ce	-0.023806956
141	0x3e051354	0.12995654
142	0xbdcbf6ef	-0.09959208
143	0x3df84783	0.12123015
144	0x3d828613	0.06373229
145	0x3e5b136f	0.21394132
146	0x3dd64660	0.10462642
147	0xbdf6d898	-0.12053031
148	0x3e4a5da8	0.1976229
149	0xbb65e17e	-0.003507703
150	0xbcca1fd1	-0.024673374
151	0x3d2d8d84	0.042371288
152	0x3e33842a	0.17530885
153	0x3e3994d2	0.18123177
154	0xbccf2e71	-0.0252907
155	0x3d218d06	0.03944113
156	0x3e50acda	0.20378438
157	0x3e248abc	0.16068548
158	0x3be95c4d	0.007121599
159	0x3dace50c	0.08442125

projector.6.bias f4 [4]
0	0x3da78472	0.08179559
1	0x3e3d616b	0.18494193
2	0xbc18168c	-0.009282719
3	0x3d407e57	0.046995487
