models/squares/100/class_teacher_config.pt (torch, 144814 bytes, 9 tensors)

decoder.0.weight f4 [2, 400]
-0.004901198 0.07613303 0.1401544 0.0058660093 -0.041086055 0.1671586 -0.01228779 -0.041884556
0.13839015 -0.0006555351 -0.023994012 0.116890214 0.018052883 -0.0006876974 0.13811322 0.17325069
0.0905813 -0.037105106 0.15148796 0.12625274 -0.031185828 0.084263206 0.16810216 -0.025653342
0.090013646 0.09605195 0.14218618 0.009135802 0.116762884 0.019648869 0.0033278018 0.11692496
0.12961096 0.04044892 -0.030570066 -0.029641274 0.024531597 -0.03374154 0.08183785 0.118369825
0.040796056 -0.014818221 0.12659262 -0.039232805 0.1273544 -0.03325239 0.11015083 -0.033756137
-0.02675724 0.073505834 0.15294467 0.091931924 0.007042351 0.11166119 0.02947916 0.11502081
0.111208394 0.016173787 0.03731867 0.15639627 0.13498713 -0.043182716 0.0872978 0.07106406
0.022012113 0.15934308 0.03752785 0.0034441266 0.0035899365 0.121138155 0.0019139489 -0.0009350975
0.12620763 -0.003932546 0.12803967 0.021158267 -0.01145458 0.1123492 0.16136865 0.023129413
-0.03239123 0.035698906 0.09147618 0.15645993 0.048987366 -0.04360976 0.13233829 0.09244746
0.17162035 0.15700167 0.07756239 0.017012874 0.16245036 0.08389397 0.15924303 0.04664599
-0.052290507 0.17137903 0.15358922 0.018268153 0.15324028 0.10241614 -0.042087816 0.016313206
0.16734059 0.15016876 -0.015798835 -0.02501745 0.08618933 0.030818189 -0.03151614 0.035698045
0.14874695 0.14372888 0.09273848 0.1057151 0.008722706 -0.012040703 0.015161592 0.04863476
0.11419313 0.11764312 0.09583273 -0.040853843 0.020151172 -0.04514002 0.038268894 0.042436652
0.11070447 0.1039948 0.10293601 0.036195748 -0.018092846 0.09486738 0.12023881 0.011439929
-0.020220337 0.09718176 0.098448336 0.14455396 0.009432724 0.014612082 0.03513641 0.101927884
0.040818103 0.11515994 0.16680875 0.13018402 0.1514112 -0.012794249 0.024892246 0.11735536
-0.023728454 -0.02496477 0.03448563 0.11538166 -0.046341404 0.123864755 -0.03705187 -0.020049183
-0.020863669 0.09780896 0.12199848 0.16115467 -0.0074092075 0.114815325 0.11534192 0.09565338
0.12812404 0.14046615 0.10435078 -0.03673193 -0.011021616 0.15877463 0.11374914 0.1544229
0.011813549 -0.006535239 0.1616515 0.15636176 0.16099755 0.027605606 0.032734063 -0.006003905
0.04633441 0.010634981 0.15154304 -0.046354197 0.11139045 -0.032611955 -0.031234939 -0.00760079
0.094089605 0.15980862 0.093440495 0.1183558 0.033934478 -0.013639683 0.12713197 0.09741197
0.14641586 -0.01352622 0.087485775 0.07992676 0.025820458 0.09241637 0.0057454775 0.13492984
0.038792297 0.16594057 0.13381073 0.033961874 0.010723863 0.114111 0.106883325 0.033614658
0.14081563 0.10383936 -0.029824916 0.14602469 0.025630055 0.04426367 0.012923891 0.032257233
0.012052063 0.090809405 0.10583475 0.13501748 -0.016036456 0.03324658 0.11626774 0.043272346
-0.033783577 0.09503743 0.0764007 0.009758934 0.03214903 0.12537776 0.122177154 -0.011471519
0.16401868 0.1635748 0.1283393 0.10016512 0.03467195 -0.05010529 0.15944944 -0.0027976907
-0.02560124 0.018571725 0.11769203 -0.039257802 0.16813077 0.15082027 0.16491987 0.021011919
00000000: 3b9a a0bb a2eb 9b3d a384 0f3e a737 c03b
00000010: da49 28bd a02b 2b3e ba52 49bc 248f 2bbd
00000020: 26b6 0d3e 37d8 2bba 178f c4bc 2364 ef3d
00000030: a4e3 933c 9746 34ba 8d6d 0d3e a168 313e
00000040: b082 b93d 86fb 17bd a91f 1b3e 6648 013e
00000050: 6c79 ffbc 3092 ac3d f922 2c3e f526 d2bc
00000060: 1359 b83d e2b6 c43d 4199 113e 55ae 153c
00000070: 6121 ef3d aaf6 a03c 4017 5a3b 5a76 ef3d
00000080: bcb8 043e c4ad 253d 136e fabc 42d2 f2bc
00000090: 7df6 c83c 9234 0abd 9a9a a73d e16b f23d
000000a0: c419 273d 20c8 72bc 7fa1 013e 94b2 20bd
000000b0: 3169 023e a833 08bd c296 e13d e043 0abd
000000c0: 0032 dbbc 3a8a 963d 879d 1c3e ce46 bc3d
000000d0: 86c3 e63b 9fae e43d 487e f13c 0890 eb3d
000000e0: 3ac1 e33d e47e 843c 76db 183d 5826 203e
000000f0: 113a 0a3e 5ce0 30bd 30c9 b23d 098a 913d
00000100: bf52 b43c d52a 233e ceb6 193d dbb6 613b
00000110: 2445 6b3b 4817 f83d 78dd fa3a 5521 75ba
00000120: 933c 013e 96dc 80bb d51c 033e 1a54 ad3c
00000130: feab 3bbc 5617 e63d d33d 253e e579 bd3c
00000140: abac 04bd 0439 123d dd57 bb3d 0837 203e
00000150: faa6 483d 26a0 32bd b083 073e 1855 bd3d
00000160: 3fbd 2f3e 0cc5 203e 08d9 9e3d 955e 8b3c
00000170: 6359 263e 9ad0 ab3d 9b10 233e de0f 3f3d
00000180: 922e 56bd fc7d 2f3e 7e46 1d3e 18a7 953c
00000190: 05eb 1c3e 8ebf d13d 4664 2cbd 46a3 853c
000001a0: 555b 2b3e d7c5 193e 8f6c 81bc 65f1 ccbc
000001b0: 0884 b03d 6d76 fc3c 1117 01bd 1d38 123d
000001c0: 1f51 183e aa2d 133e aced bd3d 2981 d83d
000001d0: aee9 0e3c 5e46 45bc 5368 783c 3e35 473d
000001e0: 16de e93d e0ee f03d f343 c43d 5c56 27bd
000001f0: 1214 a53c bee4 38bd d8bf 1c3d 0ed2 2d3d
00000200: 06b9 e23d 3afb d43d 1dd0 d23d fe41 143d
00000210: 7337 94bc d449 c23d c43f f63d 8a6e 3b3c
00000220: 1fa5 a5bc 3b07 c73d 489f c93d f405 143e
00000230: b68b 1a3c 8467 6f3c 32eb 0f3d 91bf d03d
00000240: e230 273d fad8 eb3d eacf 2a3e f64e 053e
00000250: 8a0b 1b3e f89e 51bc d3ea cb3c 0258 f03d
00000260: 2d62 c2bc eb82 ccbc ce40 0d3d 384d ec3d
00000270: 7cd0 3dbd ceac fd3d b4c3 17bd 2f3e a4bc
00000280: 49ea aabc 1050 c83d 57da f93d bb05 253e
00000290: f0c8 f2bb 4c24 eb3d 6238 ec3d ebe5 c33d
000002a0: f332 033e 5cd6 0f3e ddb5 d53d 3874 16bd
000002b0: 0294 34bc d195 223e 4ff5 e83d 0921 1e3e
000002c0: 9e8d 413c 8f25 d6bb f987 253e 4c1d 203e
000002d0: 8bdc 243e 2725 e23c 2714 063d 68bc c4bb
000002e0: 26c9 3d3d 583e 2e3c 192e 1b3e e6dd 3dbd
000002f0: ad20 e43d 1d94 05bd 6ae0 ffbc 0c10 f9bb
00000300: 0db2 c03d dfa4 233e bb5d bf3d 8764 f23d
00000310: e1fe 0a3d fa78 5fbc e22e 023e ed7f c73d
00000320: 0aee 153e 149d 5dbc be2b b33d a4b0 a33d
00000330: 6d85 d33c cb44 bd3d 8f44 bc3b 0c2b 0a3e
00000340: ace4 1e3d 53ec 293e ae05 093e 9b1b 0b3d
00000350: 24b3 2f3c 07b3 e93d a5e5 da3d 86af 093d
00000360: f931 103e bba9 d43d 6253 f4bc 7f87 153e
00000370: 1ff6 d13c d24d 353d babe 533c 2920 043d
00000380: 0476 453c 48fa b93d e4bf d83d 0642 0a3e
00000390: e35e 83bc 912d 083d c81d ee3d 583e 313d
000003a0: a660 0abd fca2 c23d f877 9c3d f0e3 1f3c
000003b0: b4ae 033d 0763 003e 0438 fa3d 0af3 3bbc
000003c0: 83f4 273e 2780 273e 616b 033e 5f23 cd3d
000003d0: 2d04 0e3d 343b 4dbd b746 233e 7659 37bb
000003e0: b1b9 d1bc bb23 983c 8508 f13d cacc 20bd
000003f0: 792a 2c3e a170 1a3e c1e0 283e 3021 ac3c

projector.0.weight f4 [40, 4]
-0.11756836 -0.279708 -0.5476202 -0.11347547 -0.06846042 -0.35287338 0.2843628 -0.18725875
-0.23057804 -0.08725244 -0.40225884 -0.40983313 0.44070312 -0.117135875 0.050083123 -0.13239744
-0.10452261 0.15186588 0.31744146 0.23391189 -0.22756457 -0.035150427 0.12764701 0.3443517
0.1848824 0.358114 0.27304873 0.3086801 -0.25905895 -0.19020227 -0.18510668 0.40957525
-0.2326175 0.36875767 -0.52661896 -0.26846156 0.27046904 -0.43507996 0.48741782 0.23608829
0.4346043 -0.19644772 -0.09092824 0.16260046 -0.4356516 -0.21884413 0.028320072 0.31537923
-0.25149855 -0.42209712 -0.21669434 0.5220099 -0.10218485 -0.27134952 -0.318168 0.45985055
-0.077017985 -0.013107415 0.29877415 0.34426764 -0.21753941 -0.10457107 0.1391 -0.42522475
-0.16957444 0.23417939 -0.40337703 -0.5042956 -0.19112048 0.00086630427 0.43996632 0.24205922
-0.023951434 0.3406261 0.5143391 -0.14972344 0.061078645 0.3013176 -0.0032620346 0.52749205
-0.14034456 0.11817105 0.10380515 0.48539317 -0.53267556 0.18145168 0.34125456 0.27633524
-0.4765094 0.28014857 0.29149815 0.18866579 0.36158997 -0.25454304 0.21209541 0.4775923
0.02779439 0.47723576 0.023601264 0.011303543 -0.20371726 -0.06590395 0.45731834 0.49795002
0.09850577 -0.53197426 0.06882483 -0.14666672 0.37915766 -0.29328552 -0.49587637 -0.22946082
0.08865617 -0.31324947 0.51583344 -0.24238376 0.29194102 0.23600039 -0.14432839 -0.082684815
0.3879828 0.21850835 -0.54908377 -0.31271228 0.11886856 -0.269188 -0.39866644 -0.5467722
-0.34448957 -0.0014184316 -0.311888 -0.43095186 0.2762522 -0.19785857 -0.2263467 -0.30254948
0.111070946 -0.48336428 -0.38582957 0.060381986 -0.5609287 -0.088392235 0.3371235 -0.12069601
-0.27420697 0.48898932 -0.24512972 -0.1890436 -0.48939705 0.5098735 -0.25420377 -0.48968104
-0.17649789 -0.44376862 0.13481733 0.28610846 0.045695156 -0.084508434 -0.3249891 -0.22243093
00000000: aec7 f0bd e335 8fbe d630 0cbf d465 e8bd
00000010: fa34 8cbd d2ab b4be 0098 913e c2c0 3fbe
00000020: a61c 6cbe 68b1 b2bd dff4 cdbe a6d5 d1be
00000030: d7a3 e13e efe4 efbd f623 4d3d 3293 07be
00000040: f30f d6bd bb82 1b3e b087 a23e 9986 6f3e
00000050: b006 69be e5f9 0fbd e6b5 023e de4e b03e
00000060: d051 3d3e b85a b73e 0bcd 8b3e 510b 9e3e
00000070: 60a3 84be 62c4 42be 9b8c 3dbe d9b3 d13e
00000080: 4833 6ebe cecd bc3e 80d0 06bf cb73 89be
00000090: eb7a 8a3e cdc2 debe d48e f93e 21c1 713e
000000a0: 7484 de3e 9729 49be 9638 babd bc80 263e
000000b0: ba0d dfbe ad18 60be 7fff e73c 6379 a13e
000000c0: 6bc4 80be 1d1d d8be 1fe5 5dbe 71a2 053f
000000d0: 4a46 d1bd 53ee 8abe ebe6 a2be 8871 eb3e
000000e0: 9bbb 9dbd 7cc0 56bc edf8 983e d943 b03e
000000f0: a7c2 5ebe 5b29 d6bd 3b70 0e3e 0fb7 d9be
00000100: eca4 2dbe b9cc 6f3e 6f87 cebe 8419 01bf
00000110: 16b5 43be b218 633a 4443 e13e 5fde 773e
00000120: cc35 c4bc 8b66 ae3e baab 033f 1a51 19be
00000130: 9a2d 7a3d 4d46 9a3e dcc7 55bb b809 073f
00000140: 7cb6 0fbe aa03 f23d cb97 d43d 7485 f83e
00000150: 6d5d 08bf 78ce 393e ebb8 ae3e d07b 8d3e
00000160: 0af9 f3be a26f 8f3e 3f3f 953e 9b31 413e
00000170: 5222 b93e 7753 82be 8a2f 593e fa86 f43e
00000180: 10b1 e33c 3f58 f43e 7057 c13c 7f32 393c
00000190: 429b 50be a6f8 86bd a125 ea3e 4ef3 fe3e
000001a0: 65bd c93d 772f 08bf 08f4 8c3d cd2f 16be
000001b0: f420 c23e 8529 96be 82e3 fdbe c7f7 6abe
000001c0: 5e91 b53d 3c62 a0be a90d 043f 7333 78be
000001d0: 4b79 953e 16aa 713e d2ca 13be a856 a9bd
000001e0: aea5 c63e a7c0 5f3e c190 0cbf d31b a0be
000001f0: 5c71 f33d 02d3 89be 021e ccbe 43f9 0bbf
00000200: f060 b0be abea b9ba c9af 9fbe b9a5 dcbe
00000210: ee70 8d3e 709b 4abe 6ec7 67be c4e7 9abe
00000220: 2a79 e33d 867b f7be 748b c5be 1a53 773d
00000230: 0699 0fbf fd06 b5bd 749b ac3e 782f f7bd
00000240: db64 8cbe cf5c fa3e 4903 7bbe a594 41be
00000250: 4092 fabe 1287 023f ff26 82be 79b7 fabe
00000260: ddbb 34be a435 e3be 8e0d 0a3e cf7c 923e
00000270: d82a 3b3d c212 adbd f964 a6be efc4 63be

projector.0.bias f4 [40]
-0.10530798 0.3581047 0.05775493 -0.227142 -0.11356452 0.5754594 -0.45594084 0.47608492
-0.19157416 0.41551208 -0.38401905 0.18487094 0.25976872 0.008908022 -0.3276306 -0.06929747
-0.13308088 0.19716237 0.5438187 0.007606801 0.2424793 0.5079896 0.07605061 -0.33959517
0.22403587 0.30152953 0.36110747 -0.40462187 0.13852453 0.23959231 0.36361393 0.12830755
0.22437696 -0.36403555 0.26336458 -0.23081799 0.47171348 0.5206626 0.10405841 0.39516437
00000000: b6ab d7bd 8059 b73e 6f90 6c3d ea97 68be
00000010: 8494 e8bd 4f51 133f 1471 e9be 67c1 f33e
00000020: 042c 44be 00be d43e 259e c4be cf4e 3d3e
00000030: 6800 853e f4f2 113c 33bf a7be d5eb 8dbd
00000040: 5b46 08be efe4 493e b437 0b3f 7942 f93b
00000050: 7e4c 783e 9b0b 023f 6cc0 9b3d 6bdf adbe
00000060: a969 653e 1462 9a3e 14e3 b83e 992a cfbe
00000070: 60d9 0d3e b057 753e 9b2b ba3e 0e63 033e
00000080: 13c3 653e de62 babe b9d7 863e 8d5b 6cbe
00000090: 6e84 f13e 254a 053f 931c d53d fc52 ca3e

projector.2.weight f4 [400, 40]
0.13382912 0.0713786 -0.114670716 -0.0019750514 0.100814216 0.04550966 0.12869109 -0.106730044
0.023984183 0.15967575 -0.19748122 0.12097213 -0.08495932 -0.07149945 0.03362909 0.07049892
-0.012486981 0.13651808 0.02102038 -0.09766335 -0.042514127 -0.002447567 0.05414503 0.08647212
0.12618937 -0.13048428 -0.065998785 0.04404892 -0.10029379 -0.05564148 0.045368798 -0.05682574
0.021734465 0.024742858 -0.13759191 0.026064284 -0.15396677 0.04321862 -0.023714665 0.056922264
0.04643043 0.0125833275 0.10775691 -0.2304475 0.07905485 -0.047498357 -0.13295522 0.10061902
0.070377074 -0.08127779 -0.14665876 -0.029721126 -0.11197949 -0.011531412 -0.025005667 -0.15264626
-0.13161774 -0.088022634 0.005706261 -0.1539922 0.020906879 -0.13229617 -0.15087941 -0.08140318
0.009805356 0.09281875 0.006629202 0.014077787 -0.021486383 -0.0383371 0.07824 0.110071614
0.12576835 -0.05060644 0.15054359 0.011956128 -0.1412801 -0.053586006 -0.008581335 0.117846146
0.17810132 -0.007462524 -0.023684738 -0.09660589 0.0093287835 0.18171018 -0.110125825 -0.028487565
0.08336309 0.14991343 0.098286875 0.07644627 0.04290959 0.123689964 0.007471363 -0.0317515
0.13508597 0.12410472 -0.054737743 0.16751423 0.038382538 -0.006365221 -0.041509174 0.028082458
0.05287402 0.13155596 0.10219143 -0.027253484 0.024778852 0.11606303 0.16390494 -0.09796828
0.040782962 0.12411782 0.10919149 0.13207024 0.21144073 0.08286749 -0.077342056 0.1621459
0.0609474 0.10512856 -0.03852839 -0.11795676 0.069036506 0.16427404 0.02394612 0.037002716
0.1915967 0.13350922 -0.16929515 0.13725662 0.04889181 0.023873447 0.1921233 0.09070813
0.17317557 0.20441818 0.061538413 -0.078623086 0.106876075 0.1530519 -0.06437227 -0.0036534194
0.20578319 -0.045794964 -0.086421594 0.028592363 0.12482896 0.10387678 0.013022249 -0.01326311
-0.015746702 0.12046812 0.119306386 0.007664435 0.10636366 0.22548622 0.19779025 0.08572047
-0.092860915 0.07874656 0.10672784 -0.0493628 0.08264407 0.019935267 -0.1571169 -0.07242139
0.17779934 -0.107817285 0.026553623 -0.15429471 -0.15328786 0.12081805 -0.07368986 0.15050489
0.15076707 -0.043800008 -0.05614506 0.117622055 -0.07629241 0.12599817 -0.062218662 0.1260563
0.09103341 -0.14826666 -0.15076518 0.12187158 -0.05273159 0.05520582 0.016191717 0.09646796
0.08249623 0.00076696684 0.06399206 -0.06520128 -0.03461583 0.13505289 0.10051612 0.073534995
0.16332524 0.055597242 0.098226905 -0.025717346 0.17125593 0.22375773 0.06122707 -0.034232307
0.027856661 0.13548757 0.087159276 0.03570145 0.121469475 -0.048411593 0.15589488 0.024270713
0.21821854 -0.015853336 0.05502528 0.10044725 -0.054025866 0.07595767 -0.068578295 -0.028610548
-0.069876075 0.094731495 -0.087831765 0.11861046 -0.084084645 0.17118576 -0.0016791527 0.17276141
0.09202142 0.17844835 -0.001256961 0.10798319 -0.01615262 0.19661233 0.19345613 0.19745255
-0.055837456 0.13461038 0.23811546 -0.08860847 0.09317996 0.18811196 0.078176685 0.05149892
0.10167732 0.07893574 -0.065822445 0.11642184 0.12267147 0.10497504 0.12957928 0.15507995
00000000: 800a 093e f22e 923d 7bd8 eabd dd6f 01bb
00000010: af77 ce3d 5668 3a3d 99c7 033e 4895 dabd
00000020: 7a7a c43c 0a82 233e 8438 4abe 3cc0 f73d
00000030: 27ff adbd 4e6e 92bd a8be 093d bd61 903d
00000040: 3296 4cbc 65cb 0b3e ef32 ac3c b903 c8bd
00000050: 4b23 2ebd 5c67 20bb 2ec7 5d3d 4b18 b13d
00000060: c937 013e ac9d 05be 5f2a 87bd a46c 343d
00000070: d566 cdbd 52e8 63bd a2d4 393d 1bc2 68bd
00000080: 7a0c b23c 89b1 ca3c e5e4 0cbe c484 d53c
00000090: 77a9 1dbe 0206 313d 4245 c2bc 5227 693d
000000a0: d62d 3e3d 4d2a 4e3c a8af dc3d 6efa 6bbe
000000b0: 82e7 a13d a38d 42bd 6a25 08be 5811 ce3d
000000c0: db21 903d f874 a6bd b72d 16be b879 f3bc
000000d0: 8155 e5bd 3fee 3cbc afd8 ccbc 4d4f 1cbe
000000e0: cdc6 06be 3645 b4bd 96fb ba3b 22b0 1dbe
000000f0: e744 ab3c a678 07be 2280 1abe b6b6 a6bd
00000100: a5a6 203c c217 be3d c739 d93b 85a6 663c
00000110: 3604 b0bc 5d07 1dbd 4b3c a03d 3a6d e13d
00000120: 6bc9 003e b348 4fbd 1928 1a3e a3e3 433c
00000130: bbab 10be 007d 5bbd ba98 0cbc 5259 f13d
00000140: 3160 363e 3088 f4bb 7f06 c2bc 4fd9 c5bd
00000150: c1d7 183c 3c12 3a3e a689 e1bd c15e e9bc
00000160: 45ba aa3d e882 193e a14a c93d dd8f 9c3d
00000170: f7c1 2f3d 2a51 fd3d 56d2 f43b dc0d 02bd
00000180: fa53 0a3e 9e2a fe3d af34 60bd da88 2b3e
00000190: 0237 1d3d 5893 d0bb 8605 2abd 2f0d e63c
000001a0: 6e92 583d 9bb6 063e be49 d13d b342 dfbc
000001b0: 05fd ca3c 74b2 ed3d b2d6 273e 98a3 c8bd
000001c0: 090c 273d 7c31 fe3d ca9f df3d 6c3d 073e
000001d0: eb83 583e 6eb6 a93d 8365 9ebd 9309 263e
000001e0: fba3 793d a44d d73d f2cf 1dbd 5093 f1bd
000001f0: 0363 8d3d 7437 283e a72a c43c 2990 173d
00000200: ed31 443e a4b6 083e b55b 2dbe 008d 0c3e
00000210: c742 483d 3f92 c33c f8bb 443e 2fc5 b93d
00000220: f054 313e 0053 513e b40f 7c3d 2405 a1bd
00000230: d8e1 da3d a3b9 1c3e 9cd5 83bd 356e 6fbb
00000240: d4b8 523e 8093 3bbd cefd b0bd 883a ea3c
00000250: 53a6 ff3d 59bd d43d 455b 553c 844d 59bc
00000260: 3aff 80bc fdb7 f63d e856 f43d f125 fb3b
00000270: 31d5 d93d dce5 663e 8789 4a3e 378e af3d
00000280: dd2d bebd e045 a13d 2094 da3d a630 4abd
00000290: 4b41 a93d 494f a33c 41e3 20be aa51 94bd
000002a0: 0811 363e 4fcf dcbd fc86 d93c 6fff 1dbe
000002b0: 7ef7 1cbe 746f f73d b6ea 96bd f41d 1a3e
000002c0: af62 1a3e a367 33bd 5df8 65bd d5e3 f03d
000002d0: 323f 9cbd aa05 013e ffd8 7ebd e714 013e
000002e0: b96f ba3d 37d3 17be 3062 1abe cf97 f93d
000002f0: 14fd 57bd 7f1f 623d 7ea4 843c fe90 c53d
00000300: c9f3 a83d 460e 493a 450e 833d 4088 85bd
00000310: 54c9 0dbd 4e4b 0a3e 65db cd3d 8499 963d
00000320: bb3e 273e efb9 633d 302b c93d 2fad d2bc
00000330: b75d 2f3e bf20 653e 3cc9 7a3d 2d37 0cbd
00000340: a733 e43c 41bd 0a3e 9080 b23d af3b 123d
00000350: fdc4 f83d 3c4b 46bd e8a2 1f3e 60d3 c63c
00000360: ae74 5f3e dbde 81bc 3062 613d 4ab7 cd3d
00000370: 3a4a 5dbd b28f 9b3d c772 8cbd ab60 eabc
00000380: 301b 8fbd 9602 c23d 24e1 b3bd 0aea f23d
00000390: 9234 acbd 524b 2f3e 0417 dcba 5ee8 303e
000003a0: ba75 bc3d 2abb 363e 9dc0 a4ba 4a26 dd3d
000003b0: 8052 84bc be54 493e 5d19 463e 0031 4a3e
000003c0: d1b5 64bd 4ed7 093e 8ad4 733e 5c78 b5bd
000003d0: 23d5 be3d 6ca0 403e 191b a03d 88f0 523d
000003e0: 333c d03d 10a9 a13d ebcd 86bd 936e ee3d
000003f0: 2e3b fb3d 27fd d63d 6eb0 043e 47cd 1e3e

projector.2.bias f4 [400]
-0.040504273 -0.11424473 -0.020459116 0.13847923 -0.025791131 0.27653956 0.1650169 0.15373859
0.07949017 0.23474452 -0.09866255 -0.01927689 -0.069973774 -0.05166041 -0.20660846 0.033134695
0.10037531 -0.05275549 -0.028122326 -0.056681514 -0.059926286 0.028118867 0.27085724 0.25104022
-0.115249485 -0.03704228 0.027040489 -0.09067536 0.20042378 -0.064608596 0.014142613 0.12647022
-0.109886535 0.22827557 -0.14669982 0.19714364 -0.12854683 0.15535733 -0.026182108 0.022488233
-0.19669855 0.04229264 -0.09332609 0.054655187 0.051552664 -0.17450304 0.19297884 0.0028056952
0.063146405 0.106829874 0.22363783 0.106783375 0.12845457 0.078081526 -0.020078585 0.21752296
0.0062665762 -0.09125285 0.1150057 -0.020301962 0.05133441 0.120900646 0.044653445 0.1660192
0.113433816 -0.0018431153 -0.11429865 0.14269084 -0.017726619 0.027250111 0.107965186 -0.109627835
-0.072451465 -0.12837514 0.05364946 0.1729409 -0.045016695 0.16284813 -0.044534 0.20422336
0.15800673 -0.21622445 0.1858083 -0.12461366 -0.084538855 0.0868212 -0.046278615 0.020017827
-0.006142959 0.051995657 0.1004387 -0.06233272 -0.22434102 -0.10302633 0.28565592 0.18688257
0.22279392 -0.060648073 0.16493934 0.31092837 0.06500195 0.19802593 -0.18934016 0.2463278
-0.06897661 0.16113336 -0.09424445 0.020353677 0.0899313 0.22203082 0.21362236 -0.1399698
0.19613416 -0.06491535 -0.17368743 -0.14517537 0.16184723 -0.031660963 0.04247598 -0.023480814
0.20524885 0.07268476 -0.15360107 0.19998947 -0.09667888 -0.047228273 -0.0105372425 0.063413024
0.054790597 0.22974323 -0.005599942 -0.15455917 0.15546906 0.118606865 -0.09856119 -0.06080929
0.24859165 -0.1018146 -0.05152684 0.05950526 0.14661695 -0.09784272 -0.08699783 0.118949756
0.04479196 0.14650898 -0.03748474 0.20833637 0.1349705 -0.039836615 0.054688547 0.0072419615
0.2111255 0.26478797 0.22838123 0.13934165 -0.025508717 -0.03776363 0.027482204 -0.004496879
-0.03745498 -0.16114374 -0.13245343 0.14154896 0.3065228 0.271028 0.18726552 0.30348343
0.18775882 -0.12411819 0.055093583 -0.14172307 0.046882972 -0.104079254 -0.10378193 -0.032303676
-0.0073309783 0.28869963 0.20556773 -0.06911105 0.03221109 -0.072091274 0.0010250314 0.08723129
0.21623154 0.029455457 -0.20582025 -0.03366592 0.27536446 0.056322675 0.16955781 -0.19584593
0.040180262 -0.104446284 0.03084896 -0.00644828 -0.016440786 -0.17349465 0.24772668 0.13350701
-0.17677355 0.13350601 0.113029405 0.04626555 -0.022824444 0.12062689 -0.038521513 0.20896734
0.20155211 -0.07588965 0.11011413 -0.058394168 0.2245152 0.051882792 -0.048631933 0.20192632
-0.101123184 -0.033382237 0.031802543 0.06445412 0.057895396 0.09886096 0.19553547 0.06817337
0.11126282 0.17976938 0.04473333 0.11723677 -0.071915805 0.030123016 -0.046917558 0.23097366
0.27706376 0.22612397 0.105019696 -0.0067369197 0.018369474 0.07186386 0.07642505 0.034280274
-0.026229208 -0.009349105 0.13452905 -0.12454185 -0.057472397 0.14591749 0.14571345 -0.073416226
0.10126728 0.19932365 0.13628304 -0.036450826 -0.14472295 -0.049073983 -0.0707119 0.22748852
00000000: cfe7 25bd 24f9 e9bd e099 a7bc 80cd 0d3e
00000010: ec47 d3bc 9896 8d3e 31fa 283e a66d 1d3e
00000020: becb a23d de60 703e 970f cabd 92ea 9dbc
00000030: 694e 8fbd de99 53bd 2b91 53be 3fb8 073d
00000040: 9291 cd3d 2416 58bd cb60 e6bc e02a 68bd
00000050: 4475 75bd 8a59 e63c cdad 8a3e 5888 803e
00000060: ec07 ecbd a5b9 17bd 0484 dd3c 01b4 b9bd
00000070: e43b 4d3e 8351 84bd 6bb6 673c 6981 013e
00000080: 310c e1bd 12c1 693e 7a38 16be 06e0 493e
00000090: c8a1 03be fe15 1f3e dc7b d6bc 3e39 b83c
000000a0: 586b 49be 0c3b 2d3d c021 bfbd 1ede 5f3d
000000b0: e328 533d edb0 32be 3f9c 453e c1df 373b
000000c0: e752 813d 9fc9 da3d 5101 653e 3eb1 da3d
000000d0: 9889 033e 35e9 9f3d d87b a4bc 57be 5e3e
000000e0: da57 cd3b c6e2 babd 1c88 eb3d 4d50 a6bc
000000f0: 0844 523d c29a f73d 88e6 363d f000 2a3e
00000100: fd4f e83d b094 f1ba 6915 eabd 8c1d 123e
00000110: 6a37 91bc a03b df3c da1c dd3d 8f84 e0bd
00000120: 6f61 94bd c674 03be 89bf 5b3d 6b17 313e
00000130: 6d63 38bd a9c1 263e 4969 36bd ee1f 513e
00000140: 84cc 213e f169 5dbe 8844 3e3e 7235 ffbd
00000150: b522 adbd 50cf b13d a58e 3dbd 6dfc a33c
00000160: e04a c9bb 66f9 543d ceb2 cd3d 9850 7fbd
00000170: a7b9 65be 78ff d2bd 7e41 923e 255e 3f3e
00000180: 1724 643e 1d6a 78bd dce5 283e 0132 9f3e
00000190: be1f 853d 4fc7 4a3e 63e2 41be 5b3d 7c3e
000001a0: 9c43 8dbd 2500 253e 3c03 c1bd c1bc a63c
000001b0: e72d b83d 0c5c 633e d2bf 5a3e 3e54 0fbe
000001c0: 65d7 483e 57f2 84bd 1edb 31be daa8 14be
000001d0: 48bb 253e edae 01bd 4bfb 2d3d d65a c0bc
000001e0: c12c 523e bfdb 943d 9949 1dbe 0aca 4c3e
000001f0: 94ff c5bd 6f72 41bd 66a4 2cbc b0de 813d
00000200: 1b6c 603d cf41 6b3e b87f b7bb c244 1ebe
00000210: 4833 1f3e 28e8 f23d 73da c9bd 2913 79bd
00000220: cf8e 7e3e 2c84 d0bd cf0d 53bd cabb 733d
00000230: c122 163e c461 c8bd eb2b b2bd ee9b f33d
00000240: c677 373d 7306 163e 9989 19bd 2156 553e
00000250: b535 0a3e b82b 23bd 1901 603d fa4d ed3b
00000260: 4831 583e 4a92 873e c5dc 693e 94af 0e3e
00000270: a8f7 d0bc 09ae 1abd 5c22 e13c 8e5a 93bb
00000280: 656a 19bd dd02 25be dfa1 07be 36f2 103e
00000290: 8ef0 9c3e 2fc4 8a3e 88c2 3f3e 2e62 9b3e
000002a0: d943 403e ad31 febd cfa9 613d da1f 11be
000002b0: 5c08 403d 8127 d5bd 9f8b d4bd dc50 04bd
000002c0: b438 f0bb 70d0 933e 5980 523e 188a 8dbd
000002d0: c7ef 033d 97a4 93bd 595a 863a 52a6 b23d
000002e0: cd6b 5d3e 924c f13c 8bc2 52be 47e5 09bd
000002f0: 92fc 8c3e 9bb2 663d 90a0 2d3e d68b 48be
00000300: 0f94 243d efe7 d5bd f5b6 fc3c 184c d3bb
00000310: d4ae 86bc 95a8 31be 10ac 7d3e 10b6 083e
00000320: 2004 35be cdb5 083e f67b e73d f280 3d3d
00000330: 54fa babc 3b0b f73d bcc8 1dbd 89fb 553e
00000340: ad63 4e3e 086c 9bbd 8483 e13d b92e 6fbd
00000350: 50e7 653e 0d83 543d 4732 47bd c6c5 4e3e
00000360: ac19 cfbd d0bb 08bd 6243 023d 8600 843d
00000370: b923 6d3d 9d77 ca3d 733a 483e 7b9e 8b3d
00000380: c3dd e33d 7715 383e 4c3a 373d d519 f03d
00000390: 9848 93bd 8bc4 f63c a02c 40bd 5c84 6c3e
000003a0: 4ddb 8d3e 0b8d 673e 9114 d73d 61c1 dcbb
000003b0: 947b 963c 5c2d 933d bd84 9c3d 7969 0c3d
000003c0: a3de d6bc fd2c 19bc fcc1 093e cc0f ffbd
000003d0: 2d68 6bbd 656b 153e e835 153e 3f5b 96bd
000003e0: 3865 cf3d 801b 4c3e c88d 0b3e 764d 15bd
000003f0: 4132 14be cd01 49bd 67d1 90bd c0f2 683e

projector.4.weight f4 [40, 400]
-0.06485703 -0.06585217 -0.020744765 -0.05823097 0.006815126 -0.08919642 -0.03432834 -0.011349381
-0.06964438 -0.04102521 -0.027621664 0.0720596 0.052052096 0.004534375 -0.029721206 -0.058506526
-0.0883714 -0.03874945 -0.030585337 0.047548432 0.041279186 -0.006794305 -0.023924401 -0.03931708
-0.023771947 -0.038972527 0.054732032 0.0056852223 -0.089003175 -0.07796414 -0.07935459 -0.0009765658
0.06347286 -0.061763313 0.012682855 -0.042380683 0.030994236 -0.0537308 -0.065507 -0.035167743
-0.036666542 0.007374784 -0.043454845 -0.035901587 -0.08147284 -0.025049215 0.02033649 -0.020558257
0.033916067 -0.09544398 0.006113206 0.019897789 -0.030222833 0.009554243 -0.06249781 -0.07368581
-0.01379059 -0.051687326 -0.007054207 0.003410787 -0.07696519 -0.08464642 -0.043327004 -0.033688955
-0.014362631 -0.029487563 0.035869177 -0.023688724 -0.008581765 -0.005664524 -0.071662255 0.027663643
-0.06375492 -0.023728978 -0.026129086 -0.004238581 -0.04555453 -0.020237433 -0.050879564 -0.0670023
-0.03128473 -0.03888889 -0.024408206 0.07586539 -0.0123767 0.0036903739 -0.006161976 -0.100477464
-0.008024703 -0.11370069 -0.062747054 -0.056062657 0.05229096 -0.070275635 -0.084453434 0.0440161
-0.09020103 -0.044250734 -0.08724522 -0.031564806 -0.02951026 -0.061343215 0.03042615 -0.01810422
0.04845942 0.027772594 0.06726532 -0.032303832 -0.05032273 -0.060617 -0.034182135 -0.0647854
-0.034134116 -0.013727659 0.040823728 0.045588054 -0.057460055 0.00851806 -0.061757255 -0.025766332
-0.048360776 -0.03997426 -0.013772559 -0.07586278 0.006197059 -0.03750456 0.027317123 -0.023188325
-0.039764993 -0.09671385 0.047022235 -0.010565293 0.0093015805 -0.07907199 -0.055646695 0.009683037
-0.05202121 -0.040897775 0.00311696 0.013292901 -0.07250176 -0.04544074 0.035871677 0.02436391
-0.07809298 -0.08173102 0.015091859 -0.047596913 -0.074038565 0.033713773 0.001598239 0.0036229254
-0.042000517 -0.003446938 -0.08464525 0.0050841393 0.038327165 -0.016425401 -0.01635733 -0.026657889
0.02684901 0.044421833 0.040343232 -0.033493895 -0.034296636 -0.09827706 -0.030123152 -0.03393995
0.018148853 -0.020496283 -0.014120913 -0.018315762 -0.008018918 -0.013078499 -0.015472293 -0.038992297
0.10124224 -0.0056552314 -0.064943954 0.021826643 -0.063791186 -0.015543336 -0.08243421 0.0024207234
-0.028025806 -0.010760377 -0.024812818 -0.080213726 -0.06914929 -0.002397293 -0.04916245 -0.016723592
-0.030676857 -0.011958793 0.0050766435 -0.021678362 -0.015165137 -0.039506983 -0.05643869 -0.06626986
0.03352761 -0.09556653 -0.03823277 0.07116506 -0.043284535 -0.042090233 -0.039081104 -0.045560192
-0.06039416 -0.022804016 -0.07623917 -0.08187917 -0.038550273 0.003174108 -0.017000772 -0.036925282
-0.044288512 -0.021520292 -0.0009013593 -0.064720966 0.009408001 -0.08035809 -0.0450878 -0.08471946
-0.075445555 -0.075696014 -0.01931864 -0.040864766 -0.0071870685 -0.03101825 0.009389221 -0.063582554
-0.08308622 -0.080917746 -0.033369172 -0.010295642 -0.08182543 -0.051699497 0.02743103 0.009419548
-0.04343215 0.005320149 -0.034065347 -0.0041651786 0.027724672 -0.07604831 -0.03859881 0.0023539034
-0.0144962305 0.013308683 -0.0063772434 0.02303185 0.028725052 -0.006211455 0.06988951 -0.073586404
00000000: c3d3 84bd 81dd 86bd edf0 a9bc 9983 6ebd
00000010: 6c51 df3b 9dac b6bd e09b 0cbd c1f2 39bc
00000020: b6a1 8ebd 0d0a 28bd d446 e2bc fc93 933d
00000030: 9434 553d 1895 943b e379 f3bc 8aa4 6fbd
00000040: 11fc b4bd beb7 1ebd 1a8e fabc 25c2 423d
00000050: 5d14 293d c3a2 debb 1bfd c3bc f20a 21bd
00000060: 63bd c2bc a8a1 1fbd b22e 603d 1a4b ba3b
00000070: 4c47 b6bd aaab 9fbd a984 a2bd 1c00 80ba
00000080: 0ffe 813d 87fb 7cbd c0cb 4f3c 5e97 2dbd
00000090: a0e7 fd3c d414 5cbd 8928 86bd 0d0c 10bd
000000a0: a82f 16bd 2ca8 f13b b5fd 31bd 8b0d 13bd
000000b0: 3bdb a6bd 0334 cdbc b698 a63c ca69 a8bc
000000c0: 93eb 0a3d 2278 c3bd 4a51 c83b b000 a33c
000000d0: e095 f7bc 6689 1c3c b4fd 7fbd 96e8 96bd
000000e0: edf1 61bc 17b6 53bd fa26 e7bb 8387 5f3b
000000f0: ed9f 9dbd 1a5b adbd a877 31bd 6efd 09bd
00000100: 3e51 6bbc e78f f1bc 8feb 123d db0e c2bc
00000110: 889a 0cbc 799d b9bb a9c3 92bd dd9e e23c
00000120: f191 82bd 4663 c2bc aa0c d6bc cbe3 8abb
00000130: 6397 3abd f9c8 a5bc 1767 50bd 8038 89bd
00000140: 6b24 00bd f549 1fbd b8f3 c7bc 505f 9b3d
00000150: a4c7 4abc 33da 713b 67ea c9bb 21c7 cdbd
00000160: 0b7a 03bc e8db e8bd 8781 80bd f5a1 65bd
00000170: 0c2f 563d acec 8fbd ecf5 acbd 3a4a 343d
00000180: 51bb b8bd 4240 35bd 9fad b2bd 194a 01bd
00000190: 80bf f1bc 0643 7bbd 4340 f93c 4d4f 94bc
000001a0: 637d 463d 5a83 e33c 66c2 893d 0651 04bd
000001b0: 351f 4ebd 8849 78bd 9102 0cbd 35ae 84bd
000001c0: 37d0 0bbd fae9 60bc c836 273d 8aba 3a3d
000001d0: 3c5b 6bbd 558f 0b3c 2df5 7cbd ea13 d3bc
000001e0: f315 46bd 0dbc 23bd 4da6 61bc f25d 9bbd
000001f0: b310 cb3b 629e 19bd 29c8 df3c 71f5 bdbc
00000200: 9ee0 22bd e911 c6bd 639a 403d 0d1a 2dbc
00000210: a865 183c 7ff0 a1bd caed 63bd 9aa5 1e3c
00000220: 3114 55bd 6d84 27bd e945 4c3b 78ca 593c
00000230: ce7b 94bd 1220 3abd 2eee 123d d396 c73c
00000240: 36ef 9fbd 9862 a7bd d843 773c fbf4 42bd
00000250: 88a1 97bd 7417 0a3d 007c d13a 9a6e 6d3b
00000260: bc08 2cbd 06e6 61bb 7d5a adbd da98 a63b
00000270: f2fc 1c3d 908e 86bc cfff 85bc a561 dabc
00000280: 74f2 db3c abf3 353d f23e 253d e530 09bd
00000290: a17a 0cbd 7c45 c9bd d4c4 f6bc 9e04 0bbd
000002a0: e7ac 943c d2e7 a7bc 675b 67bc f00a 96bc
000002b0: c861 03bc 3347 56bc 807f 7dbc 63b6 1fbd
000002c0: 1758 cf3d 854f b9bb 5601 85bd cacd b23c
000002d0: f4a4 82bd 7aa9 7ebc 44d3 a8bd 00a5 1e3b
000002e0: 6096 e5bc 4b4c 30bc 4044 cbbc 1847 a4bd
000002f0: 259e 8dbd e71b 1dbb 915e 49bd eaff 88bc
00000300: 084e fbbc d0ee 43bc f959 a63b d296 b1bc
00000310: 3277 78bc 13d2 21bd 412c 67bd 7eb8 87bd
00000320: 3f54 093d 63b8 c3bd f799 1cbd fdbe 913d
00000330: 204b 31bd cf66 2cbd 8213 20bd 539d 3abd
00000340: de5f 77bd 7dcf babc 4823 9cbd 44b0 a7bd
00000350: e4e6 1dbd b204 503b 3445 8bbc f73e 17bd
00000360: df67 35bd 534b b0bc 3349 6cba 6d8c 84bd
00000370: 0424 1a3c c892 a4bd fcad 38bd 6581 adbd
00000380: 3383 9abd 8306 9bbd 2042 9ebc d061 27bd
00000390: 8081 ebbb fc19 febc 3fd5 193c 9237 82bd
000003a0: 1c29 aabd 34b8 a5bd 1dae 08bd 0daf 28bc
000003b0: 1794 a7bd dac2 53bd 0ab7 e03c 7354 1a3c
000003c0: e9e5 31bd a554 ae3b 1b88 0bbd 0d7c 88bb
000003d0: da1e e33c 37bf 9bbd c919 1ebd f243 1a3b
000003e0: 9981 6dbc aa0c 5a3c 32f8 d0bb 4aad bc3c
000003f0: cd50 eb3c 7689 cbbb 3b22 8f3d 78b4 96bd

projector.4.bias f4 [40]
0.012475777 0.15582722 -0.07382751 -0.088402905 -0.09514192 0.19868945 0.15003327 -0.01055454
-0.029652705 -0.07800725 -0.037071593 -0.053020958 0.19194485 -0.050864283 -0.053359307 0.14051232
-0.019962687 0.108407564 0.08724723 -0.09994997 0.020431232 -0.07399003 0.11526917 -0.015281022
-0.053606767 -0.038259745 0.15021196 -0.009831637 -0.0014804424 0.1353232 -0.049732804 -0.04347168
-0.026967008 0.1382907 0.036830027 0.040569272 0.20830771 0.027325464 -0.006721666 -0.017796427
00000000: 3467 4c3c 2c91 1f3e e132 97bd 950c b5bd
00000010: c4d9 c2bd 3f75 4b3e 52a2 193e f3ec 2cbc
00000020: 3bea f2bc 44c2 9fbd 62d8 17bd 812c 59bd
00000030: 318d 443e 1157 50bd 4a8f 5abd 76e2 0f3e
00000040: ca88 a3bc c904 de3d adae b23d 92b2 ccbd
00000050: 665f a73c 1688 97bd 3e12 ec3d 405d 7abc
00000060: c592 5bbd 40b6 1cbd 2ad1 193e e014 21bc
00000070: 670b c2ba 2a92 0a3e a0b4 4bbd 5c0f 32bd
00000080: eae9 dcbc 149c 0d3e 15db 163d f72b 263d
00000090: 9e4e 553e a7d9 df3c 6c41 dcbb d0c9 91bc

projector.6.weight f4 [4, 40]
-0.028073927 0.092916675 0.043561064 -0.02083071 -0.052645143 0.1403589 0.09045578 0.0017395036
0.15050459 -0.007251556 -0.05240726 0.031673294 -0.046937343 0.10024881 -0.01651579 0.20143434
0.028472064 -0.0309594 0.003128245 -0.062983476 0.17156693 0.0800396 0.14940076 0.05343355
0.123866096 0.1058769 0.11179499 0.005637512 0.02160571 0.1693867 0.03929684 0.052128114
-0.13578776 0.15378183 0.16657065 0.014294736 0.03836574 0.06981707 0.123649836 -0.0024325305
-0.014308669 0.069445945 0.0016944685 0.11093301 0.009924093 0.16522422 -0.06451498 -0.060398016
-0.0004884443 0.109615184 -0.008957931 0.06452005 0.02810292 -0.083475955 -0.10191119 0.14331597
-0.00888489 0.12733288 -0.026196243 -0.07710003 0.090789884 -0.08997629 0.13802472 0.10345159
-0.03969268 -0.0077148187 0.19843602 -0.06492482 0.021437561 0.03417131 0.12205015 0.051020462
0.08193454 0.18693317 -0.03530525 -0.14844932 0.14676355 -0.10625708 -0.07433868 -0.07363121
0.017729608 0.088729106 -0.045187727 -0.12125425 0.13954438 -0.009340528 -0.018264968 -0.077665076
0.021192167 0.043925945 0.04796518 -0.14001846 0.2230457 -0.09419077 0.14111134 0.17864667
-0.0021069949 0.13771343 0.15002981 0.08733276 0.09468422 0.18661755 0.004421968 0.13170245
-0.086774 -0.059791055 0.23158826 -0.0357866 0.060823932 0.1433958 -0.042984784 -0.029386416
-0.02991046 0.07821053 0.10614312 0.0524649 0.24438982 0.13094251 0.14014529 0.18864489
0.18165004 0.08054714 -0.07023732 0.041450333 0.116679735 0.22420605 0.22044398 0.13953519
-0.099435054 -0.046461724 0.15452558 -0.04818228 0.16005948 0.057435118 0.03321188 0.09212204
-0.02987484 0.10635048 0.11691806 0.054343957 -0.02520772 0.004428223 0.100686 0.14715019
0.04071519 0.052812707 0.0694059 -0.077302895 -0.08343205 0.099468865 0.028540315 -0.01465499
-0.07918287 0.062770024 0.05244424 -0.07746621 0.23019895 0.110248014 0.055851046 0.01697363
00000000: 4bfb e5bc 194b be3d 166d 323d 2aa5 aabc
00000010: 6fa2 57bd 3eba 0f3e e140 b93d 0e00 e43a
00000020: e01d 1a3e 769e edbb ffa8 56bd dbbb 013d
00000030: 5f41 40bd 404f cd3d 1f4c 87bc ce44 4e3e
00000040: 3f3e e93c 919e fdbc 3e03 4d3b 7bfd 80bd
00000050: 3eaf 2f3e cdeb a33d 83fc 183e 23dd 5a3d
00000060: 82ad fd3d fdd5 d83d c6f4 e43d e1ba b83b
00000070: 75fe b03c b573 2d3e b9f5 203d 4a84 553d
00000080: f20b 0bbe fc78 1d3e 7f91 2a3e 7834 6a3c
00000090: 6525 1d3d 41fc 8e3d 203c fd3d 176b 1fbb
000000a0: e86e 6abc ad39 8e3d ee18 de3a d930 e33d
000000b0: aa98 223c 8a30 293e 6e20 84bd e963 77bd
000000c0: f10a 00ba ed7d e03d 49c4 12bc 1723 843d
000000d0: 1838 e63c 71f5 aabd d0b6 d0bd 6cc1 123e
000000e0: ee91 11bc 8d63 023e 8199 d6bc 9fe6 9dbd
000000f0: 0cf0 b93d 7d45 b8bd 5a56 0d3e 6dde d33d
00000100: cb94 22bd 97cc fcbb d032 4b3e 4ef7 84bd
00000110: d39d af3c 37f7 0b3d 6ef5 f93d d5fa 503d
00000120: 4ccd a73d 696b 3f3e 3d9c 10bd 1903 18be
00000130: 2f49 163e 509d d9bd e13e 98bd f6cb 96bd
00000140: af3d 913c 9bb7 b53d c416 39bd 2654 f8bd
00000150: b9e4 0e3e 0409 19bc 6aa0 95bc de0e 9fbd
00000160: 329b ad3c b1eb 333d 2377 443d 0061 0fbe
00000170: 1866 643e 17e7 c0bd 7e7f 103e 27ef 363e
00000180: 8215 0abb c004 0d3e 6aa1 193e 85db b23d
00000190: cde9 c13d ac18 3f3e 28e6 903b 02dd 063e
000001a0: 91b6 b1bd 77e7 74bd 7925 6d3e f894 12bd
000001b0: 8422 793d 59d6 123e d010 30bd c8bb f0bc
000001c0: c806 f5bc d82c a03d 9061 d93d 6fe5 563d
000001d0: 5341 7a3e cb15 063e 3f82 0f3e 202c 413e
000001e0: 7802 3a3e e6f5 a43d 96d8 8fbd d3c7 293d
000001f0: c9f5 ee3d 4596 653e 11bc 613e 50e2 0e3e
00000200: 9ba4 cbbd a64e 3ebd f43b 1e3e c85a 45bd
00000210: a2e6 233e 1641 6b3d 2e09 083d 7baa bc3d
00000220: 15bc f4bc 48ce d93d bc72 ef3d c597 5e3d
00000230: 6c80 cebc a01a 913b 7634 ce3d 8aae 163e
00000240: f9c4 263d 2352 583d ae24 8e3d fb50 9ebd
00000250: 6cde aabd 55b6 cb3d 61cd e93c 7c1b 70bc
00000260: a12a a2bd 928d 803d c5cf 563d 9ba6 9ebd
00000270: 46b9 6b3e b6c9 e13d 11c4 643d 480c 8b3c

projector.6.bias f4 [4]
0.15140806 0.17568223 0.2842865 0.26913676
00000000: b70a 1b3e 0be6 333e 008e 913e 4bcc 893e
