models/squares/100/class_student_config.pt (torch, 46026 bytes, 6 tensors)

predictor.0.weight f4 [100, 2]
0.4102712 0.46449107 -0.10342786 -0.12756874 0.6808054 -0.42443043 0.17218657 0.26799408
-0.59451896 0.14944066 0.5453833 0.56044996 -0.39493427 0.21338083 -0.69495374 -0.6160225
-0.2194701 -0.37018377 -0.62186736 0.14748895 -0.41349125 -0.2919466 0.2490041 -0.4442842
-0.033791326 0.14937656 -0.2781289 -0.58758664 0.1720097 -0.23306848 0.2182925 -0.6298743
-0.5930091 -0.1455168 0.028804261 -0.19562526 -0.24094863 -0.58845174 -0.26195204 0.4048699
-0.37973765 0.39095795 -0.2554439 0.54349154 -0.26819068 -0.4464571 -0.61849594 0.31441438
0.5560844 0.56716406 -0.28314918 0.078740895 0.035688944 -0.11675209 -0.5215542 -0.061753985
-0.5992343 -0.34737137 -0.5393634 0.6458888 0.38525167 0.0597782 -0.5076331 -0.0038684062
-0.011813391 0.06136429 -0.2693391 0.5085017 0.46103796 -0.35391867 -0.06857848 -0.6391834
-0.08293317 0.14242439 -0.29290137 0.51196176 0.18442011 0.16055474 0.095168665 0.041909475
0.39734942 0.25827685 -0.6311283 0.15143429 -0.7213248 0.28486523 -0.0321887 0.23745316
0.60202736 0.3651346 0.27796468 -0.18565597 -0.010117435 -0.39923206 0.3265505 -0.19518319
-0.07339954 0.24228178 -0.40405735 -0.50424504 0.35015053 0.4343523 0.46236038 0.11984979
-0.48321408 0.122031316 -0.1259819 0.50406855 0.38161972 0.22204845 0.45914522 -0.35240585
0.19645777 0.42769814 -1.20979 0.0353074 -0.13325898 0.59391725 0.1241932 -0.011164076
-0.3523235 0.5000177 -0.07096033 0.5055857 0.65947145 -0.65004337 -0.17942707 0.366935
0.522567 0.3710329 -0.43613002 -0.2667791 -0.7717509 0.09300663 0.64741963 -0.47050685
0.50606334 0.2157045 0.30263695 -0.11521482 0.6072024 0.22683655 -0.61739373 0.1491075
-0.4800172 -0.22034448 -0.0063928524 0.1510219 -0.48875296 -0.6383929 -0.6387796 -0.5999178
0.3725319 0.09375227 0.021876331 0.021821953 -0.10882704 -0.25113696 -0.09648738 0.5376811
0.3568031 -0.6626012 0.33907378 -0.6225187 -0.19163713 0.12232416 0.45253354 -0.03661157
0.46664527 0.36722362 -0.12004848 0.20510902 -0.51296175 0.62703395 -0.52050215 0.64273536
0.015959915 -0.589073 -0.059644815 0.21029055 0.057305604 0.5492605 -0.37717533 0.008234736
0.29722315 -0.36753228 -0.5322929 0.5191189 -0.1855103 0.2138126 0.49024788 -0.022706479
0.16582929 -0.10233553 0.017229527 0.42336473 0.2744864 0.18085463 -0.51401156 0.19811659
00000000: 110f d23e c6d1 ed3e fcd1 d3bd 61a1 02be
00000010: 4349 2e3f f24e d9be ad51 303e 8536 893e
00000020: 6532 18bf f906 193e 3d9e 0b3f a679 0f3f
00000030: d334 cabe 8180 5a3e 7de8 31bf a7b3 1dbf
00000040: c5bc 60be ba88 bdbe b332 1fbf 5807 173e
00000050: 20b5 d3be 067a 95be eefa 7e3e 3879 e3be
00000060: c668 0abd 2bf6 183e e966 8ebe 146c 16bf
00000070: 5023 303e 81a9 6ebe 1288 5f3e 713f 21bf
00000080: 72cf 17bf 5b02 15be eaf6 eb3c fd51 48be
00000090: 3dbb 76be c6a4 16bf 941e 86be 1c4b cf3e
000000a0: f96c c2be a42b c83e 8bc9 82be 4322 0b3f
000000b0: 4a50 89be 0696 e4be c055 1ebf ecfa a03e
000000c0: 8c5b 0e3f aa31 113f eef8 90be e842 a13d
000000d0: 922e 123d b81b efbd 9384 05bf bff1 7cbd
000000e0: 6b67 19bf a9da b1be b813 0abf f858 253f
000000f0: b53f c53e fcd9 743d 3ef4 01bf 1685 7dbb
00000100: f48c 41bc 1f59 7b3d d1e6 89be 2b2d 023f
00000110: 2b0d ec3e d434 b5be e072 8cbd 86a1 23bf
00000120: ded8 a9bd b3d7 113e 2bf7 95be ed0f 033f
00000130: a0d8 3c3e 7668 243e cae7 c23d 45a9 2b3d
00000140: 6271 cb3e dd3c 843e a091 21bf 9711 1b3e
00000150: bea8 38bf dbd9 913e 4cd8 03bd ec26 733e
00000160: 771e 1a3f ecf2 ba3e 6351 8e3e 991c 3ebe
00000170: 99c3 25bc 2568 ccbe a131 a73e 1ade 47be
00000180: 7f52 96bd b718 783e 9be0 cebe 3416 01bf
00000190: ee46 b33e 6d63 de3e 80ba ec3e cf73 f53d
000001a0: d667 f7be 8eeb f93d 6601 01be a30a 013f
000001b0: a963 c33e ab60 633e 1515 eb3e 8a6e b4be
000001c0: 3a2c 493e 40fb da3e 66da 9abf 7e9e 103d
000001d0: 0b75 08be f60a 183f 0159 fe3d 87e9 36bc
000001e0: bf63 b4be 2901 003f a653 91bd 106e 013f
000001f0: 1fd3 283f 3e69 26bf bbbb 37be e8de bb3e
00000200: f3c6 053f 06f8 bd3e 6f4c dfbe 4597 88be
00000210: 7891 45bf 437a be3d 4bbd 253f 46e6 f0be
00000220: 5e8d 013f a4e1 5c3e 3bf3 9a3e bff5 ebbd
00000230: 9e71 1b3f d747 683e 840d 1ebf a3af 183e
00000240: d0c4 f5be fca1 61be 227b d1bb 7ca5 1a3e
00000250: d43d fabe b86d 23bf 0f87 23bf 3794 19bf
00000260: 80bc be3e 3101 c03d fe35 b33c f4c3 b23c
00000270: b6e0 debd 0695 80be 2d9b c5bd 78a5 093f
00000280: e5ae b63e 3ba0 29bf 149b ad3e 635d 1fbf
00000290: 863c 44be 1785 fa3d 7ab2 e73e 03f6 15bd
000002a0: 21ec ee3e bc04 bc3e fadb f5bd 1908 523e
000002b0: 7651 03bf 4c85 203f a13f 05bf 4e8a 243f
000002c0: 5ebe 823c 7dcd 16bf 1f4e 74bd 6856 573e
000002d0: 48b9 6a3d 569c 0c3f 201d c1be fcea 063c
000002e0: a22d 983e 312d bcbe 5944 08bf fae4 043f
000002f0: 69f6 3dbe b1f1 5a3e c501 fb3e f002 babc
00000300: 27cf 293e 4a95 d1bd f024 8d3c 43c3 d83e
00000310: 7b89 8c3e f531 393e 4396 03bf 13df 4a3e

predictor.0.bias f4 [100]
-2.5729785 0.16461648 -1.8976927 -2.7449713 0.944927 0.8257895 -1.8276597 -0.23231469
-0.59753346 1.8426424 0.18488313 1.6166915 2.210537 0.6273743 2.6850653 0.8065086
0.10990279 4.284062 0.6179211 2.3005478 2.6360486 -2.4158032 0.52661014 1.8536466
1.1298872 -2.7958503 -3.2603533 -0.3780901 -0.37844777 -1.6739703 -3.0910232 -0.11458185
2.7373042 -2.1743262 -1.9262131 0.6225427 2.030005 1.361458 -1.8075647 2.8726044
1.0507549 -2.2796097 -1.4737941 -1.6513563 -2.3139179 2.5623465 -0.7001249 -2.5815766
-2.2964416 -0.30084142 2.6393366 1.9028909 1.8074137 -2.6821902 1.0388033 -1.9019626
2.1126451 -0.34762335 2.4140472 0.990486 1.7215766 1.3642187 1.8150367 2.368265
1.9378884 0.5427938 -0.58273214 2.031484 -1.5652152 3.5147722 -2.0860329 1.2224298
-0.3870785 -1.6947715 -0.016584784 -0.5485743 -2.781804 -3.1670797 0.4212435 -2.1354287
-2.834802 1.9789672 1.7705073 1.497127 -2.145775 3.0453568 -1.8835589 -2.5671418
-0.49922925 2.8979948 -2.4733543 -0.18988942 -0.629017 -1.9714156 -2.7813516 0.83160317
2.391526 -2.0674803 -1.5899148 1.4140091
00000000: aeab 24c0 3991 283e 98e7 f2bf 9cad 2fc0
00000010: bce6 713f f166 533f c1f0 e9bf e7e3 6dbe
00000020: f4f7 18bf b5db eb3f 0152 3d3e bfef ce3f
00000030: 7079 0d40 9a9b 203f 1cd8 2b40 5977 4e3f
00000040: b714 e13d 0917 8940 1430 1e3f 2d3c 1340
00000050: 05b5 2840 859c 1ac0 eccf 063f 4b44 ed3f
00000060: 25a0 903f 36ef 32c0 a1a9 50c0 0795 c1be
00000070: e8c3 c1be a944 d6bf 53d3 45c0 e4a9 eabd
00000080: fe2f 2f40 2928 0bc0 278e f6bf f55e 1f3f
00000090: 9aeb 0140 4144 ae3f 485e e7bf c0d8 3740
000000a0: 237f 863f 20e5 11c0 49a5 bcbf a55f d3bf
000000b0: 3b17 14c0 7cfd 2340 633b 33bf 8d38 25c0
000000c0: e6f8 12c0 e307 9abe e4ea 2840 ee91 f33f
000000d0: 5559 e73f 01a9 2bc0 82f7 843f 8373 f3bf
000000e0: 9435 0740 b0fb b1be c07f 1a40 7e90 7d3f
000000f0: 9f5c dc3f b89e ae3f 1f53 e83f a791 1740
00000100: ba0c f83f 89f4 0a3f ef2d 15bf d503 0240
00000110: f958 c8bf 07f2 6040 9081 05c0 9478 9c3f
00000120: 272f c6be 46ee d8bf d0dc 87bc 5e6f 0cbf
00000130: 1409 32c0 6fb1 4ac0 3aad d73e ddaa 08c0
00000140: 656d 35c0 cc4e fd3f fc9f e23f dca1 bf3f
00000150: 6154 09c0 20e7 4240 7518 f1bf 0d4c 24c0
00000160: fa9a ffbe bf78 3940 704b 1ec0 5f72 42be
00000170: 4207 21bf 5957 fcbf aa01 32c0 f2e3 543f
00000180: c30e 1940 9951 04c0 5482 cbbf 40fe b43f

predictor.2.weight f4 [100, 100]
0.021880612 -0.040511847 -0.20844656 -0.050148174 -0.0077826497 0.069555685 -0.11377615 0.060417008
0.019122351 0.065238126 -0.038065385 -0.14221328 0.016264515 -0.0077598216 0.2147493 0.060268145
0.019872153 0.5504249 0.038636137 -0.048849974 0.023609605 0.030410828 0.031112898 -0.0024136608
-0.002525918 -0.6742283 -0.062828645 0.08013951 0.07171585 -0.020988109 -0.016962511 0.08298291
0.14028406 0.06846064 -0.6630422 0.062493324 0.11713172 0.0066384207 0.061668806 0.080793045
0.031204421 -0.23344734 0.028939983 -0.08876164 -0.030385654 0.033936948 0.09391538 -0.2912535
-0.14046049 0.08654491 0.06195809 -0.06734348 0.07621275 -0.10246804 0.062158335 -0.8010194
-0.07703479 -0.15292224 0.07858652 0.09595287 -0.018176863 0.06685919 0.0181919 0.11291107
0.06357043 0.019597579 -0.6584641 0.0897984 -0.02097917 0.11851724 -0.071988165 0.09747657
0.010603035 -0.07034755 -0.094740845 0.043228175 -0.029893856 -1.0174029 -0.09038824 -0.08431518
-0.07797777 -0.008056684 0.018395536 0.08068948 -0.07981659 0.00011571622 0.07097672 -0.022983423
0.09342233 0.08988203 0.00032147704 -0.030107558 0.1172225 -0.03729427 -0.029604983 0.0460832
-0.1499585 0.04829365 -0.06381468 0.09613904 -0.012297439 -0.096446805 -0.108414985 -0.016470723
0.07398715 0.038996138 -0.090938464 0.00046104193 0.08019972 0.117762476 -0.078184836 0.20514801
0.10546135 -0.008432984 0.20895816 -1.7220385 -0.06858035 -1.0904896 -0.092219725 0.14909261
0.10113731 0.012799389 -0.089139104 0.012489524 0.085133195 -0.71344805 -0.30696204 0.029547645
-0.034989487 0.006924746 -0.115225695 0.00014903546 0.24398653 -0.018231021 -0.120693274 -0.09931356
0.1399715 -0.07226098 -0.021967223 0.09543498 0.08557864 -0.23670952 -0.09129346 0.034478217
-0.099791355 0.078283414 0.014515293 -0.112 -0.010006318 0.09219282 -0.05377437 0.0032342013
0.12404465 -0.084640175 0.030737078 -0.024558332 0.08704783 -6.5505557 -0.0031942334 0.044844266
-0.020305876 0.07779999 0.062301725 0.11302542 0.0831009 -0.020297015 -0.0874908 0.02338964
-0.017491529 0.20935053 0.033894602 0.095725454 -0.09344925 0.047675278 -0.004662752 -0.026925778
-0.118578754 -1.0514164 0.0110295415 -0.07185026 0.0060606105 0.024309805 0.09686047 -0.03462073
-0.098178536 0.20745032 -0.010530826 -0.12704632 0.0717173 0.14193805 -0.033343125 -0.036136318
-0.098888084 -0.105983965 -0.10844077 0.015439531 0.11884899 -0.027272578 0.014621562 0.03508254
-0.03482679 -0.082704246 -0.2391477 0.02434378 0.042017397 -0.06332817 -0.042919155 -0.07398331
-0.00083560945 0.14457299 0.030251468 0.029023765 0.050812993 0.02663194 0.03961961 -0.06824024
-0.052200127 0.4323195 -0.04796803 0.033362813 0.04766255 0.039801817 0.0068704966 0.0006987176
0.10071766 -0.5517381 -1.2612273 0.012813473 0.00081192254 0.013794538 -0.055382613 -0.048989784
0.22067212 -0.0058524264 -0.07428674 -0.082361855 0.1181965 0.106272176 0.054824166 0.20919378
-0.02572098 -0.23177734 -0.041762177 -0.09444838 -0.019901168 0.2730935 -0.021676708 -0.3600836
-0.11078441 -0.07948414 -0.04324523 -0.04631664 0.12027714 -0.050245676 -0.082876444 0.051222164
00000000: f83e b33c c0ef 25bd 0473 55be 2c68 4dbd
00000010: 9905 ffbb 3673 8e3d 7803 e9bd d377 773d
00000020: 7aa6 9c3c 919b 853d 73ea 1bbd 5ca0 11be
00000030: 293d 853c 1a46 febb 3ee7 5b3e bbdb 763d
00000040: edca a23c a5e8 0c3f ed40 1e3d e916 48bd
00000050: ee68 c13c 2120 f93c 7ae0 fe3c 822e 1ebb
00000060: df89 25bb 3a9a 2cbf 4eac 80bd 2f20 a43d
00000070: c2df 923d 41ef abbc f7f4 8abc f2f2 a93d
00000080: a0a6 0f3e 1835 8c3d 22bd 29bf 00f9 7f3d
00000090: c1e2 ef3d 1c87 d93b 6e98 7c3d d376 a53d
000000a0: 6aa0 ff3c d20c 6fbe 8b13 ed3c aac8 b5bd
000000b0: 56eb f8bc 7801 0b3d b556 c03d 2e1f 95be
000000c0: e0d4 0fbe 753e b13d c4c7 7d3d 61eb 89bd
000000d0: 6e15 9c3d c4da d1bd bd99 7e3d 9b0f 4dbf
000000e0: 6ac4 9dbd a697 1cbe f8f1 a03d f082 c43d
000000f0: a5e7 94bc 79ed 883d 2e07 953c eb3d e73d
00000100: 3731 823d 1a8b a03c 1a91 28bf 39e8 b73d
00000110: 82dc abbc 2bb9 f23d 886e 93bd cca1 c73d
00000120: 5ab8 2d3c 6012 90bd 7d07 c2bd 0710 313d
00000130: f6e3 f4bc 423a 82bf 781d b9bd 70ad acbd
00000140: cfb2 9fbd 2f00 04bc 3cb2 963c 8740 a53d
00000150: e176 a3bd acac f238 3e5c 913d bb47 bcbc
00000160: 3554 bf3d 1214 b83d eb8b a839 20a4 f6bc
00000170: 5a12 f03d e0c1 18bd 2686 f2bc bdc1 3c3d
00000180: b98e 19be 90cf 453d 45b1 82bd 8ce4 c43d
00000190: 337b 49bc e785 c5bd ad08 debd 9ced 86bc
000001a0: 9386 973d 6aba 1f3d f23d babd 00b8 f139
000001b0: c03f a43d 742d f13d 5f1f a0bd 5212 523e
000001c0: 1ffc d73d 802a 0abc 21f9 553e c26b dcbf
000001d0: db73 8cbd 2a95 8bbf b2dd bcbd bcab 183e
000001e0: 1421 cf3d 87b4 513c 908e b6bd dca0 4c3c
000001f0: 505a ae3d 88a4 36bf 212a 9dbe e70d f23c
00000200: 2351 0fbd fbe8 e23b 73fb ebbd 6746 1c39
00000210: 9bd7 793e 3959 95bc 092e f7bd e864 cbbd
00000220: b054 0f3e 91fd 93bd 9bf4 b3bc 6a73 c33d
00000230: db43 af3d fb63 72be 11f8 babd 0839 0d3d
00000240: 695f ccbd 0e53 a03d 8dd1 6d3c 4260 e5bd
00000250: 8af1 23bc 97cf bc3d 8442 5cbd e5f4 533b
00000260: 1f0b fe3d d457 adbd 53cc fb3c 8e2e c9bc
00000270: 2246 b23d 279e d1c0 5856 51bb 9fae 373d
00000280: 8258 a6bc 9a55 9f3d 1830 7f3d df79 e73d
00000290: ce30 aa3d ed45 a6bc 602e b3bd a19b bf3c
000002a0: 654a 8fbc fc5f 563e 11d5 0a3d b50b c43d
000002b0: 5262 bfbd 2747 433d 00ca 98bb 7393 dcbc
000002c0: 6bd9 f2bd d094 86bf 40b5 343c 3b26 93bd
000002d0: 1698 c63b 5b25 c73c c85e c63d 77ce 0dbd
000002e0: d411 c9bd db6d 543e 7c89 2cbc 6e18 02be
000002f0: 85e0 923d 3558 113e cd92 08bd ad03 14bd
00000300: d685 cabd 1f0e d9bd 3216 debd 16f6 7c3c
00000310: 1967 f33d be6a dfbc 478f 6f3c b6b2 0f3d
00000320: 89a6 0ebd d860 a9bd 22e3 74be 9b6c c73c
00000330: 6f1a 2c3d 33b2 81bd ffcb 2fbd 9084 97bd
00000340: cd0c 5bba f10a 143e edd1 f73c 3fc3 ed3c
00000350: 4921 503d 3a2b da3c 2c48 223d 8ac1 8bbd
00000360: cdcf 55bd fb58 dd3e 207a 44bd 72a7 083d
00000370: ce39 433d 3b07 233d e721 e13b 252a 373a
00000380: 0f45 ce3d b53e 0dbf e56f a1bf 9aef 513c
00000390: 33d7 543a 7c02 623c e1d8 62bd 83a9 48bd
000003a0: dff7 613e b6c5 bfbb a523 98bd 55ad a8bd
000003b0: 0211 f23d 3aa5 d93d 4e8f 603d e536 563e
000003c0: ceb4 d2bc 0a57 6dbe d10e 2bbd 276e c1bd
000003d0: c607 a3bc e9d2 8b3e 5a93 b1bc e15c b8be
000003e0: f0e2 e2bd 95c8 a2bd e921 31bd 84b6 3dbd
000003f0: dc53 f63d 69ce 4dbd 20bb a9bd 55ce 513d

predictor.2.bias f4 [100]
1.3491946 2.3095086 1.6075857 -0.026024474 0.032578137 1.9021302 -1.6085463 -0.1606706
1.3221887 0.06620116 -0.07322507 0.042770542 0.085865855 -0.06632397 0.008943817 -1.0627615
0.012982442 -1.0963342 0.03758359 -0.00564394 0.080289975 0.037793826 -0.06358146 1.8088117
1.176732 -0.027392197 -0.042479303 -1.1951772 -0.09318775 1.7864089 1.7866642 -1.8200191
1.5829802 2.3596852 0.009662017 0.01028564 0.060450245 0.07235598 0.0741544 1.861537
-0.013894713 1.3645443 0.05313803 0.008281708 -0.45531452 -0.029776521 0.090750985 -0.07962938
-0.84798807 0.8718361 -1.4229985 -0.0012613892 -2.1132374 1.8788855 -1.780838 -1.4178276
0.09714419 -0.09976945 2.0832348 -1.9712826 2.3577404 -1.7257622 -1.596053 -1.1009096
-2.0646825 1.9846218 -1.7489716 -1.8752481 0.05700418 -0.7972928 1.7882618 1.8392464
-0.018567977 -1.511735 0.03197454 -0.0897307 -1.9251754 -1.9525613 -0.083283685 0.04837693
0.0054170373 -1.643318 -0.02372396 1.820191 0.6816362 -1.0595723 0.0036244392 -0.07988682
-0.9257459 -0.07677444 0.059229385 0.8458421 0.049190965 2.206084 -0.70404404 0.027927864
0.37292007 -0.0805404 -0.013860357 2.1311753
00000000: 69b2 ac3f fdce 1340 5ec5 cd3f 4731 d5bc
00000010: a770 053d 0179 f33f d8e4 cdbf d586 24be
00000020: 7b3d a93f 7994 873d 07f7 95bd 2a30 2f3d
00000030: 70da af3d ddd4 87bd 1689 123c 9208 88bf
00000040: 4fb4 543c ae54 8cbf 40f1 193d cdf0 b8bb
00000050: 126f a43d b3cd 1a3d ff36 82bd 2487 e73f
00000060: 279f 963f 9a65 e0bc c7fe 2dbd 91fb 98bf
00000070: 38d9 bebd 0ca9 e43f 6ab1 e43f 63f6 e8bf
00000080: 189f ca3f 1505 1740 704d 1e3c 1a85 283c
00000090: ad9a 773d 5f2f 943d 43de 973d d846 ee3f
000000a0: a6a6 63bc 63a9 ae3f 43a7 593d 00b0 073c
000000b0: fc1e e9be e4ed f3bc a7db b93d ba14 a3bd
000000c0: bf15 59bf a730 5f3f d124 b6bf 3355 a5ba
000000d0: 483f 07c0 527f f03f 80f2 e3bf 607b b5bf
000000e0: 88f3 c63d ed53 ccbd b853 0540 fd52 fcbf
000000f0: 38e5 1640 c7e5 dcbf 774b ccbf 9bea 8cbf
00000100: c223 04c0 1608 fe3f 4dde dfbf 2108 f0bf
00000110: 377d 693d 621b 4cbf c3e5 e43f 6d6c eb3f
00000120: df1b 98bc 8880 c1bf bcf7 023d bbc4 b7bd
00000130: 266c f6bf 87ed f9bf a390 aabd e326 463d
00000140: 6781 b13b 3f58 d2bf c058 c2bc 05fc e83f
00000150: b67f 2e3f 11a0 87bf 0088 6d3b b39b a3bd
00000160: affd 6cbf eb3b 9dbd 839a 723d 1c89 583f
00000170: 777c 493d 7b30 0d40 3b3c 34bf fac8 e43c
00000180: 61ef be3e 5ef2 a4bd 8d16 63bc 2d65 0840

predictor.4.weight f4 [4, 100]
0.38436246 0.7403097 -6.086896 0.0024609566 -0.044799335 0.0064163143 -0.080628455 0.08091301
-0.83130723 -0.10404495 -0.05926726 -0.081800304 0.028954245 -0.038155854 -0.09053621 -0.08168758
-0.061567497 0.044374533 -0.06140138 0.01502744 -0.07948125 0.06301973 0.09481128 0.16025284
-0.17446902 -0.020157922 -0.034629524 -0.058729667 -0.02307104 0.002289568 0.024145052 0.1416825
-0.2734072 3.4059212 0.02418463 0.06352432 0.05233842 0.005556691 -0.06371222 0.009568305
0.07278825 -0.24050315 -0.09499111 -0.03169663 -0.75897264 -0.08540221 0.057581484 0.017965758
-0.06222559 -4.267372 0.34790277 0.07558322 -0.097447105 0.16759872 -0.015243246 -0.09475423
0.06707217 -0.039648544 0.16033232 0.0029454965 0.24158897 0.030284906 0.023885569 -0.12804125
-0.09788847 0.030909296 -0.063629635 0.057998534 0.079088606 0.015207549 0.1883449 -0.053059492
-0.022267777 0.45872167 -0.023579227 -0.008300629 -0.14750683 -0.07358002 0.099725686 0.06871968
-0.08113934 -0.0804259 -0.09112964 1.0566852 -0.013419477 0.077680826 -0.09000989 -0.043945607
0.015109491 0.07483621 -0.028050208 -0.09760023 -0.0441777 0.6312909 0.070519194 0.08776237
0.009770537 -0.012381066 -0.014885092 0.50867695 -0.105870895 0.09645724 0.014199534 -0.015676392
-0.045201447 -0.02467943 0.058003653 0.19275863 -0.032579187 0.013943269 -0.057476323 -0.018301424
0.05072816 0.005969596 0.010707642 -0.055166326 -0.057721082 0.098024994 0.067707375 -0.011235321
-0.0034422535 0.079064965 0.06406583 0.09131229 -6.40677 -0.051935505 0.052215423 0.04288963
-0.030126704 0.015206829 -0.041923873 0.04173588 -0.06322439 0.060679894 0.082054466 0.0449525
0.049786486 0.001692009 0.021853156 -0.006871985 0.061773725 0.042790182 0.06373034 0.088194154
0.16981585 0.0698115 -0.026560878 0.04767811 0.09733242 -0.02251176 0.07325419 -0.044786002
-0.011903307 0.14475536 -0.13240331 -0.7607383 0.07008059 0.0877435 0.039600145 -0.045689635
-0.03388247 -0.07679582 -0.115361884 -0.042517237 -0.05803669 0.05753825 0.0785342 0.065010265
-0.003065026 0.11870341 -0.002641725 0.09229531 -0.038801923 -0.98822594 0.05383144 0.07185775
-0.035692275 -0.080394365 0.0741966 -0.076136485 0.09095924 0.085311726 -0.03683431 -1.5886002
0.08175093 0.22667092 0.005906153 -0.0853756 0.027375372 0.027037024 -0.07542814 -0.024339477
0.07586789 0.061814345 0.21560448 -0.06957149 -0.18212086 0.06365502 0.06689602 0.26511598
-0.072475836 -0.3660424 -0.2750281 -0.010178435 -0.028594924 -0.38554472 0.093493804 -0.027601788
-0.102435514 0.04563273 -0.115867704 0.0542264 0.071012706 0.07882651 0.06440997 0.07221654
-0.07146167 -0.0028731502 0.024077808 0.006943655 0.07330244 0.082525864 0.06939546 -0.24845867
-3.9377768 -0.0084527135 -0.043119777 -0.03748855 -0.042704403 -0.10482613 -0.14990129 0.20768932
-0.07238875 -0.1367578 0.09094589 0.014116645 -0.03212036 0.014710987 -0.08294469 -0.13275981
0.09441851 0.0034011572 -0.07356977 -0.07783749 0.033799578 0.077186696 -0.082231976 -0.07258688
0.011683307 0.018906962 0.07367941 0.0736686 0.3017065 -0.16401656 0.4015245 0.10287771
00000000: 28cb c43e f084 3d3f dac7 c2c0 0048 213b
00000010: 827f 37bd f23f d23b 8820 a5bd b8b5 a53d
00000020: 8dd0 54bf 8515 d5bd 3ac2 72bd eb86 a7bd
00000030: 7431 ed3c 5049 1cbd 0c6b b9bd d14b a7bd
00000040: 332e 7cbd 12c2 353d 0380 7bbd a735 763c
00000050: 11c7 a2bd 7d10 813d 6b2c c23d 5219 243e
00000060: 02a8 32be 3a22 a5bc b0d7 0dbd 858e 70bd
00000070: 7aff bcbc 940c 163b d8cb c53c 3815 113e
00000080: 07fc 8bbe 9dfa 5940 d81e c63c 0a19 823d
00000090: d060 563d e714 b63b 8d7b 82bd 61c4 1c3c
000000a0: 0212 953d 7546 76be b38a c2bd 53d4 01bd
000000b0: 084c 42bf 5be7 aebd 90da 6b3d ed2c 933c
000000c0: 43e0 7ebd 508e 88c0 5020 b23e 60cb 9a3d
000000d0: 5992 c7bd 009f 2b3e cfbe 79bc 810e c2bd
000000e0: 225d 893d 8366 22bd 282e 243e 3b09 413b
000000f0: 1963 773e 0d18 f83c abab c33c 3f1d 03be
00000100: c079 c8bd 7e35 fd3c 4150 82bd df8f 6d3d
00000110: 35f9 a13d 1529 793c 7cdd 403e e954 59bd
00000120: ea6a b6bc 91dd ea3e 3929 c1bc 5dff 07bc
00000130: 080c 17be 1fb1 96bd fb3c cc3d e7bc 8c3d
00000140: 622c a6bd 56b6 a4bd 2da2 babd 7641 873f
00000150: 5edd 5bbc 2017 9f3d 1b57 b8bd 4f00 34bd
00000160: cc8d 773c ba43 993d 8dc9 e5bc a1e2 c7bd
00000170: adf3 34bd 489c 213f 5e6c 903d c2bc b33d
00000180: 9a14 203c f4d9 4abc 9ae0 73bc a738 023f
00000190: d7d2 d8bd 608b c53d 2aa5 683c c76b 80bc
000001a0: 2725 39bd 842c cabc 3d95 6d3d 8562 453e
000001b0: c171 05bd 4f72 643c 4b6c 6bbd deec 95bc
000001c0: 55c8 4f3d 9a9c c33b 1b6f 2f3c 16f6 61bd
000001d0: f16c 6cbd 54c1 c83d 2aaa 8a3d 5a14 38bc
000001e0: 6e97 61bb d0ec a13d f234 833d f001 bb3d
000001f0: 4304 cdc0 53ba 54bd d7df 553d 09ad 2f3d
00000200: 47cc f6bc 1026 793c 5eb8 2bbd 3ef3 2a3d
00000210: ca7b 81bd 7b8b 783d 2c0c a83d 1d20 383d
00000220: eaec 4b3d 67c6 dd3a 6405 b33c 632e e1bb
00000230: 7206 7d3d c244 2f3d 0d85 823d 239f b43d
00000240: 35e4 2d3e 55f9 8e3d 3396 d9bc 1f4a 433d
00000250: 3856 c73d 956a b8bc 4b06 963d 8771 37bd
00000260: 1706 43bc c03a 143e bc94 07be bfbf 42bf
00000270: 6a86 8f3d ddb2 b33d c333 223d 0e25 3bbd
00000280: 58c8 0abd 2047 9dbd da42 ecbd 8e26 2ebd
00000290: e1b7 6dbd 3aad 6b3d 8ad6 a03d 1a24 853d
000002a0: 9ade 48bb c61a f33d ca20 2dbb 5305 bd3d
000002b0: c4ee 1ebd 60fc 7cbf 5b7e 5c3d 282a 933d
000002c0: 1032 12bd cda5 a4bd 63f4 973d 72ed 9bbd
000002d0: d748 ba3d eab7 ae3d 93df 16bd 4057 cbbf
000002e0: 086d a73d 6c1c 683e 6788 c13b 67d9 aebd
000002f0: 5142 e03c c07c dd3c 127a 9abd 9563 c7bc
00000300: a060 9b3d 0a31 7d3d 6cc7 5c3e 7f7b 8ebd
00000310: e47d 3abe 905d 823d c800 893d 48bd 873e
00000320: 366e 94bd e969 bbbe 7cd0 8cbe 73c3 26bc
00000330: e73f eabc 1e66 c5be ae79 bf3d 251d e2bc
00000340: b6c9 d1bd 63e9 3a3d 0c4c edbd 801c 5e3d
00000350: 1c6f 913d cb6f a13d 60e9 833d 44e6 933d
00000360: 7f5a 92bd 764b 3cbb d33e c53c 9a87 e33b
00000370: 971f 963d 5203 a93d 351f 8e3d f36b 7ebe
00000380: 8904 7cc0 407d 0abc 5d9e 30bd 988d 19bd
00000390: d0ea 2ebd 15af d6bd b97f 19be 82ac 543e
000003a0: 8e40 94bd 3d0a 0cbe d741 ba3d 8049 673c
000003b0: a390 03bd 5a06 713c e8de a9bd 30f2 07be
000003c0: 7e5e c13d f3e5 5e3b bfab 96bd 4369 9fbd
000003d0: 6d71 0a3d 0f14 9e3d 3d69 a8bd 6ea8 94bd
000003e0: 576b 3f3c c6e2 9a3c 3be5 963d 90df 963d
000003f0: 4679 9a3e f5f3 27be 9f94 cd3e 8cb1 d23d

predictor.4.bias f4 [4]
0.67692417 0.3930874 -1.8534379 1.5505495
00000000: e74a 2d3f c042 c93e 743d edbf 6878 c63f
