models/squares/100/class0_teacher_config.pt (torch, 144367 bytes, 9 tensors)

decoder.0.weight f4 [2, 400]
-0.031517178 -0.009508944 0.11075461 0.14671719 0.114168465 0.124106646 0.051040497 -0.020281726
0.13935149 0.1261177 0.09930079 0.15148394 0.09324949 0.13080654 -0.013245378 0.16700624
-0.014659706 0.035076194 -0.01364968 -0.020822058 0.10779132 0.02425155 0.13200271 0.09150066
0.09906388 0.009740266 -0.037474964 -0.01955675 0.12678917 0.00851378 0.016591294 -0.0026341223
-0.004958267 0.08882765 0.16849811 0.11534566 -0.03298259 0.0053945594 0.14116997 -0.023278853
0.09222812 0.14803731 0.12203477 0.14554733 0.04529537 0.021387966 -0.011433832 -0.021247143
0.100178435 0.07595917 0.041986365 -0.007648278 -0.032367848 -0.0118845925 0.074789636 -0.04626788
0.111538775 0.095376834 0.16318674 -0.00086697144 0.11459908 0.12318471 0.1132729 0.085352056
0.034764737 -0.027101777 0.13610975 0.15082172 0.12887868 -0.0019101382 0.13222603 0.11228644
0.12975763 0.10000262 0.15904467 -0.006554015 0.16497926 0.13541768 -0.03127642 0.025803471
0.058099195 0.13852128 0.08696912 0.12597804 0.02222311 0.04986118 0.012479435 0.04955307
0.12525178 -0.036341894 0.015045011 0.1370453 -0.027351836 0.13529229 -0.0483887 0.1336941
0.12977527 0.16525893 0.15258873 0.11122459 0.17141654 0.038069203 0.11889729 0.17341761
0.10056792 0.16904633 0.12295994 0.01660176 0.14697027 0.17272009 0.15753277 0.022127504
-0.0008092058 0.13621931 0.15931085 -0.03778444 0.007433961 -0.025918813 0.020264134 -0.031158075
0.11956148 0.037755907 0.03762895 -0.0145106455 0.122838914 0.15410487 -0.017088115 0.03606861
-0.03305726 -0.041739654 0.16721754 0.11204717 -0.016284462 -0.033018366 0.000774689 -0.024562666
0.03123506 0.13005134 0.083639815 0.09297538 0.16440435 -0.03227859 0.16822566 0.0210581
-0.0006245817 0.16012974 0.014400858 -0.0038298632 0.14973503 0.038284626 0.097720236 0.03255195
-0.009781418 0.13851026 -0.029630428 0.11713289 0.0072233803 0.15190718 0.1501634 0.121445835
0.11592671 0.10513839 0.036680046 0.14303204 0.039408606 -0.023305684 0.13816348 0.14399058
0.0012270423 0.03276565 0.020133255 -0.014391928 -0.030502021 0.015816007 0.12239537 0.019985316
0.0144467 0.11333527 0.15774758 0.049268004 0.11026839 0.0373929 0.17367099 -0.03919084
0.14017183 0.040465344 -0.009221778 0.1266179 0.033400174 -0.010297116 -0.047040846 -0.0382207
0.016191943 -0.03418873 0.00319196 0.006846012 0.10860506 0.018966442 0.02741439 0.13931054
0.12212807 -0.024222163 -0.022595376 0.089533694 -0.012297783 0.00711636 0.1552487 0.03781455
-0.042029794 0.07926329 -0.014209232 0.15162016 0.048781443 0.1161651 0.16923548 0.008735917
0.0005088268 0.07536229 0.09942973 -0.043470938 0.106486276 0.03843369 -0.019223282 -0.014947363
-0.009557861 -0.022224635 0.17950518 0.026603201 0.15376715 0.09123369 0.0021587247 0.05151781
0.13215612 0.0013329117 0.12599063 0.0994376 0.14647958 0.112729475 0.10403928 0.005867585
0.092595704 0.08553784 0.09439375 0.01654492 0.117664546 0.013680108 0.09406758 0.049960848
0.0061873193 0.0027066404 0.03991126 -0.02149253 0.039187755 0.17097308 -0.041476574 0.15003076
00000000: 2818 01bd 67cb 1bbc 50d3 e23d 083d 163e
00000010: 28d1 e93d a02b fe3d d70f 513d dd25 a6bc
00000020: 28b2 0e3e 0025 013e 365e cb3d 9b1e 1b3e
00000030: 97f9 be3d 26f2 053e 2403 59bc af03 2b3e
00000040: 432f 70bc 0eac 0f3d e8a2 5fbc 0593 aabc
00000050: b2c1 dc3d 30ab c63c b82b 073e b364 bb3d
00000060: 01e2 ca3d a395 1f3c 597f 19bd 7a35 a0bc
00000070: 05d5 013e 627d 0b3c 77ea 873c 3da1 2cbb
00000080: f578 a2bb 45eb b53d c58a 2c3e 583a ec3d
00000090: c118 07bd d8c4 b03b dc8e 103e 4bb3 bebc
000000a0: 19e2 bc3d 1897 173e 5eed f93d 5c0a 153e
000000b0: a387 393d d135 af3c f854 3bbc 7d0e aebc
000000c0: 5a2a cd3d 7b90 9b3d e5f9 2b3d 689e fabb
000000d0: 2694 04bd 98b7 42bc 4f2b 993d 6383 3dbd
000000e0: 716e e43d ee54 c33d 6d1a 273e 7845 63ba
000000f0: ecb2 ea3d 4448 fc3d 9ffb e73d 0fcd ae3d
00000100: 7865 0e3d 8c04 debc 5b60 0b3e 0271 1a3e
00000110: c6f8 033e 9a5d faba 4366 073e 6ff6 e53d
00000120: 2fdf 043e 2cce cc3d 9bdc 223e 10c3 d6bb
00000130: 53f0 283e efaa 0a3e b41b 00bd cd61 d33c
00000140: 6cf9 6d3d 86d8 0d3e de1c b23d 6300 013e
00000150: 3d0d b63c 3d3b 4c3d 8b76 4c3c 29f8 4a3d
00000160: 0142 003e 3ddb 14bd 5a7f 763c 9a55 0c3e
00000170: f510 e0bc 108a 0a3e 3b33 46bd 1be7 083e
00000180: cfe3 043e a339 293e 3840 1c3e b8c9 e33d
00000190: d187 2f3e 74ee 1b3d 6c80 f33d 6394 313e
000001a0: 8ef6 cd3d 7b1a 2d3e 6cd2 fb3d 6a00 883c
000001b0: 607f 163e 89dd 303e 4550 213e bd44 b53c
000001c0: e220 54ba 137d 0b3e 6222 233e dbc3 1abd
000001d0: 9698 f33b b153 d4bc f800 a63c 383f ffbc
000001e0: a6dc f43d f0a5 1a3d d020 1a3d 0fbe 6dbc
000001f0: f892 fb3d abcd 1d3e 60fc 8bbc aebc 133d
00000200: 0d67 07bd 33f7 2abd 133b 2b3e fd78 e53d
00000210: fe66 85bc 443e 07bd 8014 4b3a a537 c9bc
00000220: abe0 ff3c 2e2c 053e 5a4b ab3d e069 be3d
00000230: 9d59 283e 8e36 04bd 5943 2c3e 0982 ac3c
00000240: f8ba 23ba 0df9 233e 94f1 6b3c 71fe 7abb
00000250: 2454 193e 57d0 1c3d 8c21 c83d 3255 053d
00000260: 3e42 20bc a2d5 0d3e 83bb f2bc 5ee3 ef3d
00000270: 1bb2 ec3b 8e8d 1b3e 6fc4 193e 98b8 f83d
00000280: fc6a ed3d cc52 d73d d13d 163d fe76 123e
00000290: eb6a 213d 90eb bebc ba7a 0d3e 4472 133e
000002a0: b5d4 a03a 4635 063d 7fee a43c 1fcc 6bbc
000002b0: 60df f9bc 9290 813c 6caa fa3d 3fb8 a33c
000002c0: dab1 6c3c 521c e83d 9588 213e 3fcd 493d
000002d0: 65d4 e13d 4c29 193d cfd6 313e 9386 20bd
000002e0: 3489 0f3e fdbe 253d f116 17bc 1fa8 013e
000002f0: 9fce 083d 3cb5 28bc e7ad 40bd 4f8d 1cbd
00000300: f7a4 843c 7b09 0cbd 3430 513b 8354 e03b
00000310: 546c de3d 835f 9b3c 2594 e03c 6ca7 0e3e
00000320: 481e fa3d 8f6d c6bc f019 b9bc 715d b73d
00000330: a47c 49bc 5b30 e93b 84f9 1e3e 6ee3 1a3d
00000340: 6f27 2cbd cb54 a23d d7cd 68bc 5142 1b3e
00000350: 0dcf 473d f8e7 ed3d 114c 2d3e 1721 0f3c
00000360: ca62 053a 8b57 9a3d d0a1 cb3d 950e 32bd
00000370: 7a15 da3d a56c 1d3d 257a 9dbc c9e5 74bc
00000380: 9398 1cbc 7010 b6bc 35d0 373e f5ee d93c
00000390: 2375 1d3e bbd8 ba3d 6479 0d3b 5704 533d
000003a0: ef53 073e 18b5 ae3a b003 013e f1a5 cb3d
000003b0: befe 153e b6de e63d 8c12 d53d df44 c03b
000003c0: d1a2 bd3d 772e af3d 8351 c13d 3689 873c
000003d0: 1cfa f03d 8822 603c 81a6 c03d bfa3 4c3d
000003e0: ffbe ca3b e461 313b fd79 233d 1a11 b0bc
000003f0: 5783 203d 9113 2f3e 57e3 29bd aaa1 193e

projector.0.weight f4 [40, 4]
-0.22264327 -0.16522805 -0.48650786 0.11101716 -0.29851717 -0.10357536 -0.21708776 -0.46606258
-0.36156416 -0.10232951 0.38363025 0.5511118 0.07645708 0.3188866 -0.2373392 -0.48194683
-0.009162666 0.08775 0.13162725 0.23996876 -0.4206153 -0.57514244 0.4879579 0.4088412
-0.17464244 -0.13328889 0.013406148 -0.27588522 0.32962638 -0.040994097 -0.14741176 0.0014276522
0.14151463 -0.10513981 0.15237209 0.42810374 -0.3359752 0.27865008 0.11170506 -0.025268575
-0.18196006 -0.42789963 -0.0002491325 -0.5701575 -0.023367861 -0.54969496 -0.1318871 0.28242922
-0.2052415 -0.43820396 -0.08929926 -0.4018986 0.21274997 -0.09441769 -0.17674737 0.17129342
-0.37490717 0.20911863 -0.06867195 -0.37282097 -0.39682037 -0.33831534 0.2633277 -0.08486897
0.28638157 -0.24522257 -0.34738535 -0.4851611 0.10330436 -0.43275586 -0.33636555 0.042747762
-0.31334534 0.2234907 -0.011977637 -0.21429405 -0.124129295 0.32454905 0.02984735 -0.3442836
-0.021741258 -0.17638175 -0.25214672 0.31575245 -0.1693669 0.4040932 -0.4934181 -0.020742511
0.22915566 -0.22625881 0.25386766 -0.2889083 0.19125654 -0.5171275 -0.15852526 -0.28049663
0.16576678 0.21782486 -0.22818594 -0.47966143 -0.23358081 0.4175887 -0.46373641 0.22119407
0.30002606 -0.028869174 -0.2009899 0.27382088 -0.5139233 -0.35479215 -0.517172 -0.071578175
0.3108735 0.16767958 0.2566072 -0.24480598 0.18476178 -0.3592822 -0.4791695 0.18028767
0.12711324 -0.4745476 0.23231626 -0.5506059 -0.31367192 -0.3232205 -0.18727535 -0.3814167
-0.45216987 0.18600895 -0.3085195 0.12824284 0.33798152 -0.09839317 -0.20581947 -0.26738796
-0.22104774 0.4161855 -0.1432799 0.06359406 -0.33202118 0.23434912 -0.37967247 0.4084712
0.37214878 -0.41624248 0.3048853 0.060679354 -0.33445063 -0.4784226 -0.062358193 0.39721507
-0.35041657 0.2908381 0.4201473 0.10521913 0.46855953 0.073940605 0.4002047 0.011784661
00000000: 99fc 63be 8b31 29be 8f17 f9be f75c e33d
00000010: 3ed7 98be 511f d4bd 414c 5ebe c19f eebe
00000020: f01e b9be 2292 d1bd 2f6b c43e aa15 0d3f
00000030: 8895 9c3d 1b45 a33e 0c09 73be bcc1 f6be
00000040: 021f 16bc 46b6 b33d 4bc9 063e 5fba 753e
00000050: e35a d7be 893c 13bf 9ed5 f93e a253 d13e
00000060: 78d5 32be e27c 08be 76a5 5b3c d440 8dbe
00000070: cac4 a83e 6de9 27bd 1cf3 16be 0f20 bb3a
00000080: 36e9 103e 8a53 d7bd 6e07 1c3e 6a30 db3e
00000090: f104 acbe 39ab 8e3e 9fc5 e43d 0b00 cfbc
000000a0: bd53 3abe a915 dbbe 009e 82b9 d8f5 11bf
000000b0: f56d bfbc cfb8 0cbf 690d 07be 909a 903e
000000c0: d42a 52be 455c e0be 88e2 b6bd a7c5 cdbe
000000d0: 21db 593e 105e c1bd 43fd 34be 8b67 2f3e
000000e0: d5f3 bfbe 3223 563e e1a3 8cbd 64e2 bebe
000000f0: 0a2c cbbe ab37 adbe e3d2 863e c8cf adbd
00000100: 9ba0 923e a01b 7bbe 7edc b1be 0967 f8be
00000110: 3c91 d33d 2d92 ddbe 1b38 acbe 4718 2f3d
00000120: cd6e a0be bfda 643e da3d 44bc e66f 5bbe
00000130: 8037 febd 4b2b a63e 6e82 f43c f145 b0be
00000140: b91a b2bc 6b9d 34be 6019 81be 4eaa a13e
00000150: 846e 2dbe 4ee5 ce3e 4ca1 fcbe 33ec a9bc
00000160: c8a7 6a3e 64b0 67be f1fa 813e caeb 93be
00000170: c1d8 433e 7862 04bf 7254 22be 419d 8fbe
00000180: c4be 293e 7b0d 5f3e 93a9 69be 2f96 f5be
00000190: cf2f 6fbe 30ce d53e dc6e edbe b380 623e
000001a0: 049d 993e 0c7f ecbc 4cd0 4dbe 4032 8c3e
000001b0: 7a90 03bf 51a7 b5be 6265 04bf 9497 92bd
000001c0: d02a 9f3e 32b4 2b3e 0562 833e 6bae 7abe
000001d0: 3132 3d3e d6f3 b7be b455 f5be 559d 383e
000001e0: f929 023e e7f7 f2be 50e4 6d3e 82f4 0cbf
000001f0: 9b99 a0be 287d a5be 1cc5 3fbe 0d49 c3be
00000200: cf82 e7be 2179 3e3e 45f6 9dbe 1752 033e
00000210: ea0b ad3e 5c82 c9bd 57c2 52be 13e7 88be
00000220: 575a 62be 4416 d53e f7b7 12be 9a3d 823d
00000230: aefe a9be 37f9 6f3e 6e64 c2be 2323 d13e
00000240: 498a be3e bc1d d5be ed19 9c3e ea8a 783d
00000250: 1d3d abbe cff3 f4be 4e6b 7fbd c65f cb3e
00000260: cd69 b3be bbe8 943e 8c1d d73e 217d d73d
00000270: 09e7 ef3e 2c6e 973d a1e7 cc3e 7314 413c

projector.0.bias f4 [40]
0.12795115 0.3438484 -0.30613866 0.14468683 0.0667088 0.04773745 0.0057600476 -0.21180832
0.5487462 -0.011092105 -0.24336728 0.31005603 -0.15127546 -0.31289592 -0.24719435 0.101610646
0.5140451 0.45353782 0.44534454 -0.15318991 0.51556575 0.043814942 -0.54575044 0.33546343
-0.2711985 0.065444015 -0.39165932 -0.30270392 -0.053232346 0.23222108 -0.2831718 -0.41580844
0.2841168 0.44673863 0.09417789 -0.21662475 -0.033822935 0.034470174 0.004044796 -0.16711476
00000000: a005 033e e60c b03e 35be 9cbe c928 143e
00000010: a09e 883d 5888 433d c8be bc3b 48e4 58be
00000020: a27a 0c3f a9bb 35bc 4635 79be aabf 9e3e
00000030: f4e7 1abe e533 a0be 8420 7dbe 3e19 d03d
00000040: 7698 033f 1c36 e83e 3304 e43e d1dd 1cbe
00000050: 1efc 033f 4c77 333d 4db6 0bbf ddc1 ab3e
00000060: 88da 8abe 8307 863d 9287 c8be 02fc 9abe
00000070: 290a 5abd 5dcb 6d3e e5fb 90be d8e4 d4be
00000080: c277 913e edba e43e 56e0 c03d e1d2 5dbe
00000090: eb89 0abd 9930 0d3d 358a 843b 2220 2bbe

projector.2.weight f4 [400, 40]
-0.12759203 0.07225358 0.108665116 -0.07924078 0.0110211605 0.02275693 -0.085054554 0.04365753
0.15733932 0.0027075736 -0.0822761 -0.099010885 -0.1681316 -0.121071644 -0.17932044 0.021650413
0.045451827 0.078344114 -0.14471787 -0.17339556 0.11906042 -0.13606653 0.024428228 -0.08956504
-0.09265288 -0.11117322 -0.010735708 0.049393877 0.0062172506 0.1620035 -0.09805981 -0.028415674
0.09680746 -0.08918054 -0.09276672 -0.08438308 0.007231163 0.15023454 0.18711501 0.030473737
0.06071675 0.14572072 0.20452225 0.17168298 0.15464249 0.05205166 0.038929142 -0.11378196
0.20203258 0.1356631 -0.014509112 0.17101508 0.048113134 -0.090506755 0.21824776 0.01706545
-0.06050153 0.06239625 -0.068446256 0.17605722 -0.012340767 0.10283517 -0.14339007 0.08583894
0.18263839 0.025983231 0.08072234 0.10242651 0.17443994 -0.024267644 0.018330075 0.16148245
0.13758169 -0.0007620144 0.13599944 0.031543322 0.07136951 0.04300238 0.20014015 -0.01563524
0.19688743 0.07827129 -0.120191544 0.013823333 0.07649042 -0.09416466 0.0033156367 -0.034994897
-0.11945059 0.14942575 0.12720133 -0.16202027 0.16086759 0.038158026 0.1760136 -0.05939856
-0.010183085 -0.03627702 0.17141819 0.11714585 -0.0050650616 -0.003753314 -0.068197146 0.1730141
0.11240916 -0.037590064 0.02934626 -0.090052016 0.05340022 -0.027291954 0.2059484 0.1053671
0.11412965 -0.085429594 0.16778636 -0.021646906 0.08957428 -0.15524131 0.06838272 -0.043495823
0.048311636 0.033719774 -0.08959625 0.14779206 0.09184272 0.18145263 -0.09156307 0.13078308
0.118311115 0.06763707 0.12827846 0.17948052 -0.12702923 0.010417027 0.06531562 -0.027339373
-0.04183249 -0.0628006 0.14266346 0.1162701 0.055781208 0.09920047 0.011816325 -0.14272992
-0.045385107 0.14407274 -0.08376824 0.034901798 0.08831969 0.15290928 -0.07468499 0.012657978
0.06318542 -0.054294728 0.0089595355 0.10541105 0.18634485 0.100156926 0.079708666 -0.07416112
-0.0073353946 -0.054736666 -0.103322625 -0.13787003 0.04407938 -0.053029813 0.025374264 0.112281874
-0.14275499 -0.049171 0.12143646 -0.045452483 0.013134986 -0.10383883 0.1558157 -0.022295907
-0.1352123 0.13566275 0.035455167 0.05994314 0.05630435 -0.024123743 -0.12708503 0.118571475
0.057518646 0.01592356 0.0066381097 0.0272028 -0.09607361 0.038999483 -0.15629776 -0.05147265
-0.073264696 -0.07115734 0.030333072 0.07397735 -0.035655245 -0.117230326 -0.007577792 0.012661904
-0.07609174 0.16914311 -0.12616327 0.09455611 -0.078886844 -0.15669076 0.17425999 -0.10839581
-0.016768321 -0.0074868635 0.1692316 0.033710003 0.15003511 -0.20459373 0.07305928 0.17747205
0.22279064 -0.071832485 0.10149993 -0.07456976 -0.08131518 0.02625228 -0.012243697 -0.08001439
0.10476552 0.18478073 0.0122795105 0.0010109143 0.07223499 0.06614963 0.16975978 0.016355865
-0.014020124 -0.0055515533 0.022512963 -0.004722027 -0.15290928 0.072543465 0.07895698 -0.029545765
0.046924457 0.19125234 0.013044462 0.23255134 -0.03013828 -0.04693283 0.19693267 0.16848709
0.07676156 -0.06920781 0.1341796 -0.06971201 -0.03069314 0.09587525 0.14617988 0.10327658
00000000: 7ca7 02be aff9 933d d18b de3d fd48 a2bd
00000010: 1992 343c be6c ba3c 1531 aebd 3dd2 323d
00000020: 8f1d 213e 8c71 313b 5f80 a8bd 38c6 cabd
00000030: b12a 2cbe 69f4 f7bd c79f 37be 355c b13c
00000040: b22b 3a3d e172 a03d ec30 14be 9b8e 31be
00000050: f3d5 f33d 0655 0bbe b51d c83c e06d b7bd
00000060: cbc0 bdbd c9ae e3bd d3e4 2fbc 3c51 4a3d
00000070: 14ba cb3b 3fe4 253e 95d3 c8bd fdc7 e8bc
00000080: fd42 c63d 49a4 b6bd 7afc bdbd 09d1 acbd
00000090: 64f3 ec3b 15d7 193e 149b 3f3e 0fa4 f93c
000000a0: 20b2 783d d037 153e 486e 513e aacd 2f3e
000000b0: 9a5a 1e3e 1f34 553d 2a74 1f3d 8406 e9bd
000000c0: a1e1 4e3e 45eb 0a3e a0b7 6dbc 941e 2f3e
000000d0: 4712 453d 9b5b b9bd 577c 5f3e d8cc 8b3c
000000e0: 74d0 77bd 3693 7f3d 8d2d 8cbd 5848 343e
000000f0: ee30 4abc 3f9b d23d d9d4 12be 54cc af3d
00000100: 8f05 3b3e c9da d43c c151 a53d fdc4 d13d
00000110: 62a0 323e f0cc c6bc f428 963c a85b 253e
00000120: 37e2 0c3e ecc1 47ba 7043 0b3e 9233 013d
00000130: 2d2a 923d 4323 303d 8af1 4c3e 7a15 80bc
00000140: dc9c 493e b34c a03d fc26 f6bd 437b 623c
00000150: 02a7 9c3d 67d9 c0bd 274b 593b cf56 0fbd
00000160: 83a2 f4bd 1003 193e 1141 023e a4e8 25be
00000170: 79ba 243e 974b 1c3d e93c 343e e84b 73bd
00000180: f4d6 26bc 3697 14bd 4088 2f3e 2aea ef3d
00000190: d1f8 a5bb 29fa 75bb f2aa 8bbd 9c2a 313e
000001a0: c636 e63d 0af8 19bd 9167 f03c 316d b8bd
000001b0: 30ba 5a3d 6093 dfbc 23e4 523e b5ca d73d
000001c0: cebc e93d b6f5 aebd 30d0 2b3e da54 b1bc
000001d0: b872 b73d 94f7 1ebe 3d0c 8c3d ad28 32bd
000001e0: 6ce2 453d bf1d 0a3d 3d7e b7bd cd56 173e
000001f0: 0918 bc3d b8ce 393e 6b85 bbbd 00ec 053e
00000200: 194d f23d 4e85 8a3d 6e5b 033e bec9 373e
00000210: f313 02be 2eac 2a3c 32c4 853d d2f6 dfbc
00000220: 8c58 2bbd 9a9d 80bd 5f16 123e 051f ee3d
00000230: d67a 643d 9e29 cb3d 4299 413c cb27 12be
00000240: bce5 39bd ce87 133e af8e abbd 30f5 0e3d
00000250: f4e0 b43d 4094 1c3e 72f4 98bd 6863 4f3c
00000260: 5c67 813d 2664 5ebd 04cb 123c c0e1 d73d
00000270: 2fd1 3e3e 131f cd3d 4c3e a33d c9e1 97bd
00000280: c05d f0bb 8e33 60bd d09a d3bd cd2d 0dbe
00000290: 948c 343d ca35 59bd b0dd cf3c 0af4 e53d
000002a0: 5d2e 12be 8867 49bd aeb3 f83d 622c 3abd
000002b0: 2034 573c 74a9 d4bd 278e 1f3e e8a5 b6bc
000002c0: 1875 0abe 2deb 0a3e 7039 113d f086 753d
000002d0: 649f 663d 289f c5bc 9422 02be 9ad5 f23d
000002e0: ac98 6b3d 2072 823c 8084 d93b 68d8 de3c
000002f0: 3ec2 c4bd ecbd 1f3d 850c 20be fcd4 52bd
00000300: cd0b 96bd f1ba 91bd 107d f83c 7081 973d
00000310: 3c0b 12bd 7416 f0bd 204f f8bb e073 4f3c
00000320: fcd5 9bbd da33 2d3e f230 01be a2a6 c13d
00000330: 6d8f a1bd 8b73 20be 3671 323e 9ffe ddbd
00000340: b85d 89bc 5d54 f5bb 0c4b 2d3e 8013 0a3d
00000350: cea2 193e 0581 51be 1ba0 953d 3cbb 353e
00000360: 3b23 643e e91c 93bd 32df cf3d 08b8 98bd
00000370: 9388 a6bd 060f d73c ca99 48bc 96de a3bd
00000380: 4e8f d63d 2937 3d3e 0030 493c a880 843a
00000390: f0ef 933d 7579 873d 82d5 2d3e bcfc 853c
000003a0: aab4 65bc cee9 b5bb 1b6d b83c 3cbb 9abb
000003b0: 4094 1cbe ab91 943d 32b4 a13d f609 f2bc
000003c0: dc33 403d a7d7 433e 70b8 553c f021 6e3e
000003d0: 8ee4 f6bc a43c 40bd b8a8 493e e187 2c3e
000003e0: 2a35 9d3d d3bc 8dbd 6166 093e 2cc5 8ebd
000003f0: 2e70 fbbc 3e5a c43d 2eb0 153e ac82 d33d

projector.2.bias f4 [400]
0.13489147 0.26941967 -0.0319378 -0.06316897 -0.12512681 0.2546865 0.25576657 -0.096197106
0.013647392 0.070429355 -0.061957475 0.13147448 0.057985246 0.022011142 0.024784038 -0.062148467
-0.07936978 0.14432415 0.0661403 -0.11422674 -0.22233064 -0.031154484 -0.17203186 -0.007805991
-0.022673033 0.22662285 -0.09249629 0.11637147 -0.012144766 -0.15218258 -0.0087078465 0.07984723
-0.106874555 -0.044466723 0.053618185 0.09240468 -0.14917853 0.295058 -0.15160634 0.1525727
0.041731525 0.23229961 -0.18103415 0.18134786 -0.0655144 0.24660301 0.11878757 -0.08762805
0.0016140337 0.0012416234 -0.046375748 0.16399741 0.27906537 0.07250011 -0.13806267 -0.025295962
0.08142197 0.14375107 0.19896251 0.27882344 -0.010482909 0.21341123 0.0033623269 0.2918635
-0.13867185 0.12010447 0.17946166 0.176124 0.05557986 -0.0346575 -0.21347348 0.22629237
0.061267864 0.15339248 -0.08452333 0.13928321 0.07357308 0.12781078 0.2984917 -0.003090397
0.08261601 0.14149046 0.10140893 -0.17905737 -0.007518793 0.11384549 0.17931794 0.12728073
-0.05576722 0.044584043 0.09114139 0.0052603306 0.10516633 -0.0086386595 0.063758895 0.16204171
-0.08363653 0.25854507 0.19191176 0.10063298 0.15834193 -0.06841336 0.105838835 0.21601817
-0.13444611 0.29260918 -0.06582137 -0.123783335 0.08334407 0.15950015 -0.07244354 0.1263148
0.2238425 -0.04052601 0.083696604 0.20304875 0.25283024 0.25283656 0.18878883 -0.1646882
0.018247673 0.27451563 -0.11999843 0.16485928 -0.013153272 -0.053339068 -0.09511904 -0.19526625
0.06340021 0.21229538 0.008898477 -0.021823801 0.097950675 0.17482431 0.22746584 0.20854329
0.16381423 0.17347929 -0.16128376 0.13901 0.14663535 0.19371909 0.10365526 0.18872763
-0.12296711 0.023254313 0.14720145 0.16388808 0.17496204 -0.078241944 0.18920897 0.0037875026
0.06067923 0.023659647 0.20279668 0.20486036 0.12375187 0.20557417 0.048440933 0.0668484
-0.06589987 0.0354615 -0.18112348 0.23949876 -0.012421723 0.01500313 -0.10632946 0.26048714
0.19998786 0.09077964 0.10099498 0.13458152 0.27130756 -0.178052 0.030659001 0.0949073
0.25542322 0.0405862 -0.13913111 -0.020930493 0.25068268 0.036340903 0.235574 0.09196852
0.06298629 0.058232814 0.015852945 0.03203691 -0.074317224 0.22780769 0.22100677 -0.019697743
-0.16597316 0.10312577 0.18338887 -0.04132301 0.2516367 -0.09008675 0.086857565 0.061752725
0.08709389 0.20958231 -0.06385246 0.004270328 0.13140216 0.05558056 0.20297806 -0.1728606
0.14335743 -9.611162e-06 0.009070327 0.17415531 0.062788054 0.10856339 0.21757336 -0.102657184
-0.04224036 -0.01195322 0.25393203 -0.106362924 0.035512604 0.047671013 0.04743538 0.06783985
-0.12348636 0.20141579 0.072239764 -0.23453596 0.21204378 0.046929 0.1070825 0.03630254
-0.02915622 0.15212755 0.014873739 0.0817891 0.05160118 0.047764678 0.04287365 0.24343206
0.22391741 -0.072060384 -0.003637068 -0.15653978 0.028403357 0.023532428 0.0031623794 -0.07910759
0.23412141 0.0624783 -0.15071508 0.12681952 0.08694981 0.22310925 0.037725195 -0.20915341
00000000: fd20 0a3e 60f1 893e 36d1 02bd bc5e 81bd
00000010: 3e21 00be 4566 823e d6f3 823e fd02 c5bd
00000020: 5099 5f3c 443d 903d 1fc7 7dbd 3fa1 063e
00000030: f081 6d3d b650 b43c e507 cb3c 648f 7ebd
00000040: a08c a2bd b6c9 133e 9174 873d b6ef e9bd
00000050: a5aa 63be b037 ffbc 1f29 30be 66c9 ffbb
00000060: ccbc b9bc d20f 683e b26e bdbd 2a54 ee3d
00000070: d7fa 46bc c0d5 1bbe 5bab 0ebc f286 a33d
00000080: 0ce1 dabd bd22 36bd be9e 5b3d aa3e bd3d
00000090: 42c2 18be d811 973e b13e 1bbe 053c 1c3e
000000a0: adee 2a3d f3df 6d3e 0461 39be 41b3 393e
000000b0: 6a2c 86bd 8085 7c3e e646 f33d 5676 b3bd
000000c0: fc8d d33a f8bd a23a 7ff4 3dbd f0ee 273e
000000d0: a8e1 8e3e f07a 943d 4d60 0dbe 7a39 cfbc
000000e0: 90c0 a63d 7b33 133e d4bc 4b3e f2c1 8e3e
000000f0: 82c0 2bbc 7988 5a3e 7c5a 5c3b 226f 953e
00000100: feff 0dbe 55f9 f53d ccc4 373e da59 343e
00000110: b5a7 633d 06f5 0dbd cb98 5abe 30b9 673e
00000120: 03f4 7a3d eb12 1d3e 911a adbd 42a0 0e3e
00000130: 7cad 963d d4e0 023e e7d3 983e 4288 4abb
00000140: 9532 a93d e0e2 103e 7caf cf3d d15a 37be
00000150: 3560 f6bb d327 e93d 1f9f 373e e155 023e
00000160: 2b6c 64bd c29d 363d 56a8 ba3d da5e ac3b
00000170: 7261 d73d 2a89 0dbc 0694 823d 43ee 253e
00000180: a149 abbd 0560 843e 8484 443e aa18 ce3d
00000190: 6324 223e 4e1c 8cbd 08c2 d83d de33 5d3e
000001a0: 3eac 09be dfd0 953e 5bcd 86bd 1e82 fdbd
000001b0: 4cb0 aa3d 0254 233e 475d 94bd ab58 013e
000001c0: f836 653e 9afe 25bd 2069 ab3d 03ec 4f3e
000001d0: f772 813e cb73 813e dc51 413e 06a4 28be
000001e0: 257c 953c 508d 8c3e bdc1 f5bd dfd0 283e
000001f0: d280 57bc 117a 5abd c5cd c2bd e0f3 47be
00000200: f8d7 813d f663 593e ebca 113c d4c7 b2bc
00000210: 5d9a c83d 2505 333e ceec 683e 5f8c 553e
00000220: ebbe 273e 8ea4 313e 9227 25be a358 0e3e
00000230: 9427 163e 4c5e 463e 3549 d43d d141 413e
00000240: 2ed6 fbbd d47f be3c fabb 163e 47d2 273e
00000250: 4029 333e 503d a0bd ffbf 413e c037 783b
00000260: c98a 783d e0d1 c13c efa9 4f3e eac6 513e
00000270: 9f71 fd3d 0982 523e 006a 463d d0e7 883d
00000280: 83f6 86bd 1440 113d 6f78 39be 2a3f 753e
00000290: 7c84 4bbc b0cf 753c 43c3 d9bd 925e 853e
000002a0: 9ec9 4c3e adea b93d 75d6 ce3d bdcf 093e
000002b0: d3e8 8a3e 4353 36be 9628 fb3c c25e c23d
000002c0: d5c6 823e b73d 263d 6378 0ebe 6d76 abbc
000002d0: 7b59 803e 33da 143d 503a 713e fe59 bc3d
000002e0: f5fe 803d 8885 6e3d 09de 813c 2339 033d
000002f0: a133 98bd 6b46 693e 994f 623e 295d a1bc
00000300: def4 29be 9b33 d33d 4bca 3b3e 5142 29bd
00000310: 87d6 803e 677f b8bd 61e2 b13d 6df0 7c3d
00000320: 485e b23d bf9c 563e 14c5 82bd 1cee 8b3b
00000330: 4a8e 063e 71a8 633d 7bd9 4f3e 5e02 31be
00000340: 4acc 123e a03f 21b7 b59b 143c c555 323e
00000350: 0697 803d 7c56 de3d 8dcb 5e3e ee3d d2bd
00000360: 3a04 2dbd 70d7 43bc 6103 823e ced4 d9bd
00000370: aa75 113d ae42 433d 9a4b 423d 9fef 8a3d
00000380: 6be6 fcbd f13f 4e3e 71f2 933d 322a 70be
00000390: 0122 593e a038 403d 124e db3d f9b1 143d
000003a0: 06d9 eebc 53c7 1b3e fcb0 733c 0b81 a73d
000003b0: c25b 533d e5a4 433d 489c 2f3d 4146 793e
000003c0: 9b4a 653e 6594 93bd e05b 6ebb f74b 20be
000003d0: 28ae e83c 14c7 c03c ec3f 4f3b 2903 a2bd
000003e0: 86bd 6f3e 3fe9 7f3d 0e55 1abe fadc 013e
000003f0: be12 b23d c076 643e bc85 1a3d 502c 56be

projector.4.weight f4 [40, 400]
0.12796773 0.13045932 0.003077565 0.039211843 -0.04008879 0.08808644 0.11329923 0.010296501
-0.026517749 0.0727818 0.031657234 0.061470047 -0.00059248134 0.10643 -0.02282439 -0.042066365
-0.0013442468 0.07469581 0.041075893 -0.017532218 0.029928587 0.03998542 -0.045726348 -0.050282244
-0.0869952 0.12252972 0.0944348 -0.027787132 0.048204407 0.050423015 0.08128167 0.018872375
0.032291856 0.047382317 0.06859168 0.09338458 0.08124146 0.045728005 0.048772726 0.07678006
0.10203164 0.08507293 0.048509806 0.09579804 0.04212324 0.049830712 0.01953179 0.055524003
0.10210308 0.083655484 -0.02218713 0.08315444 0.09139097 0.09876281 0.027395021 0.073097855
0.02618242 0.03841761 0.10414088 0.05548039 0.097046934 0.05494194 0.08930533 0.05837664
0.04560265 0.07647883 0.025706513 0.054411173 0.064587526 0.011061376 0.08537922 0.0634311
0.11519943 0.10818492 0.0237616 0.017051741 0.043409113 0.09524106 0.123961814 0.03312984
0.07611441 0.046155844 0.07250414 -0.037221164 0.02409986 0.012674293 0.09617572 0.046034083
0.058684904 0.035688855 0.045445684 0.044990707 0.06452866 -0.010835711 0.054934487 0.027042795
0.039579336 0.116054 0.03837221 0.03276115 0.040463723 0.09246921 0.08921591 0.10635511
0.08133841 0.056473028 0.073272996 0.03925451 0.058789928 0.055590086 0.048389528 0.0155063355
0.07751744 0.036665462 0.06768109 0.124549836 0.10049726 0.11373002 0.09363085 0.034382068
0.11110622 0.11700695 0.017585104 0.09317121 0.06534843 0.087472685 -0.034959666 0.03749684
0.065444395 0.13303062 0.045042925 0.041122325 0.08653993 0.06693868 0.08713939 0.04123757
0.104273744 0.12739047 0.027297992 0.039505627 0.059485275 0.14067799 0.020380542 0.12889355
0.042739153 0.050896633 0.07256258 0.09513196 0.046007775 0.04082894 0.09347818 -0.039979845
0.1292392 0.03945015 0.06604706 0.078260966 0.07982517 0.13112098 0.01891521 0.05847612
0.0006515272 0.057994552 0.009919566 0.11642639 0.032340735 0.05738512 0.009876853 0.0022055018
0.092563435 0.030610342 0.08189104 0.11393111 0.03150705 0.056663733 0.10559701 0.04531854
0.11037893 0.046807244 0.051219877 -0.0032354572 0.10932741 0.0057540126 0.10038086 0.026454847
0.07739505 0.0917096 0.08412826 0.10691928 -0.023118747 0.03946972 0.050404686 0.017104745
0.004908841 0.09209536 0.008909733 0.04608513 0.10345428 0.0288581 0.06383405 0.067809485
0.104565725 0.085113354 -0.040324777 0.107081056 0.09038632 0.039497826 0.11830926 0.06650638
0.12719615 0.02161824 0.026852308 0.05188973 0.093345016 0.067853294 0.12584618 0.09205004
0.08634096 0.05834161 0.10504192 0.017562171 0.0133085465 0.07262274 0.026773822 0.12916799
0.04082807 0.12987502 0.03125868 0.103294656 0.08197265 -0.005225303 0.03198257 0.053344492
0.026959434 0.09496223 0.040394735 0.09216677 -0.024615956 0.04473728 0.046900038 0.06313382
0.08072479 0.010259576 0.08676642 0.04712057 0.052590303 0.08361375 0.038634755 0.031989887
0.06484796 0.057230145 -0.011416018 0.021307684 0.04370811 -0.0061004683 -0.030436743 0.02434158
00000000: f909 033e 2197 053e f9b0 493b 999c 203d
00000010: 2534 24bd aa66 b43d 6d09 e83d a8b2 283c
00000020: c03b d9bc a00e 953d 04ab 013d 04c8 7b3d
00000030: c050 1bba f9f7 d93d 37fa babc c84d 2cbd
00000040: 7031 b0ba 1efa 983d 323f 283d ba9f 8fbc
00000050: cc2c f53c c0c7 233d 8d4b 3bbd c1f4 4dbd
00000060: 8a2a b2bd ddf0 fa3d 0867 c13d d7a1 e3bc
00000070: fc71 453d 5d88 4e3d 0177 a63d 3d9a 9a3c
00000080: 7744 043d f613 423d cb79 8c3d 6a40 bf3d
00000090: ec61 a63d 4a4d 3b3d e9c5 473d dd3e 9d3d
000000a0: f7f5 d03d b73a ae3d 38b2 463d c331 c43d
000000b0: 6b89 2c3d 4a1b 4c3d 2201 a03c 236d 633d
000000c0: 6b1b d13d 9153 ab3d c9c1 b5bc e04c aa3d
000000d0: 302b bb3d 2844 ca3d 866b e03c 54b4 953d
000000e0: 847c d63c c95b 1d3d d047 d53d 683f 633d
000000f0: 8bc0 c63d cd0a 613d b6e5 b63d 581c 6f3d
00000100: d8c9 3a3d efa0 9c3d 7796 d23c 40de 5e3d
00000110: 7746 843d c63a 353c 4ddb ae3d 2ae8 813d
00000120: aeed eb3d 0e90 dd3d b0a7 c23c 18b0 8b3c
00000130: c1cd 313d bf0d c33d b1df fd3d 28b3 073d
00000140: dfe1 9b3d e90d 3d3d 0d7d 943d 3875 18bd
00000150: 126d c53c d6a7 4f3c c7f7 c43d 3c8e 3c3d
00000160: 955f 703d 7a2e 123d 4125 3a3d 2d48 383d
00000170: 9a27 843d 4488 31bc fc02 613d da88 dd3c
00000180: f11d 223d b8ad ed3d 2e2c 1d3d 8e30 063d
00000190: 4abd 253d 7f60 bd3d d5b6 b63d b5d0 d93d
000001a0: c194 a63d 4350 673d 2710 963d 56c9 203d
000001b0: b5cd 703d 6eb2 633d 1934 463d 490e 7e3c
000001c0: 77c1 9e3d 862e 163d 629c 8a3d fc13 ff3d
000001d0: 82d1 cd3d 49eb e83d 88c1 bf3d 36d4 0c3d
000001e0: a88b e33d 57a1 ef3d a30e 903c 8cd0 be3d
000001f0: 66d5 853d e124 b33d de31 0fbd 4996 193d
00000200: b607 863d 2e39 083e ee7e 383d e26f 283d
00000210: d93b b13d 2617 893d 2376 b23d bae8 283d
00000220: 798d d53d a672 023e 0aa0 df3c a7d0 213d
00000230: d5a6 733d e40d 103e 18f5 a63c acfc 033e
00000240: 400f 2f3d fd78 503d b19b 943d 8cd4 c23d
00000250: a672 3c3d 3f3c 273d 7d71 bf3d e8c1 23bd
00000260: 4857 043e 7b96 213d ae43 873d 4947 a03d
00000270: 617b a33d 9444 063e 12f4 9a3c a884 6f3d
00000280: 40cb 2a3a b28b 6d3d ad85 223c f670 ee3d
00000290: b877 043d a90c 6b3d 86d2 213c 2e8a 103b
000002a0: e691 bd3d 8ac2 fa3c 7db6 a73d b754 e93d
000002b0: 890d 013d 3b18 683d 3f43 d83d ef9f 393d
000002c0: 590e e23d f4b8 3f3d efcb 513d f709 54bb
000002d0: 0de7 df3d 288c bc3b 7b94 cd3d d6b7 d83c
000002e0: 4c81 9e3d 3ed2 bb3d 704b ac3d 7ff8 da3d
000002f0: 8763 bdbc 00ab 213d 2575 4e3d 401f 8c3c
00000300: 58da a03b 7e9c bc3d 21fa 113c c3c3 3c3d
00000310: d6df d33d d267 ec3c 6dbb 823d b3df 8a3d
00000320: 8e26 d63d e94f ae3d 982b 25bd 504d db3d
00000330: 771c b93d 79c8 213d 204c f23d 7f34 883d
00000340: b53f 023e bc18 b13c 5ff9 db3c 538a 543d
00000350: ac2b bf3d abf6 8a3d d2dd 003e bb84 bc3d
00000360: 87d3 b03d 9df7 6e3d 3820 d73d 8bde 8f3c
00000370: 170c 5a3c 3bbb 943d c654 db3c 9d44 043e
00000380: 563b 273d f5fd 043e 1a09 003d 268c d33d
00000390: 47e1 a73d 0539 abbb 2800 033d c17f 5a3d
000003a0: 08da dc3c 8f7b c23d f374 253d eec1 bc3d
000003b0: 67a7 c9bc 703e 373d 411a 403d 4e4c 813d
000003c0: 0a53 a53d c817 283c 98b2 b13d 8001 413d
000003d0: ee68 573d b03d ab3d 7a3f 1e3d d407 033d
000003e0: 02cf 843d 286a 6a3d 400a 3bbc 748d ae3c
000003f0: 4607 333d 70e6 c7bb 7a56 f9bc fe67 c73c

projector.4.bias f4 [40]
0.13746929 -0.071874894 0.10878078 -0.023460554 0.08797609 -0.085554816 -0.07759329 0.13972735
0.032683056 0.12690572 -0.014364045 -0.07010955 -0.06862298 -0.076395884 0.12606132 -0.028935913
0.031670872 -0.056171358 -0.075142026 -0.04969032 -0.016979976 -0.061903853 -0.07478898 -0.06964585
0.1309135 -0.041170232 0.031185532 -0.023241334 0.0702944 0.1319504 0.18064874 -0.06170782
0.1541609 -0.09163278 -0.054848444 -0.022791754 0.14280735 -0.044285126 -0.07887849 -0.035031937
00000000: c0c4 0c3e 2533 93bd 75c8 de3d 5930 c0bc
00000010: cf2c b43d 5d37 afbd 3be9 9ebd b014 0f3e
00000020: abde 053d 93f3 013e 2c57 6bbc 9995 8fbd
00000030: 348a 8cbd 7275 9cbd 3816 013e 020b edbc
00000040: 51b9 013d f013 66bd 10e4 99bd 1488 4bbd
00000050: 9719 8bbc e58e 7dbd f72a 99bd 7ca2 8ebd
00000060: 300e 063e 1ea2 28bd cd78 ff3c 9c64 bebc
00000070: 83f6 8f3d 011e 073e fcfb 383e 57c1 7cbd
00000080: 5bdc 1d3e f8a9 bbbd c3a8 60bd c6b5 babc
00000090: 173c 123e 5264 35bd 0c8b a1bd a67d 0fbd

projector.6.weight f4 [4, 40]
0.1197468 0.15062356 -0.0026028496 -0.08799033 0.16011837 0.019459484 -0.04839593 0.19487232
0.20513093 0.065942205 -0.1153445 -0.095789395 0.13736105 0.045596745 -0.03969997 0.0576047
-0.14032732 0.087458126 -0.014969475 0.16219379 -0.0059071914 0.05511552 0.18686564 0.062987156
-0.005689763 -0.063645065 0.109919064 -0.018034413 0.13587475 0.12025739 0.21701202 0.064006254
0.22250351 -0.093927346 -0.09634102 0.092039935 0.2635705 0.011968118 0.11498672 -0.045522965
0.03286193 -0.04600365 0.20573777 -0.07761507 0.06769613 0.075449675 0.015557576 0.14691494
-0.094464414 0.1237913 -0.048441708 -0.027070472 0.11254835 0.067479834 0.22897042 -0.081624165
-0.09672552 -0.0046189907 -0.04305808 -0.15413558 0.05018882 -0.044519633 0.006997869 0.14313787
0.12023774 -0.06971726 0.03572651 -0.0028037326 0.15328604 0.17907791 0.103852615 0.12060441
0.17841588 0.12409421 0.006950213 0.1207205 -0.035763893 0.0017622731 -0.006203177 0.08455797
0.2267676 -0.060102753 0.19416304 -0.042516485 0.050656646 -0.068690486 -0.051871203 0.17683525
0.020342842 0.108799346 -0.022068217 0.13768578 -0.03504906 -0.035459373 0.23588844 -0.07066171
0.056553304 -0.054663487 -0.094594896 -0.06940513 -0.079470105 -0.040234983 -0.053217445 -0.018895557
0.20960851 -0.0815806 0.09637463 0.19288065 0.016557176 0.20908263 0.034387384 0.10057561
0.21234149 -0.0213154 0.06471839 -0.091312274 0.10780605 -0.030957956 -0.035892468 -0.022485888
0.15997417 0.05716258 0.12944622 0.034388486 0.018647542 0.0082512135 0.0513172 -0.039579343
0.1582428 0.16349186 -0.13669534 -0.04174961 -0.049713943 0.10920896 -0.05005387 -0.10026984
0.043667108 0.17308475 0.13518886 0.045560785 0.1885552 -0.035194583 -0.0068025086 0.007973837
0.078568265 -0.090506226 -0.11368516 0.03999418 -0.01775415 0.17245892 0.15468648 -0.08315877
-0.0069856737 0.018980384 0.15038374 0.035615593 0.1690851 0.19409521 0.036557615 0.10469487
00000000: cf3d f53d 103d 1a3e 9294 2abb 4634 b4bd
00000010: 12f6 233e 7f69 9f3c d03a 46bd 9c8c 473e
00000020: d80d 523e b50c 873d bd39 ecbd 3b2d c4bd
00000030: 60a8 0c3e a7c3 3a3d 709c 22bd e8f2 6b3d
00000040: f7b1 0fbe 3f1d b33d 8742 75bc 2116 263e
00000050: 1d91 c1bb d0c0 613d b559 3f3e 69ff 803d
00000060: 3171 babb 5858 82bd 3f1d e13d e8bc 93bc
00000070: c022 0b3e 8249 f63d 6638 5e3e b615 833d
00000080: f6d7 633e fb5c c0bd 714e c5bd 6f7f bc3d
00000090: b6f2 863e ed15 443c 287e eb3d 4a76 3abd
000000a0: 3b9a 063d 536e 3cbd ecac 523e a6f4 9ebd
000000b0: 45a4 8a3d 5c85 9a3d 34e5 7e3c df70 163e
000000c0: 8f76 c1bd 4b86 fd3d d06a 46bd e5c2 ddbc
000000d0: c07f e63d de32 8a3d 3977 6a3e 922a a7bd
000000e0: 0818 c6bd e75a 97bb ab5d 30bd b8d5 1dbe
000000f0: cb92 4d3d 385a 36bd 614e e53b bc92 123e
00000100: 343f f63d ecc7 8ebd f655 123d d4be 37bb
00000110: 04f7 1c3e 3360 373e aeb0 d43d 72ff f63d
00000120: a7b2 363e 1b25 fe3d 9dbe e33b 4f3c f73d
00000130: 297d 12bd 13fc e63a 0544 cbbb bb2c ad3d
00000140: c435 683e 4e2e 76bd add2 463e c425 2ebd
00000150: 587d 4f3d 99ad 8cbd e676 54bd 4d14 353e
00000160: 08a6 a63c 31d2 de3d 68c8 b4bc 80fd 0c3e
00000170: 9a8f 0fbd d93d 11bd bd8c 713e 16b7 90bd
00000180: 70a4 673d d2e6 5fbd f8ba c1bd 4724 8ebd
00000190: 39c1 a2bd 70cd 24bd 89fa 59bd dbca 9abc
000001a0: 9da3 563e bb13 a7bd 1060 c53d 8182 453e
000001b0: eaa2 873c c219 563e c9d9 0c3d 96fa cd3d
000001c0: 0c70 593e a29d aebc 138b 843d ee01 bbbd
000001d0: 6bc9 dc3d 8a9b fdbc fb03 13bd 5334 b8bc
000001e0: 45d0 233e 4f23 6a3d 8d8d 043e f1da 0c3d
000001f0: bbc2 983c 1930 073c fc31 523d f31d 22bd
00000200: 670a 223e 696a 273e ddf9 0bbe a401 2bbd
00000210: d9a0 4bbd f2a8 df3d 4905 4dbd 465a cdbd
00000220: 48dc 323d 213d 313e f36e 0a3e f29d 3a3d
00000230: 9d14 413e 3228 10bd 94e7 debb b2a4 023c
00000240: 66e8 a03d 545b b9bd c4d3 e8bd f0d0 233d
00000250: 2771 91bc 1299 303e 2266 1e3e 254f aabd
00000260: 14e8 e4bb c07c 9b3c 32fe 193e a8e1 113d
00000270: a524 2d3e e5c0 463e 70bd 153d 446a d63d

projector.6.bias f4 [4]
0.18880029 0.1471135 0.1884264 0.07227223
00000000: dd54 413e eca4 163e daf2 403e 7703 943d
