models/squares/100/class0_student_config.pt (torch, 45575 bytes, 6 tensors)

predictor.0.weight f4 [100, 2]
00000000: 4f38 39be 78f9 d23e 5087 193f d3a4 23bf
00000010: 1815 ce3e 3008 a5be bf5a fcbe 5384 f63e
00000020: 3b2f 0fbe 991f b73e c24b 793e 926e c4bd
00000030: 8af2 a2be 034b 173f 54da ba3e c57b e13e
00000040: 7e84 86bf cbd5 ff3b 4da9 febd 600a 093f
00000050: 2adc 8cbe caa2 5f3e 3395 89be c851 debd
00000060: e02e adbd c97a e3be fa6c 403e 7429 3bbf
00000070: 62db f83e 9704 e23e ee54 1c3f 93f2 a2be
00000080: a526 803d 335a aebf 20db 69be 8061 63bc
00000090: 8420 f6be 1eb9 adbe 75a7 d5be cec8 cc3e
000000a0: c036 1ebf 4cce 46be 47f8 ea3e 1f69 d9be
000000b0: e658 603e 9628 8f3e e868 d7bd 66f5 a0be
000000c0: ea67 1dbf d090 30bd 3f56 16bf 68e3 27be
000000d0: fa1a da3e a720 1dbf 73af ce3e 48af 35bf
000000e0: 1a0a edbe e9f9 1cbf 0d42 76bd df8f fa3e
000000f0: 1c85 13be 2017 8abd 3c82 043f 9e21 1e3d
00000100: 287c c43e 877f a33e 7dde 19bf 4203 98bc
00000110: 6599 233f 4d0a 14bf acbc 093f c7bf 35be
00000120: 997e 19be 2787 403e 6f4e b3be 716c 13bf
00000130: b61a ce3e bede d23e 3c75 0b3f 496b a4be
00000140: 8bac abbe 2828 94be e07e debd 2e11 0abf
00000150: 1ab0 993e 78e7 c3be d06f 05bf bd24 acbe
00000160: 9995 883e f436 f2bd 3edc b0bc 4c8b 353e
00000170: 2b66 10be 7aff d73e d98a 963e d535 403c
00000180: 2fec 253c 76c8 ce3d d80c 093e 982b 99be
00000190: b867 053e 19e2 44bc 422f 493e 18ae 553e
000001a0: db26 33be a8da fa3e 00f7 353e 8890 c9bd
000001b0: 3097 6bbe 90f5 3ebd 6bc4 ecbe 4e1e 163f
000001c0: 3f1e eebe 74ed 063f c07e 1ebc 3dc3 0fbf
000001d0: 33f3 c93e 664c 21bf 627b 083f c49c dbbe
000001e0: 48ef d3bd ebc8 123f e075 bebd 26a9 bebe
000001f0: 2a04 0a3f d749 4fbe e51f 90be 9e41 c53e
00000200: ad27 61bf 1a2e c1bb f41a d53e de93 09bf
00000210: 0a01 9abe 6de8 cd3d dfa1 253d aa8e 353e
00000220: 53d7 00be 10ee 0a3d 6610 eb3d 6fde 133e
00000230: 7775 fd3e c7a6 033e f540 ff3e 2a59 0bbf
00000240: d403 2e3e 2ca3 91be a7ff 22bf fa3c 1d3f
00000250: 06ab d9be 4cd5 f23e 4eb9 dc3e ccac f03e
00000260: 8486 923e 1e49 953e 771a 163f 6314 1ebf
00000270: fb99 84bf a13a a13d 0e37 ea3d b6fb fdbd
00000280: feb3 9f3e 2e69 85bd 86d1 043e 0467 ca3e
00000290: fe27 583e 6c68 e0be e01a 043f 1222 44bf
000002a0: a079 663e 870f 0ebf aa41 22be bc8b 9c3e
000002b0: 6329 ce3e 3d66 8fbe 95c5 3cbe 1a6b 2a3f
000002c0: 7bb3 6d3e c136 12bf a89e 85be 7780 95be
000002d0: 0467 353e 7fb6 a73e 3906 d73e 1fc6 aabe
000002e0: 99b5 2bbf 5df0 d0be 7622 bb3e bf34 dcbe
000002f0: 391a c0be d340 0b3e 20b1 babc fd35 0dbf
00000300: 8027 6e3e fd1e 63bf 747f 39be ca40 70be
00000310: 2c69 013f c3ae 26bf c0d1 e2be 4f24 18bf
-0.18087886 0.41205955 0.59972095 -0.63923377 0.40250468 -0.3223281 -0.49287984 0.4814783
-0.1398286 0.35766295 0.24345306 -0.09591402 -0.31825668 0.59098834 0.36494696 0.4403974
-1.0509183 0.0078074685 -0.12434635 0.53531456 -0.27511722 0.21839443 -0.26871642 -0.10855442
-0.08456206 -0.44429615 0.18791571 -0.7311013 0.48604876 0.44144127 0.6106709 -0.31825694
0.06257371 -1.3621277 -0.22837496 -0.013878226 -0.48071682 -0.33930296 -0.41729322 0.39996952
-0.6180229 -0.19414634 0.45892546 -0.42463014 0.21908912 0.27960652 -0.10518056 -0.31437224
-0.61486685 -0.043106854 -0.5872535 -0.16395342 0.42598706 -0.6137795 0.40368232 -0.7097058
-0.4629677 -0.6131883 -0.060121585 0.4893789 -0.14406246 -0.06742692 0.5176122 0.03860628
0.38375974 0.31933233 -0.60105115 -0.018556241 0.63905936 -0.5782822 0.53803515 -0.17748939
-0.149897 0.18801557 -0.35020778 -0.57587343 0.40254754 0.41185564 0.5447576 -0.32113102
-0.33530077 -0.28936887 -0.10864043 -0.53932464 0.30017167 -0.38262534 -0.5212374 -0.3362178
0.26676634 -0.11826888 -0.021589395 0.17728919 -0.14101474 0.421871 0.29402807 0.011731585
0.010127111 0.10096829 0.13383806 -0.29916072 0.13027847 -0.0120167965 0.19646934 0.20867193
-0.17495291 0.48994946 0.17770004 -0.0984202 -0.23006892 -0.046620905 -0.46243605 0.5863999
-0.4650745 0.52706075 -0.009673774 -0.56157285 0.3944336 -0.630072 0.5331327 -0.4289304
-0.10348374 0.57337826 -0.092998266 -0.37238425 0.53912604 -0.20243011 -0.28149334 0.38526624
-0.87951165 -0.0058953883 0.41622126 -0.5374125 -0.30078918 0.10054097 0.040437575 0.17730203
-0.1258214 0.03391844 0.11477737 0.1444032 0.4950368 0.1285659 0.49854246 -0.5443293
0.16993648 -0.28444803 -0.63671345 0.6142117 -0.42513293 0.47428358 0.43110126 0.47006834
0.28618252 0.29157346 0.5863413 -0.6174986 -1.0359491 0.07872511 0.11436282 -0.12401526
0.3119201 -0.06514202 0.12970552 0.3953172 0.21109006 -0.43829668 0.5160351 -0.7661449
0.22507334 -0.5549244 -0.15845361 0.3057536 0.4026595 -0.2800769 -0.18434747 0.66569674
0.23212998 -0.571148 -0.26097608 -0.29199573 0.17715079 0.3275642 0.41996935 -0.3335428
-0.6707397 -0.40808383 0.3654973 -0.43008992 -0.37520006 0.13598947 -0.022789538 -0.55160505
0.23257256 -0.8871916 -0.18115026 -0.23462215 0.50551105 -0.65110415 -0.44300652 -0.594304

predictor.0.bias f4 [100]
00000000: 7269 0ac0 de6a 27bf 8afd 9e3f 7f66 ca3f
00000010: eb1b 1240 7508 46c0 e3b2 7e3f 8fa7 78c0
00000020: 568a 6740 225e a9bf f71d babd e031 6a3e
00000030: 11a1 22bf cc17 03c0 2c44 77c0 6630 3140
00000040: 46ec b1bf 410b 2dbf 09ac b7be 4387 3240
00000050: 539f 123f 200f f73e 4864 8440 5887 893e
00000060: 22ca f73e a4f5 d7be c914 3bc0 68ae 633e
00000070: 4099 ddbc ba4a 3140 9124 debe 7297 12c0
00000080: f2b0 183d 8e9d f93d c183 443f f061 debf
00000090: b3aa eebf 087a 51be b6d6 7ac0 cedd 40c0
000000a0: f46e c9be 9cc2 aabe 97ad d43f a4f6 09bf
000000b0: 60a4 343f c112 af40 9fef 86c0 3e55 3740
000000c0: 2893 0940 588b 9f40 cbba 9e40 afd2 2940
000000d0: 442f 47c0 8996 6340 d61f a23e e012 3cbf
000000e0: 6dcf 2340 e094 5d3d d88d 0e3f 921e eb3f
000000f0: 03e0 b83f c56d d8be 45e0 18bf 09fd 7940
00000100: 3feb 5040 82c5 5b40 a47c 67c0 715e 1ec0
00000110: fe93 3440 8147 ce3f fa00 56c0 6897 33c0
00000120: f9b4 f8bf a883 44c0 369f 4f40 9e81 ab3e
00000130: 53e0 22c0 0bbb a7bf 460e 26c0 f2e1 3240
00000140: 1b93 d43f 1662 ecbf a4b6 01c0 5818 1640
00000150: b209 9c40 46ca 79c0 6dcf f2bf 1d71 0240
00000160: e295 7dbf 50c0 03be 3a0e 30bf 31f0 a33e
00000170: 40f6 6bbe 8f65 40bf a133 4f40 398e 023f
00000180: 75a6 eabf bfbc 18bf 8fc7 39c0 a85d 343e
-2.1626859 -0.6539744 1.2421124 1.5812529 2.282954 -3.0942662 0.9949171 -3.885227
3.6178184 -1.3231852 -0.090877466 0.22870588 -0.6352702 -2.0483274 -3.863536 2.768579
-1.390023 -0.675953 -0.3587344 2.7895057 0.5727436 0.48253727 4.1372414 0.26861072
0.48396403 -0.42179596 -2.9231436 0.222345 -0.027050614 2.770186 -0.43387273 -2.2904935
0.037278123 0.12188254 0.7676354 -1.7373638 -1.8645843 -0.20456707 -3.919355 -3.013538
-0.39342463 -0.333516 1.6615475 -0.5389197 0.70563316 5.4710393 -4.2167506 2.8645778
2.1496067 4.9857597 4.960302 2.653484 -3.1122599 3.556063 0.31664914 -0.734663
2.5595353 0.054097056 0.55685186 1.8368704 1.4443363 -0.42271248 -0.5971721 3.906069
3.2643583 3.43393 -3.6169825 -2.4745142 2.8215327 1.6115571 -3.3438096 -2.806116
-1.9430228 -3.0705357 3.2440925 0.33497328 -2.5449417 -1.3103956 -2.5946212 2.7950406
1.6607393 -1.8467433 -2.0267725 2.3452358 4.8761835 -3.9029708 -1.8969551 2.038154
-0.9905683 -0.1286633 -0.6877171 0.3201919 -0.23043156 -0.75154966 3.2375262 0.50998265
-1.8332049 -0.59663004 -2.902805 0.17613852

predictor.2.weight f4 [100, 100]
00000000: 1501 7b3d 9c81 06bd 77b8 8e3d eead 63bd
00000010: 4cd0 00be b6b6 3f3d 00ea 85bd 0085 723d
00000020: 74e7 bb3c 19c9 a4bd 3562 8abd 52b2 6d3d
00000030: 62b2 513d c46b b83d 165a 5f3d 713d 8a3d
00000040: b7d0 0c3e 1bb2 a3bd cd49 80bd 0dca e3bd
00000050: 5dba bcbd c966 83bd 2468 abbd 2ae0 88bd
00000060: 9992 a63d 0076 5a39 da52 743d 831f fa3c
00000070: 7229 203d 965b e6bc 5a5a b9bd 3ebe 8f3d
00000080: 0d66 413d e8c2 633c cb4b f03c 2aab 643d
00000090: ede2 a4bd 0383 53bd 0896 473d d092 16bd
000000a0: 2721 8f3d 06c1 453d 52ad 93bc 3af1 25bd
000000b0: 381b cfbd a8ca 903c dd5f 5cbd edd4 1bbd
000000c0: 681a a6bd bfc7 ad3d 6a3f 21bd 3a67 abbd
000000d0: 69f8 9bbd 1897 80bd 7237 703d 5a21 0abd
000000e0: f9e6 6dbc 4048 64bd ab2f b1bd 0b72 7dbd
000000f0: a0c7 ffbd 1876 283c d675 68bd 273f bebc
00000100: 0030 ff37 d38f 843d 3309 7ebd 2f7d 153d
00000110: e85d a8bd facf d23a 41b7 ccbd 64cc 20bd
00000120: a190 db3d 1710 253d c37d 39bc f25e 09bc
00000130: 70d1 febd 7ccc 9cbd f091 0abc 58fe a33b
00000140: d07b 1d3c ca29 913b fed2 883d 4049 2dbd
00000150: 8bda 4abd 861a 2cbd 43a3 64bd 8d6d cdbd
00000160: 72ae a9ba 683c 0f3c aed6 633d b566 cebc
00000170: b8b0 87bd f691 453d c1b0 87bd 2f60 b9bd
00000180: 2fff 503d 1a2d 133d ee16 9bbd 5fa5 c7bd
00000190: 5dac 95bd 6dca 83bc 334b 5cbd f0d5 5cbd
000001a0: 4f93 9c3c e426 94bd 9ee9 82bd 9c83 bfbd
000001b0: d02d 6c3c 3467 763b 70d4 1abd 6059 0cbd
000001c0: 10e8 063c 6497 593d 114e a0bc 58b7 05bc
000001d0: 4a0b 063e 2086 09bd d98e b83d 27d4 f3b8
000001e0: 3006 c13b 6b0b efbd a4b8 a2bb d47c cb3c
000001f0: b59a a4bd 537d a13d 962b aabb 70e8 563d
00000200: 8286 173d 15a6 f9bd 28b0 323c 2ae9 cabd
00000210: f587 4d3d e217 6b3d 5c48 863d c77a a93c
00000220: 6aff 87bd 3868 c5bc d811 b5bb 0e86 9bbd
00000230: 40b7 f9bc fd9a 1dbd 36ce e73c 49de c03d
00000240: 53af 833d c4d8 343d c2f8 f2bd 246f 07be
00000250: f5fc a6bd eb47 853d a007 473d 2fd7 2b3d
00000260: d588 503c 38d4 903d 08a1 a8bd 5a69 1abd
00000270: c143 00be 00b5 e0b9 e968 95bc 394d 0e3b
00000280: 882e b2bd a89f a3bd 68f8 ed3c 3f5e 13bc
00000290: 5056 a2bb ea3e ce3c 14ec df3c 9209 02bd
000002a0: b6b7 593d 573b 173d 7768 f53c b450 623d
000002b0: 76c4 b93d 3531 0bbd 42c9 1c3d 0681 70bd
000002c0: adb6 193d 12eb fb3c 426a 563d 4d39 473d
000002d0: 82e4 debd 7c4e afbd 98f6 e43c 803a 113d
000002e0: 2e23 3c3d 48a4 10bd fe03 1bbd c46d 0ebe
000002f0: 402c 893d a7dd 3bbd 8bcc 55bd 6221 15bd
00000300: 8e59 123d 42a2 17bd f266 453d 2d10 3cbd
00000310: 10a1 c83d 8b6f 943d 0b29 2fba f3c4 1bbd
00000320: ba46 bfbc 8ae7 cbbd 444a 2b3d 4d00 afbd
00000330: 8013 9c3c ce21 843d b26d a4bd 693f 6cbd
00000340: 0026 943a 7458 803d 4a54 dabb f28b a7bd
00000350: 8e70 6b3d fbaa 71bd d0c5 a2bd ab83 103d
00000360: 2eb5 703d 8492 82bd 9988 b23d 90a8 1dbd
00000370: 76b8 443d cd4d b23c ea8f e5bd 961f 95bd
00000380: ed22 973d 2a64 8ebd cee0 a8bd cc4b d9bc
00000390: 99c8 873d a81c 49bc b1be 823d 312e 80bc
000003a0: 3c48 02bd 5857 903c 4a96 2fbd 720d 8e3c
000003b0: d203 c1bd b067 783c 2b9b 6ebd b4a9 6a3d
000003c0: b49f fb3c 708b 07bd 07e0 9fb9 3831 b3bd
000003d0: 9cbc 8fbd d55a 9b3d 84f8 a4bd a22d 9abd
000003e0: 041a 80bd 4eb4 6abd fb4e 033d bf7f c4bd
000003f0: 1c88 283d 397d 4bbd 6fb5 b8bd 7415 a13c
0.06128033 -0.03283845 0.069687776 -0.055585794 -0.12579459 0.046805106 -0.065387726 0.05920887
0.022937514 -0.08046169 -0.06757013 0.058031388 0.05119551 0.0900493 0.054529272 0.0675
0.13751493 -0.07992955 -0.062640764 -0.111225225 -0.092152335 -0.06416089 -0.083694726 -0.06683381
0.0813343 0.00020834059 0.059649326 0.030532604 0.039102025 -0.028119843 -0.09050436 0.07018708
0.047216464 0.01390145 0.029333016 0.055827297 -0.08051095 -0.051638614 0.048727065 -0.036761105
0.06988745 0.048279785 -0.018026982 -0.040513255 -0.101126134 0.017674759 -0.05380236 -0.03804486
-0.08110505 0.08485364 -0.039367117 -0.08369298 -0.0761574 -0.06278819 0.058646627 -0.033723213
-0.0145204 -0.055732965 -0.0865167 -0.061876338 -0.12489247 0.010282062 -0.056753002 -0.023223473
3.042072e-05 0.06472745 -0.06202049 0.036496338 -0.08221036 0.001608371 -0.099958904 -0.039257422
0.10720945 0.040298548 -0.011321488 -0.008384453 -0.12442291 -0.0765619 -0.008457646 0.0050046854
0.009612039 0.0044300305 0.066808686 -0.042306185 -0.049524825 -0.042017482 -0.05581976 -0.10030661
-0.0012945666 0.008742429 0.055624656 -0.025195459 -0.06625503 0.048234902 -0.0662551 -0.09051549
0.051024612 0.035931684 -0.07572733 -0.09748339 -0.07308266 -0.016087735 -0.053782653 -0.053914964
0.019113211 -0.0723398 -0.06392215 -0.09351274 0.014415219 0.0037598135 -0.037800252 -0.034264922
0.008234039 0.053122893 -0.019568475 -0.008161388 0.13090244 -0.033575177 0.09011621 -0.000116266594
0.00589063 -0.116721 -0.0049658585 0.024839796 -0.080373205 0.07885232 -0.005193184 0.052467763
0.03699351 -0.12189881 0.010906257 -0.09907754 0.050178487 0.057395823 0.0655677 0.020688428
-0.06640513 -0.024097547 -0.005525809 -0.07593928 -0.030482888 -0.038477886 0.028296571 0.094173975
0.06429925 0.044152036 -0.11863853 -0.1322599 -0.081537165 0.06507858 0.048591256 0.041953262
0.012727936 0.070717275 -0.08233839 -0.037698127 -0.12525846 -0.00042859465 -0.018238502 0.0021713509
-0.087002814 -0.079894364 0.029049113 -0.008994638 -0.004954137 0.025176484 0.02733425 -0.03174741
0.053153716 0.036921825 0.02995704 0.055252746 0.09070675 -0.033982474 0.038277872 -0.058716796
0.03752773 0.030751739 0.05234743 0.04863863 -0.10883428 -0.085598916 0.027949616 0.03545618
0.045931987 -0.03531292 -0.037845604 -0.1390906 0.06697893 -0.04586568 -0.05219702 -0.03640879
0.035729937 -0.037019975 0.04819388 -0.045913864 0.09796345 0.07247838 -0.0006681836 -0.038029622
-0.023349155 -0.09956272 0.041818872 -0.08544979 0.019052267 0.0645176 -0.08028735 -0.05767766
0.0011302829 0.06266871 -0.00666288 -0.08180989 0.057480387 -0.05900095 -0.07947886 0.03528182
0.058766536 -0.06375602 0.0871746 -0.03849083 0.04802748 0.021765614 -0.1120909 -0.07281415
0.073797084 -0.069526985 -0.08246003 -0.0265254 0.06630058 -0.012274899 0.06384028 -0.015647026
-0.03180717 0.017619774 -0.042867936 0.017340396 -0.09424557 0.01516144 -0.05825345 0.057290748
0.0307158 -0.033091962 -0.00030493757 -0.08749622 -0.07018396 0.07585684 -0.08055213 -0.07528235
-0.06254962 -0.05730086 0.032057744 -0.09594678 0.04114543 -0.04967997 -0.09018981 0.01966355

predictor.2.bias f4 [100]
00000000: db80 20bc aea7 5f3d f729 b0bd 2ea9 b9bd
00000010: a5a6 8abe 3bad f6bd 4ba9 9f3d 93b5 0abf
00000020: 632c a7bd 723b bbbd 1667 2cbd d664 89bd
00000030: c270 a83c a4ea 68bd 3195 a9bb dc5b 693f
00000040: dcc3 903d b334 8dbd e5bd 42c0 0531 a8bd
00000050: 87f8 61bd 84c1 39bd 877a 393d e09c adbd
00000060: e49d fcbc 8110 9e3d 3a5d 53be bbb7 833e
00000070: 5433 aebc d0b3 1abd 84d5 cf3c a4a6 293d
00000080: 275b 85bd e185 88bc ac15 48bd 4f9e fd3c
00000090: c4e1 6dbf 6421 d53c fbe0 8e3d 9f70 40bd
000000a0: e393 2c3c 79ce dfbc 4cb1 d6bd 53f5 5b3c
000000b0: cd8c ffbb 4560 81bd 98cd b83c 4d6d c23d
000000c0: bc18 cf3e 0480 8740 f39c 4ac0 0a61 8f3d
000000d0: 6c00 50bd 19f7 65bd 37c5 e0bd c60a 96bc
000000e0: 00bc 30bc 096f 6f3d 956d c7bd bb5a a4bc
000000f0: 5957 6cbd 2cfd 14be 532b 5bbd f801 853f
00000100: 6d1b adbd 4932 803d 0eec 96bd 8cb8 a53d
00000110: f04f 24bc 7372 29bd 9dc0 893c bc50 46be
00000120: d1b4 83bd a894 d138 2343 5fbd bdd4 1c3d
00000130: 6a8a 31bd 5fee 16be dc86 e2bf 5605 0cbd
00000140: 0239 2dbd 2052 92be 3396 783d 5d2d 8f3d
00000150: 61da 20be 5112 44bf 8047 323d f4b9 cfbf
00000160: d4e2 65bd 2058 a8bb 3437 9bbc 42e0 3a3d
00000170: 065c 8fbd 901d 81bd f6d7 ef3c 78f7 c1bd
00000180: fbc4 70bf 4148 033f 6553 98bc c863 b5bd
-0.009796347 0.05460327 -0.08601754 -0.090654716 -0.27080265 -0.1204476 0.07795962 -0.5418331
-0.08162763 -0.09142198 -0.042090498 -0.06708686 0.02056158 -0.056864396 -0.0051752557 0.9115579
0.07068607 -0.06894817 -3.0428402 -0.08212475 -0.055168655 -0.045350567 0.045282867 -0.08477187
-0.030837007 0.077179916 -0.20641032 0.25726113 -0.02126471 -0.03776914 0.025370367 0.041418687
-0.065115266 -0.016665401 -0.048848793 0.030959276 -0.92922616 0.026016898 0.06976505 -0.046982404
0.010533306 -0.027320134 -0.104830354 0.013425189 -0.007798767 -0.0631719 0.022558972 0.09493504
0.40448558 4.234377 -3.1658294 0.070009306 -0.050781652 -0.056143854 -0.10975116 -0.018315684
-0.01078701 0.0584555 -0.09737698 -0.020062795 -0.05770049 -0.14549702 -0.053508114 1.0391226
-0.08452497 0.06259591 -0.073692426 0.0809184 -0.010028824 -0.041368913 0.016815478 -0.19366735
-0.06430972 9.993586e-05 -0.054507386 0.03828882 -0.043344893 -0.14739369 -1.7697406 -0.034184776
-0.042290695 -0.2857828 0.060690116 0.06991074 -0.15708305 -0.7659045 0.04352522 -1.6228623
-0.056124523 -0.0051374584 -0.018947221 0.045624025 -0.06999974 -0.06304467 0.029277783 -0.09471029
-0.9405057 0.51282126 -0.018594453 -0.088569224

predictor.4.weight f4 [4, 100]
00000000: 791e 0a3d 9ef4 483d b59c 74bd 581e 9cbd
00000010: 2816 eabd 8a66 d43c 8ad1 57bd adbf b53b
00000020: 7c05 953d 028c 013d 2a00 1bbd 222e 6c3d
00000030: 50c8 78bd 3b65 583d d1c5 a1bc 6525 eb3c
00000040: 2832 1ebc 744f 1abd 578b fcbd 2f77 c73d
00000050: 9353 9b3d e7d2 f13b c1d8 6c38 c7d7 923d
00000060: 2db3 3cbd bae7 2ebd e421 803b 2559 7b3d
00000070: 587c 3a3c d4f0 ee3d 41c1 c53d 71bb 82bd
00000080: 8e23 333d 6bb4 0f3d 2c97 9ebd 8dc4 05bd
00000090: 3d72 cd3b e8b1 35bc 9ce3 febc b2a7 4a3d
000000a0: 43c5 733d 3060 923d bd23 6ebd 69d6 7c3d
000000b0: ea22 d23d 00ff 49bc dd5e e63d 2bb1 c73d
000000c0: 5b00 143d 759c 063c a524 5abc b97c 503d
000000d0: e378 a13a 501d 1ebd 5705 cc3b 74e7 bf3c
000000e0: e7d4 26bd b229 23bb f45e ebbc 2aa9 f1bc
000000f0: 5550 c1ba f716 d73d 3611 c4b8 90a7 e23d
00000100: 97a0 29bd 74ca 7b3c 676a 4abd e72c 7c3d
00000110: f649 533d c29f 3d3d 67a6 a5bb df48 073e
00000120: f190 473d cd0f 6b3d b825 a3bd ba31 0cbc
00000130: 94c9 92bc 7b75 613d 16c5 f13c 8c1c c93c
00000140: 3d3b bb3c 48d8 dd3c e1f8 a9bd 204f babb
00000150: cb57 7e3d 9494 a7bd f3ef ba3d d351 20bd
00000160: 7e43 843d a72d 873d 08d9 d33c 48f0 a9bc
00000170: 8a91 ae3c 43d1 023d d96b 79bd 040e e93c
00000180: 9866 14bd 63db 923d 70f8 003c 8021 bc3b
00000190: e9f6 a63c 4f39 24bd 5c13 e8bc 72ed 6a3c
000001a0: 1df9 4dbd 943a 6b3d 7d39 6fbd bb2b e0bd
000001b0: 4952 073d 30a9 99bd 53c2 173d 107e 5dbc
000001c0: bc64 483b 5e3d 023c 7990 8abd 654e 453d
000001d0: 5617 633b 4f3b a4bc 2aa7 cbbe 9518 ab3d
000001e0: 6afd 8abd 3087 8e3b 06e6 a9bc 0531 adbd
000001f0: 721e 5a3b 40d8 033b 493f d3bb daf2 0e3d
00000200: a781 2abd 1a00 773d dd57 bbbd 68e6 353d
00000210: aa35 b13d e41d 70bb 0453 41be 8d42 413d
00000220: b621 19be 888f b0bc d033 893c 4096 a5bc
00000230: 4ea6 44bc d40e 82bc fdfe ccbc 9835 db3d
00000240: 4d3f 8b3d a8ad 7d3c c7c4 7d3d 6819 533c
00000250: 0595 743d 8122 013f 2c60 97be f7b1 0c3d
00000260: fe62 3cbd 37f0 3dbd 67a7 443d 35c0 863d
00000270: d39e 71bd 5868 8abd fd03 40bd 5cb6 22bd
00000280: 3e04 92bc 8e98 9cbc 338b b7bb 43a8 d73c
00000290: 7df1 ec3b 759f 753d 75aa 94bd 35a5 3c3d
000002a0: 12e6 773d 0074 433d 4d31 85bd 27f1 2bbc
000002b0: 0994 84bc 1bed 8c3d 87bb 923d 19c6 ee3d
000002c0: c8c8 ccbd a89a 0dbe 948a 88be 17b8 1dbd
000002d0: fe87 743c 1750 09bd 6955 893d 6393 79bd
000002e0: b2ed f73d a470 323d 78bf c43d 23cf 14be
000002f0: c20e 603d 727a 1d3d a862 043b c0a6 de3a
00000300: bc18 5d3d 27c7 eebc 10ff 253d ca39 85bd
00000310: 2981 9abd 65d1 573d 8958 66bd 00ea 41bd
00000320: 3f04 583d 6adb 68bd dfe7 9f3d 2ce6 bebc
00000330: 29bb 77bd f32f 94bd 56e5 513d eb5f 1f3d
00000340: d824 9f3d 6b4d b03d cbe8 63bd 8a66 68bd
00000350: 2e8a dfbd 19e9 65bd a9f3 47bd 8861 06bd
00000360: 73e2 58bd 4246 f13a aebb 4e3e f47c a43c
00000370: 6318 8ebd 7c9d 67bd ea1a 9fbc b6b9 a2bd
00000380: 61b5 57bd 8e81 7a3d 6e53 61bc f0d8 813d
00000390: 3d12 a23d 6a6a 02be d7e1 35bd e562 23bd
000003a0: 924e 9abd 9423 b63c 5f86 edbd d66c 483d
000003b0: 09fe 8d3c dbea 97bd 5b51 ef3b 9cfa 263d
000003c0: 7154 8d3d 13b6 8ebc e78d 66bd e37d ab3b
000003d0: 1033 b83d 20e7 b0bb c41a d03d 2d2c c5bd
000003e0: 66ee 7dbd 81c8 d2be 0d51 423e 62a1 0fbd
000003f0: 56d6 8ebc b309 04bc d264 3abb b024 b53c
0.033720467 0.04906141 -0.05971976 -0.07622975 -0.11430007 0.0259278 -0.052690066 0.005546531
0.07276437 0.031627662 -0.037841953 0.057661183 -0.060737908 0.052830916 -0.019747647 0.028704355
-0.009655513 -0.03767343 -0.123312645 0.09739529 0.075843 0.007379878 5.6468652e-05 0.071700625
-0.046069313 -0.04270146 0.00391029 0.06136431 0.011382185 0.11667028 0.09656001 -0.06383408
0.04373508 0.03508417 -0.077436775 -0.03265815 0.006269722 -0.011089779 -0.031114392 0.049476333
0.059514295 0.071472526 -0.05813955 0.061727915 0.102605656 -0.012328863 0.112485625 0.09750589
0.03613315 0.008216013 -0.013314401 0.050900195 0.0012319352 -0.038602173 0.0062262225 0.023425795
-0.040730383 -0.0024896679 -0.0287318 -0.029499609 -0.0014748672 0.10502427 -9.349214e-05 0.11067116
-0.041412916 0.015368093 -0.04941788 0.06156626 0.051584207 0.046294935 -0.005055237 0.13211392
0.04872221 0.057388116 -0.07966179 -0.008556778 -0.017918386 0.05504368 0.029512923 0.024549745
0.022855395 0.02708067 -0.08299423 -0.005685702 0.062095445 -0.08182636 0.09127798 -0.039140534
0.064581856 0.06600504 0.025860325 -0.020744458 0.021309633 0.03193785 -0.060893867 0.028449066
-0.036230654 0.07170751 0.007871732 0.005741298 0.020381408 -0.040093716 -0.028329544 0.014338838
-0.0502864 0.05742891 -0.058404434 -0.10945841 0.033037458 -0.07502973 0.037050556 -0.013518825
0.003057762 0.007949201 -0.06765837 0.048170466 0.003465136 -0.020047812 -0.39775974 0.08354298
-0.06786616 0.0043496117 -0.020739567 -0.08456615 0.0033282307 0.0020117909 -0.006446753 0.03489957
-0.041627552 0.06030283 -0.09147618 0.044409186 0.08652814 -0.003663891 -0.18879324 0.04718261
-0.14954266 -0.021552816 0.016748339 -0.020213246 -0.012002541 -0.015876211 -0.025023932 0.107035816
0.06799183 0.015483297 0.06195524 0.012884475 0.05971243 0.50443274 -0.2956556 0.034349408
-0.045992844 -0.046371665 0.04801121 0.06579629 -0.058989357 -0.06758183 -0.046878804 -0.039724693
-0.017824288 -0.019115712 -0.0056013106 0.02632535 0.007230936 0.059966523 -0.072590746 0.04605599
0.060522147 0.047718048 -0.06503544 -0.010494507 -0.01618387 0.06881162 0.07164674 0.11658878
-0.099992335 -0.13828528 -0.26668227 -0.03850564 0.014925001 -0.033523645 0.06705744 -0.060931575
0.12105884 0.043564454 0.09606832 -0.14532141 0.054701574 0.03844685 0.0020200405 0.0016986951
0.053978667 -0.029147698 0.04052645 -0.06505163 -0.075441666 0.05268993 -0.056236777 -0.0473423
0.052738424 -0.056849875 0.07807898 -0.023303114 -0.060481224 -0.07235708 0.051244102 0.038909834
0.07770699 0.08608516 -0.05564193 -0.056738414 -0.109150276 -0.056130502 -0.048816357 -0.032807857
-0.052950334 0.0018407779 0.20188782 0.020079114 -0.06938245 -0.056546673 -0.019422013 -0.07945578
-0.05266321 0.06115871 -0.013752801 0.06340206 0.07913635 -0.12735906 -0.04440483 -0.039889235
-0.07534517 0.022233762 -0.11597895 0.04893192 0.017333047 -0.07417842 0.0073033995 0.040766343
0.069008715 -0.017420804 -0.056287672 0.0052335127 0.089941144 -0.005398646 0.10161355 -0.096275665
-0.061994933 -0.41168597 0.18976231 -0.035066016 -0.017436188 -0.008058953 -0.0028441441 0.02211222

predictor.4.bias f4 [4]
00000000: 9568 e73f e1a0 1e40 20e8 14c0 b81e 5ebf
1.8078791 2.4785693 -2.3266678 -0.86765623
