models/squares/100/class0_student_config.pt (torch, 45639 bytes, 6 tensors)

predictor.0.weight f4 [100, 2]
-0.3993797 0.34270293 -0.119232655 -0.38084576 -0.30700192 0.54195803 0.39317846 0.3949125
-0.5421077 -0.61110157 -0.2688517 -0.4948969 -0.033948828 0.13245279 -0.37285417 0.48196748
-0.036862195 -0.5395131 -0.55004585 -0.27932748 -0.6056727 -0.15525556 -0.016720569 0.043199636
-0.34468392 -0.11650753 -0.17283982 0.31333438 -0.32820198 0.18565717 0.24104558 0.45926973
0.1665379 -0.65488136 -0.8517917 0.02195421 -0.67768365 -0.18447024 0.64679646 -0.24802689
-0.045456238 0.45599225 0.24150017 -0.190225 0.65184003 0.014389978 -0.4034667 -0.13297355
0.63281447 -0.029773116 0.18819375 -0.529641 -0.15735954 -0.698106 -0.19143395 0.2719954
-0.049194682 0.21078786 0.053952787 0.08838826 0.44569558 -0.5352193 -0.61844444 -0.30787724
0.10863659 -0.058468785 0.023089778 0.18505666 -0.1774314 -0.13759303 -0.592261 0.56939447
0.22433133 0.5114203 0.5520844 -0.27850047 0.21746954 -0.4602867 0.3284245 -0.3707659
-0.36320624 0.1426244 -0.17526692 -0.31723553 0.13969232 0.48717406 -0.49370852 0.58497524
0.2470277 -0.26287735 0.51909053 0.6495323 0.11102321 -0.00076283683 -0.22606826 0.0720486
0.42331004 0.48487133 0.64899236 -0.5857114 -0.5191886 0.4739464 -0.11088394 0.57038033
0.14904618 -0.12690853 0.08809306 -0.07290836 -0.26177713 0.67712545 -0.40380323 -0.04090464
0.06159079 0.14157347 -0.50705564 -0.19795752 -0.8856722 0.03962542 0.43913305 -0.20175709
-0.3496725 -0.06600499 -0.066060364 -0.50436306 0.20467426 0.4903153 -0.20070851 -0.35361946
0.3435468 0.29781553 0.074493885 0.08011719 0.5590072 -0.57364756 -0.47720268 0.6588902
-0.37141302 -0.53862685 -0.16403413 0.47167656 -0.23053315 -0.29746065 -0.32514995 -0.14286178
-0.4365283 -0.34899563 -0.09720884 0.49278703 -0.35259095 0.3081257 -0.55153173 -0.3487285
-0.31284624 0.25936493 -0.07278996 0.35447422 -0.15018171 -0.68248516 -0.04788164 0.21813343
0.25590497 0.2628865 -0.02942264 -0.004938543 0.2510603 -0.056316335 -0.3792558 -0.26862764
-0.25989676 -0.25706753 0.5454759 -0.26538202 0.58976763 -0.5416786 -0.16140904 0.6379688
-0.3105608 0.102506354 0.6685687 0.15960805 0.43696085 -0.009089442 -0.39971772 0.6786925
-0.021934262 0.08668026 0.38316864 0.5110913 -0.15006642 0.24521117 -0.51338494 -0.6925592
-0.6423251 0.4512857 0.10505155 0.06638587 -0.40937427 -0.58558834 0.15742466 -0.7532675
00000000: 7f7b ccbe c276 af3e 4030 f4bd 37fe c2be
00000010: 5b2f 9dbe c3bd 0a3f b04e c93e f931 ca3e
00000020: 92c7 0abf 2771 1cbf eea6 89be 2063 fdbe
00000030: ed0d 0bbd b4a1 073e bee6 bebe 71c4 f63e
00000040: d0fc 16bd 881d 0abf cecf 0cbf 0304 8fbe
00000050: 5e0d 1bbf 50fb 1ebe 93f9 88bc 1af2 303d
00000060: 697a b0be 809b eebd ecfc 30be 5d6d a03e
00000070: 170a a8be ea1c 3e3e a7d4 763e 6725 eb3e
00000080: e988 2a3e 4ea6 27bf 050f 5abf 51d9 b33c
00000090: ad7c 2dbf c4e5 3cbe 7494 253f c3fa 7dbe
000000a0: 5230 3abd d177 e93e d24b 773e 58ca 42be
000000b0: fdde 263f f1c3 6b3c 3093 cebe 382a 08be
000000c0: 2100 223f c0e6 f3bc ddb5 403e 8d96 07bf
000000d0: dc22 21be 13b7 32bf 4307 44be fb42 8b3e
000000e0: 5d80 49bd c6d8 573e 99fd 5c3d e704 b53d
000000f0: 3632 e43e 2204 09bf 6052 1ebf 16a2 9dbe
00000100: dc7c de3d f77c 6fbd c626 bd3c 7e7f 3d3e
00000110: 94b0 35be 30e5 0cbe 6b9e 17bf d6c3 113f
00000120: 1db7 653e 71ec 023f 6755 0d3f 9d97 8ebe
00000130: 56b0 5e3e b3aa ebbe 4227 a83e 07d5 bdbe
00000140: 2bf6 b9be 210c 123e 2c79 33be b26c a2be
00000150: 810b 0f3e e16e f93e 5dc7 fcbe f0c0 153f
00000160: d4f4 7c3e dc97 86be 1ee3 043f c047 263f
00000170: 2360 e33d 1df9 47ba 707e 67be 378e 933d
00000180: 18bc d83e 0e41 f83e 5d24 263f 2ff1 15bf
00000190: 8be9 04bf 1aa9 f23e 1e17 e3bd 7204 123f
000001a0: 909f 183e 4ff4 01be 226a b43d fa50 95bd
000001b0: a707 86be 1858 2d3f 4cbf cebe a08b 27bd
000001c0: a046 7c3d a3f8 103e 66ce 01bf 60b5 4abe
000001d0: 6abb 62bf 444e 223d 0cd6 e03e 6999 4ebe
000001e0: 4608 b3be a02d 87bd a84a 87bd f01d 01bf
000001f0: 2196 513e 9b0a fb3e 8886 4dbe 9c0d b5be
00000200: 5ee5 af3e 477b 983e 4090 983d 7b14 a43d
00000210: 191b 0f3f 91da 12bf e953 f4be 07ad 283f
00000220: d929 bebe 73e3 09bf 90f8 27be 977f f13e
00000230: e210 6cbe c34c 98be 0e7a a6be 5c4a 12be
00000240: a380 dfbe 8eaf b2be 6e15 c7bd 954e fc3e
00000250: cd86 b4be a7c2 9d3e 2f31 0dbf 8b8c b2be
00000260: 622d a0be 7bcb 843e e712 95bd a57d b53e
00000270: 3cc9 19be 59b7 2ebf 8a1f 44bd 5f5e 5f3e
00000280: fa05 833e 0f99 863e c007 f1bc 80d3 a1bb
00000290: fa8a 803e f5ab 66bd d12d c2be 9089 89be
000002a0: 3011 85be 5b9e 83be 4fa4 0b3f 27e0 87be
000002b0: 03fb 163f 73ab 0abf 6948 25be ec51 233f
000002c0: d301 9fbe daee d13d 5127 2b3f 4b70 233e
000002d0: 55b9 df3e e2eb 14bc cda7 ccbe cbbe 2d3f
000002e0: 7baf b3bc 6c85 b13d ae2e c43e e1d6 023f
000002f0: 03ab 19be a318 7b3e 326d 03bf 8f4b 31bf
00000300: 6b6f 24bf eb0e e73e 4425 d73d 51f5 873d
00000310: 8199 d1be 1ee9 15bf ee33 213e 24d6 40bf

predictor.0.bias f4 [100]
2.6241698 0.09927797 -1.6023958 -1.2412546 0.28504056 0.12467861 2.1207209 -1.9960166
0.39379567 0.40824014 -0.33720496 -0.4496992 -0.54292995 2.418375 2.5281274 2.4963388
4.292638 1.9954383 -0.59215796 -2.0170574 0.39763978 2.0989432 -2.605579 -0.24601984
1.566976 -2.7364326 -0.56285954 2.475675 -2.0506902 1.744139 2.1131892 0.7018494
-3.1329312 -2.9168234 0.6935914 -1.8795568 2.109457 2.6256032 -2.3693507 -2.773763
-2.7396357 -0.046696424 1.8995516 -2.7172623 2.613999 -2.183103 -1.746916 2.766064
-2.3657851 -1.4020236 2.4483426 -2.6559975 3.2279308 3.193012 2.1292627 -0.6331963
-1.764821 -0.046995103 -1.2915311 2.707021 -0.36015248 0.4753986 -2.2903767 -0.10444796
1.8755304 2.999996 1.6186899 2.1252873 -0.31282106 2.104465 0.5165629 0.40427488
0.22551382 -2.1504567 -2.7138824 -0.046477854 2.59043 2.1498494 -0.22110516 -1.647049
-2.356309 -0.6886188 -2.1829329 -0.5125742 -0.08497751 -2.3136194 -2.7612967 2.1472437
2.0360906 -2.6668668 2.5808153 -2.1190872 -1.388878 -2.6350863 -3.2945287 -0.47982246
-1.8845387 2.912785 0.42134482 2.3316371
00000000: 66f2 2740 4052 cb3d 4e1b cdbf 6ee1 9ebf
00000010: d6f0 913e 8057 ff3d e4b9 0740 797d ffbf
00000020: 969f c93e da04 d13e 21a6 acbe f93e e6be
00000030: 75fd 0abf a8c6 1a40 d7cc 2140 04c4 1f40
00000040: 4a5d 8940 866a ff3f aa97 17bf 7817 01c0
00000050: 7197 cb3e 1655 0640 cec1 26c0 a0ec 7bbe
00000060: ab92 c83f b621 2fc0 9017 10bf 7671 1e40
00000070: 823e 03c0 f23f df3f 7e3e 0740 67ac 333f
00000080: f281 48c0 3cad 3ac0 358f 313f 5195 f0bf
00000090: 5801 0740 e209 2840 71a3 17c0 5585 31c0
000000a0: 3156 2fc0 c044 3fbd 8224 f33f a0e7 2dc0
000000b0: c24b 2740 f6b7 0bc0 f29a dfbf 3107 3140
000000c0: 0669 17c0 8275 b3bf a5b1 1c40 ddfb 29c0
000000d0: 6b96 4e40 4f5a 4c40 d745 0840 2719 22bf
000000e0: a8e5 e1bf f07d 40bd e450 a5bf d53f 2d40
000000f0: e865 b8be 7267 f33e 8895 12c0 d0e8 d5bd
00000100: 6111 f03f efff 3f40 3b31 cf3f b504 0840
00000110: 152a a0be 8eaf 0640 773d 043f 1efd ce3e
00000120: 18ed 663e 15a1 09c0 40b0 2dc0 905f 3ebd
00000130: 9bc9 2540 2297 0940 6469 62be 80d2 d2bf
00000140: c4cd 16c0 5249 30bf 2cb5 0bc0 1038 03bf
00000150: b008 aebd 5712 14c0 16b9 30c0 716c 0940
00000160: 4f4f 0240 f2ad 2ac0 142c 2540 209f 07c0
00000170: c1c6 b1bf 41a5 28c0 8fd9 52c0 4aab f5be
00000180: 9038 f1bf 126b 3a40 82ba d73e 8b39 1540

predictor.2.weight f4 [100, 100]
-0.08557314 0.06759877 -0.023535833 -0.0705981 0.051029213 -0.058257546 0.08308207 -0.091466784
-0.00563886 -0.0041169375 0.012706578 -0.079643846 0.012117304 -0.07980816 -0.05224365 -0.041529037
0.08065521 0.008596301 0.077229895 0.06827002 -0.09158701 -0.01859875 -0.09912641 -0.075773254
0.04820486 0.07874865 0.003915988 0.09685213 -0.09923494 -0.011300407 -0.08644246 0.06401437
-0.031356677 -0.016279377 -0.021712638 -0.009692803 0.032808907 -0.091462485 0.014458694 -0.06676537
0.07827885 -0.047111224 -0.06704979 -0.058458246 0.003984511 -0.04850484 0.08513635 0.07256771
-0.08743187 0.02008973 0.06880643 -0.042446878 -0.054452468 0.0782646 0.038382716 0.063305
0.026316546 -0.056909252 -0.023843028 -0.06583913 -0.021560207 -0.006561771 0.0801147 -0.015413046
0.029019944 0.012497582 -0.055274367 0.06373822 0.05845032 0.026811413 -2.1457672e-05 0.040774263
-0.09740522 -0.03325872 -0.073994435 -0.08793453 -0.042281773 0.05339081 -0.023945428 -0.04797968
-0.06785375 0.054303713 0.022412859 -0.032528855 0.07811781 -0.09357547 -0.06140852 -0.011825681
-0.061368253 0.0060097426 -0.05766399 -0.070279434 0.0052538663 0.02307006 0.010405377 0.08396333
0.07825107 -0.05648427 0.031224199 0.08446198 -0.075214446 0.053591453 -0.09723039 -0.04811405
0.07056869 -0.03461288 0.015403822 -0.09706169 0.03202676 -0.02855219 -0.031553566 -0.020631671
0.084722586 0.043433525 -0.072676875 -0.059201684 -0.008139148 -0.052206587 0.050563075 -0.0033108443
-0.0838362 0.06943657 -0.09451008 0.008892238 -0.038795926 -0.037322745 0.09545665 0.037243374
-0.067391545 -0.046479177 -0.008304343 0.0029814467 -0.07793206 0.08936415 -0.092703536 -0.04306165
0.025119133 0.089575015 0.056350537 -0.08387263 0.0058892146 -0.07705481 -0.06815009 -0.038431764
0.0030259266 -0.079889975 -0.09696704 -0.035912752 -0.054103207 0.00023625791 -0.0020098686 -0.042551327
-0.015636265 0.09947152 0.032185204 0.025881492 -0.05020169 -0.075368725 -0.00042970479 -0.074634954
0.06977037 0.050327264 0.08763265 0.030759163 -0.041056264 -0.08898979 0.029473193 -0.059203137
0.03567008 -0.06475867 0.045220666 -0.07906091 -0.07315286 0.050087236 0.08320845 -0.0745499
-0.038480032 0.069928326 -0.014698088 -0.038103905 -0.043923844 0.029569797 -0.09643459 0.096368946
-0.076205134 -0.0677329 -0.005787872 0.07879228 0.04036445 -0.021312341 -0.0300899 -0.07237439
-0.063625336 -0.00048470497 0.08902525 0.034340627 -0.078318596 0.08582998 0.046765156 -0.09440371
0.0020702854 0.019450285 -0.047801055 -0.0147541985 -0.030413404 -0.024720415 -0.050489377 -0.040127076
-0.0007313639 -0.028814211 0.036190398 0.054919295 -0.035635784 -0.0029175654 -0.039195348 -0.05154693
0.058446117 -0.04542135 0.064198665 -0.036615632 0.0029731765 -0.016144976 -0.034888282 -0.07675151
0.027569674 -0.08550429 -0.031274065 0.016691431 0.042741112 -0.077210024 0.059111975 -0.08040863
0.08290128 -0.062360417 -0.0922385 0.03832317 -0.08065108 0.06668835 0.03902345 0.069894604
-0.09926511 0.006607294 -0.09534355 0.030240722 -0.026303366 0.09753462 -0.008076176 0.031197138
-0.09166618 -0.09483633 0.087863155 0.047913797 0.0024877787 -0.03372822 -0.05690911 0.043443196
00000000: f840 afbd 3971 8a3d 38ce c0bc bd95 90bd
00000010: 0204 513d 779f 6ebd ef26 aa3d f052 bbbd
00000020: 30c6 b8bb 60e7 86bb 402f 503c 501c a3bd
00000030: a887 463c 7672 a3bd 70fd 55bd 5a1a 2abd
00000040: 8f2e a53d 80d7 0c3c b52a 9e3d 27d1 8b3d
00000050: f891 bbbd 685c 98bc ca02 cbbd 022f 9bbd
00000060: 7672 453d f946 a13d b051 803b 695a c63d
00000070: b03b cbbd 5825 39bc bf08 b1bd f719 833d
00000080: dc6f 00bd 545c 85bc b4de b1bc 90ce 1ebc
00000090: a262 063d af50 bbbd 28e4 6c3c 48bc 88bd
000000a0: a950 a03d b3f7 40bd 6651 89bd ea71 6fbd
000000b0: 8090 823b 03ad 46bd f75b ae3d 619e 943d
000000c0: 7b0f b3bd 3893 a43c 63ea 8c3d c7dc 2dbd
000000d0: 8d09 5fbd 3149 a03d 3237 1d3d 0da6 813d
000000e0: cc95 d73c ad19 69bd 7452 c3bc aad6 86bd
000000f0: 089f b0bc 2004 d7bb 2d13 a43d 0087 7cbc
00000100: 3cbb ed3c a8c2 4c3c 6067 62bd 2f89 823d
00000110: 9a69 6f3d 9ca3 db3c 0000 b4b7 ea02 273d
00000120: 637c c7bd 4c3a 08bd 658a 97bd 0517 b4bd
00000130: a72f 2dbd 52b0 5a3d 3429 c4bc 5786 44bd
00000140: e8f6 8abd 926d 5e3d 2c9b b73c fa3c 05bd
00000150: 3bfc 9f3d 7fa4 bfbd 8087 7bbd 80c0 41bc
00000160: 475d 7bbd 60ed c43b 1331 6cbd aaee 8fbd
00000170: a028 ac3b 6cfd bc3c 507b 2a3c f7f4 ab3d
00000180: 1942 a03d 0d5c 67bd e4c9 ff3c 67fa ac3d
00000190: 080a 9abd b682 5b3d ba20 c7bd 3d13 45bd
000001a0: 5186 903d 3cc6 0dbd 5060 7c3c 48c8 c6bd
000001b0: 7e2e 033d 48e6 e9bc 503e 01bd c003 a9bc
000001c0: 0983 ad3d 5ae7 313d 9dd7 94bd 777d 72bd
000001d0: 105a 05bc 93d6 55bd 3a1b 4f3d c0fa 58bb
000001e0: 50b2 abbd c334 8e3d 808e c1bd c0b0 113c
000001f0: 7ae8 1ebd bcdf 18bd c77e c33d 828c 183d
00000200: 9404 8abd f360 3ebd f00e 08bc 6064 433b
00000210: d89a 9fbd 8d04 b73d 5adb bdbd 6a61 30bd
00000220: a4c6 cd3c 1b73 b73d d2cf 663d 6ac5 abbd
00000230: 50fa c03b eace 9dbd 4692 8bbd a06a 1dbd
00000240: a04e 463b 5b9d a3bd a896 c6bd 4019 13bd
00000250: 539b 5dbd 00bc 7739 00b8 03bb 4d4a 2ebd
00000260: a017 80bc b9b7 cb3d a2d4 033d 6c05 d43c
00000270: 4aa0 4dbd eb5a 9abd 004a e1b9 36da 98bd
00000280: c5e3 8e3d f623 4e3d bf78 b33d a4fa fb3c
00000290: 9d2a 28bd 4740 b6bd c471 f13c fd7e 72bd
000002a0: ca1a 123d 32a0 84bd 4e39 393d b0ea a1bd
000002b0: 2bd1 95bd 4628 4d3d 3169 aa3d 9ead 98bd
000002c0: 3d9d 1dbd 9536 8f3d 40d0 70bc d712 1cbd
000002d0: 7de9 33bd 5c3c f23c 807f c5bd 155d c53d
000002e0: 7011 9cbd 8cb7 8abd 30a8 bdbb d95d a13d
000002f0: 3255 253d 3897 aebc 187f f6bc 0639 94bd
00000300: 004e 82bd 0020 feb9 df52 b63d c2a8 0c3d
00000310: 8065 a0bd a1c7 af3d d28c 3f3d bb56 c1bd
00000320: a0ad 073b 3456 9f3c 0acb 43bd 98bb 71bc
00000330: 8825 f9bc 7882 cabc f3cd 4ebd 4a5c 24bd
00000340: 00b9 3fba c80b ecbc 623c 143d 0ef3 603d
00000350: d4f6 11bd a034 3fbb 4d8b 20bd e022 53bd
00000360: 3265 6f3d bd0b 3abd 977a 833d 46fa 15bd
00000370: a0d9 423b 7842 84bc 04e7 0ebd e52f 9dbd
00000380: ccd9 e13c e01c afbd 3c19 00bd 78bc 883c
00000390: 4e11 2f3d 4a20 9ebd 661f 723d 48ad a4bd
000003a0: 25c8 a93d a36d 7fbd 8ae7 bcbd c2f8 1c3d
000003b0: 652c a5bd e793 883d 0ed7 1f3d e724 8f3d
000003c0: 824b cbbd 0082 d83b 7b43 c3bd 64bb f73c
000003d0: 287a d7bc 3bc0 c73d f051 04bc 2491 ff3c
000003e0: 7abb bbbd 8d39 c2bd 99f1 b33d 4241 443d
000003f0: 000a 233b 9a26 0abd 8719 69bd 7ef1 313d

predictor.2.bias f4 [100]
-0.070726715 0.032060347 0.045912065 1.5622215 1.2233495 0.78758323 2.0121748 1.8992876
-1.3614881 -0.99275464 -2.0153213 -0.49533656 2.020914 0.04361866 0.055477478 -0.02213727
-0.022147287 -1.8839612 0.03032011 0.021668198 -1.4670379 0.68767524 -1.8356556 -2.086322
0.0095591685 -0.06616455 0.1785867 1.1780958 0.039935045 1.7724077 -0.086710684 -1.8774561
-1.8296233 -0.017940342 0.063631095 1.8071586 -1.5290864 1.5563055 -1.9074428 1.128828
-1.6833156 0.013556227 -0.008759081 1.8425946 0.0477292 -0.068098694 2.229684 -2.378765
1.8569158 0.28632447 2.133165 0.06791129 -1.9502052 1.6221237 -2.0406303 -2.043483
-0.10227683 0.9585557 1.6804568 0.020258803 -1.262898 -0.06739791 1.8475177 -0.01422248
1.8699627 0.1666689 1.8579944 0.53462946 0.064612195 -1.7725953 -2.2603 -0.09560211
0.050032094 0.030648379 -1.9648671 -0.52192324 -1.0513049 -1.5910977 0.07475757 -2.0509434
-0.03375838 1.8099402 2.1578226 -2.3545742 1.6199309 1.9723473 -1.7415572 1.6827867
0.7626785 0.060709886 -2.1254334 -0.021227024 2.861815 1.5343183 0.0041962117 1.8990471
0.045851223 -0.036822364 -0.09004118 -0.06963643
00000000: 2bd9 90bd b651 033d 4a0e 3c3d e0f6 c73f
00000010: b796 9c3f 0e9f 493f 79c7 0040 db1b f33f
00000020: 3e45 aebf 2b25 7ebf 06fb 00c0 c19c fdbe
00000030: a856 0140 7ba9 323d 5a3c 633d 3859 b5bc
00000040: 3a6e b5bc a425 f1bf e161 f83c 8181 b13c
00000050: e6c7 bbbf 7c0b 303f c3f6 eabf 4d86 05c0
00000060: 0f9e 1c3c 4881 87bd 6fdf 363e d8cb 963f
00000070: ee92 233d 41de e23f 5f95 b1bd 7b50 f0bf
00000080: 1931 eabf a0f7 92bc 0551 823d f950 e73f
00000090: 1ab9 c3bf 0535 c73f 1627 f4bf 707d 903f
000000a0: e376 d7bf f01a 5e3c 4082 0fbc 24da eb3f
000000b0: b27f 433d 5477 8bbd 25b3 0e40 b03d 18c0
000000c0: 6baf ed3f 1f99 923e c685 0840 1315 8b3d
000000d0: 53a0 f9bf c0a1 cf3f b099 02c0 6dc8 02c0
000000e0: 8476 d1bd e863 753f 3519 d73f caf5 a53c
000000f0: a4a6 a1bf ea07 8abd 767b ec3f 6805 69bc
00000100: f05a ef3f 41ab 2a3e c3d2 ed3f 7add 083f
00000110: 6653 843d 67e4 e2bf c1a8 10c0 0acb c3bd
00000120: 74ee 4c3d 4f12 fb3c c480 fbbf c39c 05bf
00000130: 2991 86bf 17a9 cbbf 7f1a 993d a842 03c0
00000140: 3a46 0abd 1fac e73f c419 0a40 58b1 16c0
00000150: e559 cf3f e075 fc3f 59eb debf 8e65 d73f
00000160: e63e 433f eeaa 783d 1a07 08c0 4ce4 adbc
00000170: fa27 3740 8b64 c43f 6080 893b fa13 f33f
00000180: 7ece 3b3d 0cd3 16bd 8367 b8bd 8b9d 8ebd

predictor.4.weight f4 [4, 100]
-0.06776892 -0.012608089 0.021362029 -0.10423363 -0.03501502 -0.055444747 -0.54820484 -0.11907671
0.03846287 0.10891913 0.21443531 -0.04003004 -0.5784704 -0.018025257 -0.053975906 0.031133942
0.028262328 0.16700992 -0.0190996 0.09041754 0.076252356 -0.10513135 0.107493445 0.3814882
-0.01951384 0.037992083 0.011579408 -0.14868376 0.09416825 -0.25362998 0.015440248 0.1342997
0.15328611 0.08505622 0.09766547 -0.2115201 0.07988146 -0.30060884 0.18526937 0.047157116
0.23898955 0.042647414 0.022664346 -0.3038811 0.025178082 -0.06650068 -0.37429786 0.084272295
-0.37269956 -0.015464389 -0.2947625 -0.013769224 0.12962204 -0.16762283 0.18566813 0.1673497
0.028718328 -0.044834513 -0.08759749 0.0014142137 0.11714622 0.046277154 -0.18315068 0.017732129
-0.18736042 0.0050498457 -0.5344359 -0.034885455 0.057044126 0.17477715 0.20077439 0.04932279
0.04965333 0.069082476 0.18508299 0.003348443 -3.501959 0.07531839 0.03310921 -0.067607924
0.016657315 -0.19791134 -0.33722508 0.4594815 -0.09612133 0.007986538 0.09533334 -0.24057253
-0.024766497 -0.07602011 0.34099925 0.07864567 -0.020663252 0.023470279 0.050590165 -0.080856524
0.09590434 0.06542518 0.040919594 0.0040978417 0.011666313 -0.0930688 0.04805512 0.10162784
-0.15559734 0.022565076 0.050246604 0.0005012662 -0.18353601 -0.12555282 0.6459125 -0.107096575
-0.09497512 0.053816605 0.06274683 -0.021999732 0.06304664 0.11099457 -0.08403314 -0.006454502
-0.07703227 -0.06870994 0.18010305 -0.1902005 0.07172131 0.0054664016 0.09295251 0.14198092
0.040520854 0.122956276 0.07697854 -0.12711202 -0.12814866 0.042684488 0.099198215 -0.0036057993
0.0067362175 0.0409858 0.08334159 -5.3708916 -0.09663147 -0.07141123 -0.07588519 0.009916601
-0.08148138 -0.07788042 -0.3516109 0.21634746 -0.04606139 -0.080642104 -0.14055759 -0.032505058
-0.070351705 -0.20191762 0.048287243 0.06378536 0.02853191 0.0380841 -0.16583559 -0.05271788
-0.17300402 -0.034326114 -0.14110895 -0.0359025 -0.14649479 0.005143906 -0.08655316 0.09366712
0.05147974 0.14413765 0.11218753 0.09280785 -0.06846664 0.034133688 0.03864117 0.100701235
0.023519257 0.25066617 0.075601436 0.26414642 -0.028653517 0.13854025 -0.062371574 -0.08273858
-0.1254964 -0.17861342 0.11638643 0.75214285 -0.0076683406 0.07013381 -0.01792685 0.09340566
-0.15869664 -0.03888701 -0.08702373 -0.21566018 0.06335551 -0.015328564 0.09787545 -0.018583558
-0.026225045 -0.015365064 -0.09679174 0.050797664 0.19394562 -0.0774533 0.55782807 0.2523247
-0.07681958 0.0259263 -0.95767796 0.034301743 0.30195892 0.010241396 -0.04300772 0.02833321
0.05761313 -0.26602715 -0.022797158 0.027050814 -0.22153984 0.4282966 -0.21844074 -2.9015782
0.017833918 -0.037502326 -0.14228877 0.020047577 0.077760436 0.046139285 -0.0082819015 -0.31404623
-0.49341267 0.09612239 0.093341716 0.2520081 -0.086836755 0.26336247 -0.46606278 0.15562019
-0.106317155 -0.049554504 0.0641735 0.25307348 0.027078278 0.04636968 1.8172736 0.29349965
0.3031816 -0.3678494 0.25770047 -0.06849706 0.48945314 0.41232216 -0.6330106 -3.2380302
00000000: 6eca 8abd 2892 4ebc 6cff ae3c 7178 d5bd
00000010: e96b 0fbd 081a 63bd 2757 0cbf 7dde f3bd
00000020: 3e8b 1d3d fe10 df3d ee94 5b3e 8af6 23bd
00000030: a316 14bf b4a9 93bc d715 5dbd 9c0c ff3c
00000040: 6686 e73c a604 2b3e c476 9cbc d52c b93d
00000050: 322a 9c3d 1b4f d7bd 8625 dc3d 6c52 c33e
00000060: 7ddb 9fbc 969d 1b3d 8fb7 3d3c 8e40 18be
00000070: 49db c03d cadb 81be 18f9 7c3c dc85 093e
00000080: 09f7 1c3e f531 ae3d d504 c83d ba98 58be
00000090: e498 a33d 67e9 99be 41b7 3d3e d227 413d
000000a0: adb9 743e 0eaf 2e3d 94aa b93c 4e96 9bbe
000000b0: 4442 ce3c 8231 88bd f8a3 bfbe f496 ac3d
000000c0: 7ad2 bebe 595e 7dbc 1ceb 96be 5098 61bc
000000d0: a4bb 043e 52a5 2bbe c91f 3e3e b85d 2b3e
000000e0: b342 eb3c 65a4 37bd 5066 b3bd 235d b93a
000000f0: 5bea ef3d 1d8d 3d3d da8b 3bbe f842 913c
00000100: 69db 3fbe 2d79 a53b cbd0 08bf 0de4 0ebd
00000110: 1aa7 693d c8f8 323e cd97 4d3e b206 4a3d
00000120: 4a61 4b3d 1d7b 8d3d 6586 3d3e 8d71 5b3b
00000130: 1920 60c0 8740 9a3d 869d 073d 0676 8abd
00000140: ec74 883c 45a9 4abe c4a8 acbe 2941 eb3e
00000150: 43db c4bd f8d9 023c 203e c33d a558 76be
00000160: 1ce3 cabc 6eb0 9bbd 7497 ae3e fb10 a13d
00000170: fb45 a9bc be44 c03c a237 4f3d 1b98 a5bd
00000180: 7f69 c43d a3fd 853d 4e9b 273d 3047 863b
00000190: 1024 3f3c db9a bebd 72d5 443d 4222 d03d
000001a0: e954 1fbe 65da b83c 62cf 4d3d 6867 033a
000001b0: ddf0 3bbe eb90 00be 865a 253f 7355 dbbd
000001c0: 5182 c2bd cd6e 5c3d 6981 803d c838 b4bc
000001d0: 991e 813d 1f51 e33d 9119 acbd 4a80 d3bb
000001e0: 18c3 9dbd ccb7 8cbd ef6c 383e ebc3 42be
000001f0: 9fe2 923d 801f b33b e35d be3d 7263 113e
00000200: 32f9 253d 80d0 fb3d eda6 9d3d a729 02be
00000210: 6739 03be eed5 2e3d 6f28 cb3d 464f 6cbb
00000220: 7dbb dc3b bae0 273d ffae aa3d 58de abc0
00000230: b8e6 c5bd 0d40 92bd b269 9bbd 3d79 223c
00000240: b6df a6bd c57f 9fbd 5806 b4be 308a 5d3e
00000250: deaa 3cbd b027 a5bd 54ee 0fbe 0624 05bd
00000260: 8e14 90bd 7ec3 4ebe d8c8 453d e6a1 823d
00000270: c1bb e93c 13fe 1b3d ced0 29be b4ee 57bd
00000280: f727 31be 8a99 0cbd dd7e 10be 800e 13bd
00000290: bb02 16be 368e a83b c842 b1bd 8cd4 bf3d
000002a0: 6bdc 523d d298 133e 93c2 e53d 0b12 be3d
000002b0: 3d38 8cbd c4cf 0b3d 3446 1e3d 733c ce3d
000002c0: 75ab c03c 5157 803e edd4 9a3d 333e 873e
000002d0: c8ba eabc 7fdd 0d3e 5679 7fbd d872 a9bd
000002e0: 2182 00be 70e6 36be 025c ee3d 6f8c 403f
000002f0: b446 fbbb 51a2 8f3d 54db 92bc 774b bf3d
00000300: 5f81 22be fc47 1fbd 7f39 b2bd 06d6 5cbe
00000310: 89c0 813d a824 7bbc ed72 c83d 8c3c 98bc
00000320: e8d5 d6bc c0bd 7bbc bf3a c6bd 3611 503d
00000330: ae99 463e d69f 9ebd d2cd 0e3f b430 813e
00000340: 9553 9dbd 6463 d43c 622a 75bf fc7f 0c3d
00000350: 5c9a 9a3e 87cb 273c dd28 30bd 0c1b e83c
00000360: bffb 6b3d b634 88be 1bc1 babc ab99 dd3c
00000370: 57db 62be b149 db3e eeae 5fbe 75b3 39c0
00000380: 7018 923c 0a9c 19bd 26b4 11be d13a a43c
00000390: dd40 9f3d 8cfc 3c3d d0b0 07bc abca a0be
000003a0: 96a0 fcbe d1db c43d f129 bf3d 3507 813e
000003b0: 78d7 b1bd 72d7 863e c89f eebe e65a 1f3e
000003c0: cfbc d9bd aaf9 4abd 656d 833d d992 813e
000003d0: 44d3 dd3c 22ee 3d3d 6c9c e83f 9645 963e
000003e0: 9e3a 9b3e c256 bcbe 51f1 833e 3048 8cbd
000003f0: 9a99 fa3e e41b d33e fc0c 22bf e33b 4fc0

predictor.4.bias f4 [4]
-1.6115525 -1.0943487 1.8787072 1.1385039
00000000: 5a47 cebf 9e13 8cbf 7a79 f03f 7fba 913f
