models/squares/100/class0_student_config.pt (torch, 45575 bytes, 6 tensors)

predictor.0.weight f4 [100, 2]
00000000: 07f1 0ebe 4e63 903e f78d 913e befc 07bd
00000010: 5c09 083f 7d6d a7be 1505 29bf 1f40 143f
00000020: ff63 35be d59c af3e 37a5 0bbf 2e95 c53d
00000030: 0374 86be 1885 b4bd c823 23be 20f5 f1bd
00000040: 058f 8bbe 1f2d 9f3e 7aab 22bf 3a8d 62be
00000050: 790e c9bf 407a c63c 9a96 18bf ee28 d43e
00000060: a9ef 273c 1612 0b3c ed15 843e 5666 653d
00000070: 882a 14be 4431 25bf daa0 cbbe 35fe 2ebf
00000080: 98e4 2a3f 20fb d13d c69c 283f 324d 1abf
00000090: 5ea4 ad3d 7378 17bf b215 243e 1925 67be
000000a0: 15ec 4bbe 2e4b da3d f65a 74be 024b 133f
000000b0: 8959 123f 80b3 fa3e 7061 95bd 2887 6abe
000000c0: a8f3 09bf dfb1 543e 561f 5ebe 1142 bebe
000000d0: 8b40 f93e f663 bfbe 6b19 383e 166b d7bd
000000e0: edbe b93e da6f bbbe fd42 77be 620d 663a
000000f0: 867d 023f 318e 14bf 14cc 1b3f 7dde 22bf
00000100: fd58 3dbe d002 9e3e 1172 a4be 4828 083f
00000110: c6b5 afbe 74eb 0f3e 5c6d 003f a3db 21be
00000120: 1f59 b6be 06f8 77be 9cb9 f4be d4a5 f43e
00000130: 6a57 2c3e df75 c3bd 27e4 d7bb 88bc 113e
00000140: b1e9 dd3e 1c2f 1a3f 1e64 27bd cd0f 1b3e
00000150: 1012 4a3e 8f58 e6be 49cc 39bf 224f 7ebc
00000160: 2c1f f1bb 5eb7 423d 3b51 633e ca35 da3c
00000170: 150b 063e 90be c2be c611 22bd 6b3b 063e
00000180: d669 03bf 9eea c4bc ee7e b5be e4d3 823e
00000190: 9dfd bcbc 4cb1 7f3e 9901 373e 38fa 96be
000001a0: e01a 173e aa9b a8bd 9f0e 1abc 4e7c 803b
000001b0: 07db acbe d90e 87be 479a c93e 9a8a 6abe
000001c0: dc83 eebb 2237 023e 413f 11bf 030b 713e
000001d0: 185d cdbb 6ab3 a53d 7cd5 903e 2b7d 233f
000001e0: 404b aabf 2342 0fbc 9f6e cdbf 8b7b d53c
000001f0: 3b14 6dbf 45bc 67bc 8232 24bf 72b1 063e
00000200: 18cc e7bc 4b2b 9d3e f3cb 20bf 13c8 343d
00000210: e5cc 8fbf 8c4b 1dbc 9abd 08bf 5aaf 08bf
00000220: 6063 7ebe 622d 763e f09f cd3e 8d1c 123e
00000230: ae33 933e 1ac9 8b3e c8c7 d4be 2542 88be
00000240: f9d8 8d3e 8be3 39be e380 b63d 6551 b03d
00000250: 1b03 34bf 08b0 f5be 182d 483e 76c9 f3bd
00000260: 28b9 09be a463 d6be a2e4 6cbe 2a94 0ebf
00000270: f6ec 113f f277 4dbe 2c72 d7bd afd7 643d
00000280: 5ca9 e13e 7112 4a3d 5d4b e2bd 56dd a43e
00000290: e331 9abf 0e86 36bc fe2c 88be 760c ddbe
000002a0: 2769 f53d df43 1ebf cc68 23bf 965b d83e
000002b0: aeda 7d3e b430 08bf 5b8d d2be ac80 12bf
000002c0: dfa2 89bd a407 d33e 3da4 e1bd 83bb 083f
000002d0: 47b1 aabe 3e99 afbe 2012 53bd e0d7 9abe
000002e0: bbcf f8be 0a54 003f ca3f 4dbe a69a 6b3d
000002f0: 36ea f23e e1e4 fd3e 4154 c9be 78f3 cb3d
00000300: ad4f c0be 9fcb b33e 3305 203d 7fff 933e
00000310: d774 513e 7ef3 26bc fee6 17bf 815d e7be
-0.13959132 0.28200763 0.28428623 -0.033200018 0.5313928 -0.3270072 -0.6602338 0.5791034
-0.17713927 0.3429934 -0.5454897 0.096475944 -0.26260385 -0.08814448 -0.15931618 -0.11814332
-0.27257553 0.31089112 -0.635429 -0.22124186 -1.5707542 0.024228215 -0.596048 0.41437477
0.0102500105 0.008488199 0.25797978 0.0560058 -0.1446935 -0.645283 -0.39771158 -0.6835664
0.66755056 0.102529764 0.6586422 -0.6027404 0.08478616 -0.59168166 0.16023901 -0.22572745
-0.19914277 0.10658871 -0.23862824 0.5753633 0.5716787 0.48965073 -0.07293975 -0.2290312
-0.53887415 0.20770977 -0.21691641 -0.3715978 0.48682055 -0.37380952 0.17978446 -0.10518472
0.36278477 -0.36608773 -0.24146648 0.0008775798 0.50972784 -0.58029467 0.60858274 -0.6362074
-0.18490978 0.3086152 -0.32118276 0.53186464 -0.3431837 0.14054662 0.5016687 -0.15806441
-0.3561487 -0.24215707 -0.4779786 0.47782767 0.16830221 -0.095439665 -0.006588477 0.14232075
0.43342355 0.60228133 -0.040866964 0.15142746 0.19733453 -0.4498944 -0.7257734 -0.015521796
-0.0073584523 0.047538154 0.22198956 0.026636977 0.13090165 -0.38036013 -0.03956773 0.13108604
-0.5133337 -0.024037655 -0.35448402 0.25552285 -0.023070151 0.24969977 0.17871703 -0.29487777
0.14756346 -0.082328156 -0.0094029 0.0039210683 -0.33760855 -0.26378515 0.39375517 -0.22904435
-0.0072789025 0.12716344 -0.5673714 0.23539357 -0.006267201 0.08090861 0.28287876 0.63862866
-1.3304214 -0.008743796 -1.6049384 0.026059886 -0.92608994 -0.014144008 -0.6413957 0.13153628
-0.028295562 0.30697092 -0.628112 0.04413612 -1.1234404 -0.009600531 -0.5341431 -0.53392565
-0.24842596 0.2404075 0.40161085 0.14268704 0.28750366 0.27301866 -0.4155867 -0.26612964
0.277046 -0.18153207 0.08911302 0.08609275 -0.7031724 -0.47985864 0.19548452 -0.1190366
-0.13449538 -0.41872895 -0.23134091 -0.5569483 0.570022 -0.20065287 -0.105198234 0.055869754
0.44074523 0.049333993 -0.11049531 0.32200116 -1.2046474 -0.01114036 -0.26596826 -0.4317357
0.11982947 -0.61822313 -0.6383178 0.42257375 0.24790451 -0.53199315 -0.4112347 -0.5722759
-0.06720518 0.41216767 -0.11017654 0.5341112 -0.33338377 -0.34296602 -0.051530957 -0.30242825
-0.48595986 0.50128233 -0.20043865 0.05752053 0.47444314 0.49588683 -0.39322093 0.09958547
-0.37560788 0.35116288 0.03906746 0.28905866 0.20454727 -0.010189889 -0.5933684 -0.45188525

predictor.0.bias f4 [100]
00000000: dd9e debf cdf2 b03f bb59 e9bf 6c95 19c0
00000010: 5942 dcbf 625a b73f ddf5 a4be fcd0 40be
00000020: c7b4 03c0 8c24 19be 5237 febe 0e59 da3e
00000030: 93c4 0940 d5a1 00bc b342 1cbf efa1 2b3f
00000040: d4a7 07c0 3068 b03f 323c a1bf 9d48 c13f
00000050: 85b1 eebf 93c4 e7bf bfcb 0cbf 3e29 c93e
00000060: f011 5ebf 1a2c e43e 13c5 1340 5468 d0be
00000070: 8c7a 0bc0 256a 563f ee19 25bf 9a20 b8bf
00000080: 2b84 3d3f 7876 cb3f e506 a43f 7eb3 91bf
00000090: 4cb8 16be fcff d8bf aaeb 0640 2fed aa3f
000000a0: 25ed b9bf c8bc dfbf 9a8f 5ebf 825e 103f
000000b0: 4646 7c3f 0204 683f f9f2 6cbf 93df 73bf
000000c0: ceaf 5e3f 3be6 32c0 1dbc d8bf db00 c5bf
000000d0: 09e3 1240 2600 2640 4c9f 34bf 0778 91bf
000000e0: 1e7c 943f 979e 643f 0066 b93f 7e01 01c0
000000f0: e3fb 793f 2f31 36bf a0fd ae3e 1915 eabf
00000100: 8c97 34bf 1445 34be e633 b53f 61db 0ebf
00000110: 6c03 3e40 dc7a 863f 7668 e7bf 9dcd b03e
00000120: db85 a4bf bec0 cc3f 7a69 c03e 2b53 0640
00000130: c4f4 43be 12b8 ab3e f49e b73f 38b6 ca3f
00000140: dcb9 0340 963a 0340 acdd c73f 5448 113e
00000150: b197 d43f 792c 4940 5e86 cf3f 7999 0c3f
00000160: 764b 9dbf bbaa e53f 20b5 d13c 8089 ccbb
00000170: 2fdf 06c0 a8a7 e63f 64e8 ed3f 4503 0ac0
00000180: b9dd 2340 33be 08c0 c8ec b23f 4e35 813e
-1.7392231 1.3824097 -1.8230509 -2.399745 -1.7207748 1.4324458 -0.3221883 -0.18829721
-2.0579088 -0.14955348 -0.4965158 0.42646068 2.152623 -0.007851084 -0.61039275 0.67043966
-2.1196184 1.3781796 -1.2596495 1.5100285 -1.8647925 -1.8106865 -0.5499839 0.39289278
-0.8674612 0.44564897 2.3089035 -0.40704596 -2.1793547 0.83755714 -0.6449269 -1.4384949
0.740298 1.5895529 1.2814604 -1.1382902 -0.14718741 -1.695312 2.1081338 1.3353633
-1.4525496 -1.7479486 -0.8693787 0.5639421 0.9854473 0.90631115 -0.92558247 -0.9526302
0.86987007 -2.7953022 -1.6932408 -1.5390886 2.2951071 2.593759 -0.7055557 -1.1364754
1.1600378 0.8930449 1.4484253 -2.015716 0.97649974 -0.711688 0.34177876 -1.8287688
-0.7054374 -0.17604476 1.4156463 -0.55803496 2.9689589 1.0506244 -1.8078754 0.3453187
-1.285335 1.599632 0.37580472 2.0988262 -0.1913634 0.33538872 1.4345384 1.5836859
2.058219 2.0504508 1.5614524 0.14187747 1.6608793 3.1433394 1.6212881 0.5492168
-1.2288654 1.7942728 0.025599062 -0.006241977 -2.107372 1.8019915 1.8586545 -2.1564496
2.5604079 -2.1366088 1.397851 0.2523598

predictor.2.weight f4 [100, 100]
00000000: 5d06 933d f5d8 dbbd cf37 e83c f564 0e3c
00000010: df42 6d3d 2520 39be 40d5 77bb a83b 6ebc
00000020: 7795 363c b217 0c3d af1c f93e fa97 7aba
00000030: e54a bbbe 7571 e8bd 803a 9bbd aeca 423d
00000040: aa66 eebb a051 27bb ff41 953d fd1a 8b3d
00000050: c9af 613e 40ec c13d 1967 d0bc 8fb1 993d
00000060: 533a 0b3e dd15 ac3d dade 26bd dbfc 80bd
00000070: c0ed 02bd 3d18 233d 99b0 853d cdb6 a5bd
00000080: 4545 9d3a 2c32 b43c 41e1 8e3d 3297 dfbe
00000090: 32a9 4c3d 7222 883c 3dd1 43bd adb9 2fbd
000000a0: 3f98 ac3d 43b6 953d 1a4a 12bd f7ab edbd
000000b0: 1720 c9bd 1ca7 373c 49fc 9c3d 98bf ecba
000000c0: efff 9b3e ca45 e73c ddee a23d c062 ebba
000000d0: c2aa 0dbe a3a6 43bf ac4c cdbc 57cd 803d
000000e0: aefb 6fbd cd3f 80bc 5488 20bd 85c0 973d
000000f0: ae97 a2bf 041d 053f 9b43 71be 463f e73d
00000100: 33bb 25bd d4d1 b43c b006 aabf 4f52 b53d
00000110: 482a 0e3d 269e 883c 5265 38bd 7475 0fbd
00000120: fec2 f83b fc4b cdbd d09a 2fbc 8bdb 3d3c
00000130: d14b ca3d b2a9 443d 7754 39bd cac3 033d
00000140: 5f47 13be 9e53 0bbd 0f25 9ebf 7679 4c3d
00000150: 82e4 503d 1182 b3bd 00dd 153c e331 6dbd
00000160: d252 653d 37c7 b2bd 1732 9e3d 1375 bb3d
00000170: 3b7a dd3d a587 2bbe 37ae bdbd e738 053e
00000180: 4d0e 17bb 12f5 eb3d 54a3 dc3c b0bc 07bd
00000190: ba86 b0bc 7351 98bc b6ce ecbc 4f53 5e3c
000001a0: 6908 fbbd 34a5 273e 00ad d9bb 479c a63d
000001b0: cd05 11bd 9ce3 ee3c 6da4 c1be 36b9 423d
000001c0: 1850 8e3e 476b f4bb 1473 f3bc b283 7d3d
000001d0: 3dd7 f5bc fdfc b5bd 4da0 8c3d 4175 5c3d
000001e0: 2870 13be 8a66 b03c eaf6 4a3d 9826 34bc
000001f0: 7345 11be 702e 20bd aa14 b23d f6b9 afbd
00000200: 846f 3c3d ac3c cebc 213c 62bd 3319 873c
00000210: b80d d33d c8f6 2c3d 1eee 373c cb32 9dbd
00000220: cc50 07bd de06 e7ba cd49 ca3c 447d b03b
00000230: fbec 86bd fbcd a8bc 126f b4bd e47a e73e
00000240: 5429 79bd 4aef a13d e5ba 6cbc 1e66 d93b
00000250: 86ce a93e 231d 13be 8b3f 83bd 0e49 a7bd
00000260: 8f00 ae3d 43f3 e63f 72f0 2c3d fa10 55bd
00000270: 8fe6 5b3d 9abe d23b 52bf ae3d 2cd4 903d
00000280: d23f a13f bd1f e4be 76e2 be3e 4e5b 3abe
00000290: 5339 c73b 7ef1 99bc f285 983f 42c3 023d
000002a0: 360a bd3d 229e d8bd 5f02 ec3c 073d 50bd
000002b0: 5649 a7bd 89aa c73c 99bb 983d 0308 8abc
000002c0: 40c8 69bb a090 c6bb 4237 9f3d b0a7 a93d
000002d0: a611 943d 6771 adbc 694a c63f b45b c53c
000002e0: a515 03bd 4079 be3d 8c99 fb3d ff5c 833d
000002f0: b1a5 bd3a 0f93 f2bb d741 59bd 9e1a 2e3d
00000300: bea7 aabd eb17 453e 1fef c13d 520e dfbd
00000310: 6a97 71bc 9c6a bcbd b8ed 443d 907a 373c
00000320: 5e6a 94bd bd04 36bd cbc5 923d 52d7 663d
00000330: c0a9 3d3c 989a 8d3c 2a67 0bbd 8c2a 81bc
00000340: 0d12 8d3d 0084 63ba 925c 173d bdfc b9bd
00000350: 8bf5 8dbd a0b4 2c3b 96df 3c3d f55c af3d
00000360: a07f 2d3b 278f 78bd aec0 5f3d 0abe a2bd
00000370: 284b 7fbc 02e6 9abd ead1 45bd 63c3 28bd
00000380: 6772 4cbd 94ac d43c 973e 29bd 9531 83bd
00000390: 7312 b8bd dd04 37bd 203d 80bd c478 ef3c
000003a0: e606 523d 18d5 65bc 9398 b73d 20d9 97bb
000003b0: 0ca3 ed3c 20b9 c5bd bdaa 2dbd e491 f93c
000003c0: 30c4 87bb d08c 0f3c 1866 cc3c 188f 90bd
000003d0: f6da 0bbd 20dc b2bb 54c9 f13c 03e6 1bbd
000003e0: 701d 61bc 31af a23d 61fd 893d d4ab fe3c
000003f0: a68e 533d 9aa1 3ebd a5d9 833d 8085 7bbc
0.07178948 -0.10734741 0.028346924 0.008691062 0.0579251 -0.18078668 -0.0037816316 -0.01454059
0.011144034 0.034202285 0.48654696 -0.00095593894 -0.36580577 -0.11349765 -0.07579517 0.04755657
-0.007275422 -0.002553083 0.072879784 0.06792257 0.22039713 0.09468889 -0.025439786 0.0750457
0.13596468 0.084026076 -0.04073987 -0.06298228 -0.031965017 0.039818037 0.06527824 -0.08091507
0.0011998793 0.02199658 0.069765575 -0.4367004 0.049966045 0.016617987 -0.047806967 -0.042901684
0.08427476 0.07310154 -0.0357152 -0.11605065 -0.09820574 0.011209276 0.07665307 -0.001806247
0.304687 0.02823152 0.07955716 -0.0017958507 -0.1383467 -0.7642614 -0.025060974 0.062891655
-0.05858963 -0.015655423 -0.039192513 0.07409767 -1.2702539 0.519974 -0.23560946 0.11291365
-0.04046173 0.02207271 -1.3283291 0.0885359 0.03470829 0.016676974 -0.0450185 -0.03502412
0.0075916043 -0.100242585 -0.0107180625 0.011587988 0.09877742 0.048013397 -0.045246568 0.03216914
-0.14382695 -0.03401529 -1.2355059 0.04992052 0.050999172 -0.087650426 0.009146929 -0.057908904
0.055987187 -0.087294035 0.07724398 0.091531895 0.10814329 -0.16750963 -0.092617445 0.13009988
-0.0023049295 0.11521353 0.02693335 -0.03313893 -0.021548618 -0.018593526 -0.028907161 0.013569667
-0.122574635 0.16371614 -0.0066429377 0.08135276 -0.035405923 0.029161267 -0.3782076 0.047539912
0.27795482 -0.0074590775 -0.02971796 0.061893173 -0.03000986 -0.08886144 0.068665124 0.05382276
-0.14398253 0.02153327 0.04955188 -0.01099553 -0.14186649 -0.039106786 0.086953476 -0.08580391
0.046004787 -0.025175415 -0.055233125 0.016491508 0.10305351 0.042227536 0.011226205 -0.076757036
-0.03303604 -0.0017625948 0.024693394 0.0053860266 -0.06588169 -0.020606032 -0.088102475 0.45210946
-0.06083043 0.07906969 -0.014448856 0.006634488 0.33165377 -0.14366584 -0.06408604 -0.08168231
0.084962 1.8042988 0.042221494 -0.052018143 0.053686675 0.006431413 0.08532585 0.070717186
1.2597601 -0.44555464 0.3728215 -0.18198892 0.0060798316 -0.01879191 1.1915877 0.031924494
0.09230463 -0.105770364 0.028809724 -0.05083945 -0.081682846 0.02437331 0.074576564 -0.016849523
-0.0035672337 -0.006059721 0.077742115 0.08283937 0.07229929 -0.021172239 1.5491458 0.024091579
-0.032003064 0.0930047 0.12285146 0.06414222 0.0014468936 -0.0074027847 -0.053041305 0.042505853
-0.083327755 0.19247405 0.09469437 -0.10891403 -0.014745573 -0.092000216 0.04807827 0.011198655
-0.072468504 -0.044438113 0.07166632 0.05635769 0.011576116 0.01728563 -0.03403393 -0.015767358
0.068882085 -0.00086790323 0.036953516 -0.09081409 -0.06931599 0.0026352778 0.046111666 0.08562652
0.0026473776 -0.060683396 0.054627113 -0.07946403 -0.0155818835 -0.07563402 -0.048295893 -0.04120196
-0.04991379 0.025961198 -0.041319456 -0.064059414 -0.08987894 -0.044682372 -0.06261659 0.02923239
0.05127611 -0.014027856 0.08964648 -0.0046340376 0.02900841 -0.096544504 -0.042399157 0.030465074
-0.0041432604 0.0087616 0.024951026 -0.07058543 -0.034144364 -0.00545837 0.029514946 -0.038061153
-0.013739929 0.07943571 0.06737781 0.031087793 0.051649712 -0.046540834 0.06437997 -0.015351653

predictor.2.bias f4 [100]
00000000: f458 6fbf c5ba 923f 0012 6abd b09a ab3d
00000010: e85c 02bf 9a07 b3bf ef63 9b3c 79f9 a23d
00000020: 436e b03f 6359 7bbf 5ea3 98bf cdaf 953f
00000030: 1dd9 91bf 0aa7 083d 5c30 983d 5a29 33bd
00000040: 7ed9 833d 05a5 e2bd 2f14 6abf fd3e 5dbf
00000050: c13a 8d3d e0af e33b 4804 9ebf 7c75 46bf
00000060: f9e5 f13e 48c8 913f e57a bf3e 95ae b93f
00000070: cb1a f4be 0031 35bd 6082 86bf 0a24 62bf
00000080: 066e b4be 08b6 0640 7f83 73bf 0a02 cc3f
00000090: 660b 6d3d 8c41 723f 4e00 a5bf 7ad9 d0bf
000000a0: 4d51 563f aecc ac3f cce2 d43b 21bc 923f
000000b0: 30c9 053c ae2a f3bc 2b98 d2bf d9d1 9d3f
000000c0: 1b58 b0bd f578 b7bf 65cb adbf f0c1 a53f
000000d0: b378 ad3f 3dfb 673e 2f65 e73f 2ee4 8dbf
000000e0: b61a d3bd 071c a13d a0ea ab3f 84de 313d
000000f0: e4b3 fe3c 46e8 82bf 2ae0 9f3f 8f33 9cbf
00000100: dd59 9abf 32ab b13f e5af 9cbf 85ec a6bf
00000110: f376 c73f 786a d43f acad c83c 7052 63bf
00000120: b1e4 933f 1c53 c93f 6f2e 11bf b975 e5bf
00000130: 0fda 0dbc b02c 913d ed1a 50bf 77e7 b83f
00000140: dd70 743f b3b9 c53f 30e9 713f 226f dbbf
00000150: df03 ad3f 9a35 73bf f72d 55bf 0427 e5bd
00000160: 8289 40bf 6428 463f 58f2 883d d876 6a3f
00000170: 86bd cabd 8038 b63b 6ab8 003d 50cc 823d
00000180: 0132 b5bf 3c70 b0bd 37e1 8a3f 3804 fbbc
-0.93495107 1.1463248 -0.057146072 0.08379114 -0.50923014 -1.3986695 0.01896855 0.079577394
1.3783649 -0.9818327 -1.1924856 1.1694275 -1.1394383 0.033362426 0.07431099 -0.043740608
0.06437968 -0.11066631 -0.9143705 -0.8642424 0.06895972 0.006948456 -1.2345057 -0.77523017
0.47245768 1.1389246 0.3739845 1.4506403 -0.4767669 -0.044236183 -1.0508537 -0.8833624
-0.3524019 2.1048603 -0.9512252 1.5938122 0.0578722 0.94631267 -1.2890718 -1.6316369
0.83717805 1.3499963 0.006496763 1.1463662 0.008165643 -0.029683437 -1.6452688 1.2329665
-0.08610555 -1.4333788 -1.3577696 1.294981 1.355246 0.22654434 1.8077754 -1.108526
-0.10307829 0.07866674 1.3430977 0.043425098 0.031091638 -1.0227134 1.2490284 -1.2203234
-1.2058674 1.388037 -1.2241179 -1.304093 1.5583175 1.6594992 0.024496876 -0.88797665
1.1554166 1.5728488 -0.5671148 -1.7926551 -0.008657946 0.070886016 -0.81291085 1.4445637
0.95484716 1.5447296 0.9449644 -1.714329 1.3516806 -0.95003664 -0.8327326 -0.11189082
-0.7520982 0.7740538 0.066868484 0.9158759 -0.0989943 0.0055609345 0.03142587 0.06386626
-1.4155885 -0.08615157 1.084998 -0.03064166

predictor.4.weight f4 [4, 100]
00000000: d34d 14be 46e9 b43d aae7 23bd e2fb 7abc
00000010: b1c3 903d 260f 61be 3479 85bd 13e5 79bd
00000020: 655f dc3f b9cb 0cbe bd5c 2fbd a5a7 bcc0
00000030: 00a4 1dbe 73a4 7bbd 0f6b 903d 68a6 3d3c
00000040: ce9f 66bd e2a2 f63c bf77 36be 66ee 723c
00000050: 6ad2 6f3d b4ec a93c 76ec 95bf 4530 07be
00000060: 9dee c4bd 6613 363e 28de 143e c52c 813e
00000070: 66c0 da3d 62c2 483d fbb2 2fbe 0948 cfbd
00000080: 5194 4abe 3989 263f fb6b 6bbd 4763 983e
00000090: 8cb9 e73c 5ed2 a93c 63f0 b0bd fcf6 48ba
000000a0: f1ba d93c 446a 3f3e 4d3b 8f3d 03c9 0b3e
000000b0: 6ea6 2f3d e717 22bd 4ee5 99bd c64c 7c3d
000000c0: 8d5b 8abd 4531 0dbe 9c67 fbbe b8ba 3d3e
000000d0: 5940 143f 3da3 a73d bd3f 9b3d c37a 82bd
000000e0: bdce 7bbd 5a2b 903d d882 323f 1fd1 d33d
000000f0: 2918 8e3d 83c7 433d 0b19 993d edb8 86bd
00000100: c5f1 9ebf 39bf 963d 143a aebd 16c2 efbd
00000110: 8ad8 8c3e 762c e63d 3023 853b 5efc 2f3d
00000120: 0ce0 54be ab3d 3d3e c5af 32be d138 4cbe
00000130: 7d52 cbbd d5c4 933d 5ab6 11be 69fc 253d
00000140: 1f4b 79bc 9c27 fa3f 9e4c 113d 992c 42bd
00000150: c893 043e 58dd 0abf 416e bebe 4306 0fbd
00000160: a925 7bbd efb7 e93d 5741 26bd d456 fe3d
00000170: f3b7 25bd 0046 edb9 b7c0 ba3d 6c08 59bd
00000180: 8aa9 d6be 27be 393d d3a4 b63d 008b 93b9
00000190: a1c4 c9bd fde6 d6bd a9d2 9e3d fe63 fdbd
000001a0: b3c6 9f3c d03a 8e3d de00 0a3d 2c82 99bc
000001b0: 2a08 6a3d c847 8b3d 9866 ff3d cd94 99be
000001c0: 0fb9 bf3d 5010 c9bb 6cff 8abd 4048 973c
000001d0: 2513 883d 7988 8d3d 51be 7a3d 0395 5a3e
000001e0: 7a8d 533d c061 273b 6720 443e 279f 503d
000001f0: 629b 9cbb 225c b1bd 974a 39be f947 4ebd
00000200: eb50 3cbd cfb8 9c3d 26d5 a93d 72aa 893c
00000210: 51f2 3c3c 63b7 e8be 94a1 b83d 60c8 d9be
00000220: 98ed 753c 4684 d4bd 8c59 96bc cadb 8b3e
00000230: 90f9 953d 9896 09be ed0c 713d 375b 7abd
00000240: f5b7 42bd 7f41 91bc f0c5 83bf 759a 37bd
00000250: b401 9b3c e43f 3c3d 1539 f13c 9395 fe3c
00000260: 1bb4 2fbe 0ba1 10bd 9efb 16be 86d8 f73d
00000270: 67a1 2abd b2b0 403c 075c f0bd 0796 bd3d
00000280: f82a ab3c 7d7c 923d f53d bcbd 3f41 9dbc
00000290: f808 f03d cdd3 26bd fdc3 803d f058 9c3d
000002a0: 6871 18be 2bf6 103f d87d 8d3c cebe 00be
000002b0: e85d 04be 8a9b 93bd b715 f73d f0ba df3e
000002c0: b30c 4ebd 4d63 863d ea67 e73d 94e9 d3bb
000002d0: 812a 0bbe 5e59 24bf dda5 17be 71e3 7e3e
000002e0: 0b87 83be 4502 9c3d f0a4 143e c6c5 8d3d
000002f0: 29bc 0b3d c39d ebbf 3145 1dbc e081 c4bd
00000300: 1069 8ebd f7fd c6bd f118 d83c aa97 0cbc
00000310: ccfc 593d 2383 993d d7aa 01be 5682 6e3d
00000320: 1240 5e3e c037 fdbd 121d 0c3d f703 b83d
00000330: db8d 273d 566f 113e a009 a8bd 3467 87bd
00000340: cc84 eabd 1f54 373d e075 973d 04dd bbbe
00000350: ff9a 453e 922d 0d3d e432 a33d 5060 53bd
00000360: 1a45 d2bd c09d 473d 0b52 1e3d 2f04 dfbd
00000370: 642a fe3c 58d2 5dbc 434e 173e 90ba d6bc
00000380: 9da8 883c 28b0 11be 0757 8f3b 72a1 f1be
00000390: 7140 283d 595f b5bd d044 bb3d 2b49 093e
000003a0: b68f 77bd c15b eabe 843f 1ebc cdd1 f6be
000003b0: a7ff 9a3d 1cc8 f4bd 5949 693d 80cd 6d3e
000003c0: 08cf b7bd 328a 98be 8ad3 983d 3c95 3dbe
000003d0: 1a4f ad3d 5ad2 70bd 9299 c73e 58da 63be
000003e0: d04e 793c 7b9a 6a3e 8bc2 ba3e 25e7 4abc
000003f0: 13a9 56c0 3b66 b2bb c905 0bc0 b7ed 2a3e
-0.14482813 0.08833556 -0.040015854 -0.015318843 0.07068575 -0.21978435 -0.06517258 -0.061009478
1.7216612 -0.13749589 -0.04281305 -5.8954644 -0.15394592 -0.061436128 0.0705167 0.011575319
-0.056304745 0.030106965 -0.17819117 0.014827346 0.058550276 0.020742752 -1.1712787 -0.13202007
-0.09615824 0.17780837 0.14537871 0.2522947 0.10681228 0.049013503 -0.1715812 -0.101211615
-0.1978314 0.65053135 -0.057476025 0.29763243 0.028286718 0.020730194 -0.086396 -0.0007666198
0.026578398 0.18692881 0.069937326 0.13650899 0.04288333 -0.039573576 -0.075144395 0.061596654
-0.06755743 -0.13788326 -0.49102485 0.18528259 0.57910687 0.08185432 0.075805165 -0.06371071
-0.061476458 0.07039519 0.697309 0.10342621 0.06938202 0.04779769 0.0747548 -0.065782405
-1.2417532 0.073606916 -0.08507171 -0.11706941 0.27508956 0.11238949 0.0040630326 0.042965285
-0.20788592 0.18480556 -0.17449863 -0.19943549 -0.09927843 0.07215277 -0.14229718 0.04052392
-0.015215664 1.9543338 0.03547346 -0.047405813 0.12946999 -0.54243994 -0.37193492 -0.03491808
-0.061315212 0.11412036 -0.040589657 0.12418905 -0.04045863 -0.00045256317 0.09118789 -0.052986547
-0.41926223 0.04534736 0.089181565 -0.00028141588 -0.09851957 -0.10493276 0.07755024 -0.123725876
0.019503927 0.06944811 0.033692233 -0.018738829 0.057136692 0.068008006 0.1247074 -0.29996338
0.09361469 -0.006135978 -0.06786999 0.018467069 0.066442765 0.06910796 0.061216656 0.21345906
0.051648594 0.0025540441 0.19152986 0.05093303 -0.0047792653 -0.08660151 -0.1809486 -0.050361607
-0.045975607 0.07652437 0.08292608 0.016804907 0.011532382 -0.45452413 0.090151936 -0.42535686
0.01501026 -0.10376792 -0.018353246 0.27316123 0.07322991 -0.13436353 0.058850218 -0.061122146
-0.047538716 -0.017731426 -1.0294781 -0.044825036 0.01892171 0.04595937 0.029446164 0.031077182
-0.17158549 -0.035309833 -0.14744422 0.121018454 -0.04165783 0.011760877 -0.11736303 0.09257131
0.020894513 0.071526505 -0.09191505 -0.01919615 0.11720461 -0.040729333 0.06287382 0.07634151
-0.14887011 0.5662562 0.017271921 -0.12572786 -0.12926447 -0.07207401 0.12064689 0.4369731
-0.05030508 0.06561909 0.11299117 -0.0064670537 -0.13590433 -0.64198864 -0.14809366 0.2489145
-0.25688967 0.076176204 0.14516044 0.06922488 0.03411499 -1.840752 -0.009599016 -0.09595084
-0.06953633 -0.09716409 0.02637908 -0.008581081 0.0532196 0.074957155 -0.12662826 0.058229767
0.21704128 -0.12364149 0.03420741 0.08985131 0.04090677 0.14202628 -0.08204961 -0.06611481
-0.1145111 0.04475796 0.0739553 -0.3669206 0.19297408 0.034467287 0.07968691 -0.051605523
-0.10267086 0.048734426 0.03865246 -0.1088947 0.031026073 -0.013538919 0.14775948 -0.026212007
0.016681964 -0.14227355 0.004374388 -0.47193485 0.04107708 -0.08856077 0.09143984 0.13406818
-0.060439788 -0.45773128 -0.009658698 -0.4820694 0.07568293 -0.1195223 0.056954715 0.23222923
-0.08975035 -0.29792935 0.07462223 -0.1851396 0.08462353 -0.058794357 0.38984352 -0.2225126
0.015216544 0.22910492 0.3647655 -0.012384211 -3.3540695 -0.0054443157 -2.172228 0.16692244

predictor.4.bias f4 [4]
00000000: 3daf 6e3f 1b76 4ebf fe16 94bf ee0d 983f
0.9323614 -0.80648965 -1.1569517 1.1879251
