models/squares/100/class0_teacher_config.pt (torch, 144367 bytes, 9 tensors)

decoder.0.weight f4 [2, 400]
00000000: d71c c8bc 6527 dcbc 6517 81bc d41b 9fbc
00000010: ecd9 27bd 5502 a8bc 220b db3b b299 ab3c
00000020: 2fef 31bd 10c3 14be 3d6b 9bbc 84d2 7abc
00000030: d8a4 15be b5b8 183d 6a14 b2bd 6c19 2bbd
00000040: 89d2 e5bd aed6 cfbc db52 c0bc 2c63 f8bb
00000050: ec42 723c d6fe cb3c bbdc 33bd 7837 2e3d
00000060: e7f8 f7bd 34f5 95bc d460 333d 9b60 94bd
00000070: 25cb 2c3d 074a dd3c 09dc b7bc 98d9 07be
00000080: e259 4fbd a32f 25bd 7e8f acbd c138 eabc
00000090: d25e 9fbd 0e69 afbd c16a 92bb 5168 e7bd
000000a0: d7fa abbc 0687 b3bd b186 a4bd bc1d 2d3d
000000b0: f14f 283b c547 83bd cc82 5f3c e5ad 64bd
000000c0: 3c0d 1abd 1f54 92bd 48a1 1c3a 6047 8abc
000000d0: 3222 b5bd 333b 9fbd 0e0e 37bd ba20 f03b
000000e0: 6b6f 57bc 268c cb3c ebeb 063d 2a9b dfbd
000000f0: c8bd c1bd 7b14 9c3c d6f3 303d 7d43 4fbd
00000100: ab0f 04bd 7415 15bc fe0a 3fbd dc38 9abc
00000110: 592c 62bb 3ff9 5fbd 8973 bfbd c05c a7bd
00000120: 2648 3ebd 5a50 6dbc e49b acbd 1a17 febc
00000130: 6a76 58bd 68b5 e93b 1afe 443d 71f4 09bd
00000140: 8b21 4bbd a560 f0bc e66e a4bd 5ee2 0c3c
00000150: af01 0ebd 639c e8bc a6dd bc3c 7e2a 12be
00000160: 1686 b3bc 4100 97bb b2ec e53c dd33 f1bc
00000170: 15c2 0ebe e59b 01be 6ebe acbd ff67 86bd
00000180: d1a8 00be 2dd2 58bd 2516 bdbd 057a d5bc
00000190: 14d4 3bbd 719b 4abd 4f5f ecbc ea99 d2bd
000001a0: 03c9 e8bd 7ed8 17be 4d34 203d 92f0 8fba
000001b0: da59 8fbd 4e20 c83c a54e d3bc 1404 13bc
000001c0: f453 603c 9b08 3e3c 2675 bdbd cb39 10be
000001d0: 2578 92bd 6acb 35bd 1f07 05bc 0f7e e23c
000001e0: b99e 82bd f695 ce3c 797f 5b3b a4d1 c9bd
000001f0: 8f21 9ebc c5bc 77bd ab4c de3c 642a 913c
00000200: aace 13be 0e53 8bbd 5eb1 3fbd 5e83 c5bc
00000210: e090 d4bb 6ea8 55bd 9569 04be b2fb c7bd
00000220: 5cda a4bd 8e39 17be 68b5 e83b 91d9 babc
00000230: a81c 9e3b 46fc 9bbd 643f e9bb 8423 91bd
00000240: 7641 be3b 8892 e1bd a895 18be e3ec 1d3d
00000250: 3646 e63c 8b90 4dbd c968 bcbd 305e a8bd
00000260: 0e2f 36bd 1efe 3dbd 11bb 93bc 0b73 d43c
00000270: d3d2 30bd c778 0dbe 85b8 b4bc 32fa cdbd
00000280: 7ba9 0fbe 99f7 0ebe da56 aabd 6cd6 acbb
00000290: 99c9 d7bd 54be 963c 0f8d 75bd 37cd 89bd
000002a0: 94aa 7bbc f230 ccbd 903e a4bd 49ba 30bd
000002b0: 2eae 99bd efc1 58bd e993 12bd 42a0 eabc
000002c0: d7c5 273d bb71 183d 4b9c 52bd a13f 75bc
000002d0: 8613 c5bc 2dc9 09bd a40d a9bd e0e3 1bbe
000002e0: 520a b73c c775 37bc e203 50bd f3f3 9c3c
000002f0: 8ba8 5ebc 6a06 e2bd 6487 6bbc 7cbb d9bb
00000300: d741 4fbd 3f53 babc 0d95 86bd 0d6c 1e3d
00000310: 2453 66ba 12b1 003d ac3e a8bd a631 aa3c
00000320: 5614 05be 7dde 94bc bd40 ad3c e1aa 43bd
00000330: c4c8 afbd 7132 c2bc 9c26 f3ba e87a 9abd
00000340: 1c00 153d 406d d3bb e2a8 cdbd 3ba4 f9bd
00000350: a693 62bd e761 f03c 9b68 68bd 10da 2f39
00000360: 07e7 87bd 0be9 66bd 7bca 3f3c ed89 1d3d
00000370: 85f8 b0bc b818 9e3c e7b3 1f3d 76db 9abd
00000380: a030 2bbd c9df 9bbd 0e79 c2bc d970 80bc
00000390: 17a9 d1bc 6b63 93bd 181e 9bbd 72e0 00bc
000003a0: 4305 b4bd c9be c03c bcf6 98bb 9f12 13bd
000003b0: 120d 88ba 592c fabc a158 c5bd 21ce cfbc
000003c0: 2045 b8bd b0d1 8dbc 2297 cdbd 387c aabd
000003d0: 0eb8 23bd 9b10 2abd 18dd e1bd 41f6 d8bd
000003e0: 0b2d a3bc 10ca d1bd 6265 ee3a 9177 e7bd
000003f0: 3e28 e3bc 2be0 243c c94c 81bc 1087 933b
-0.024427814 -0.026874254 -0.015758226 -0.01942245 -0.04097931 -0.020508924 0.0066846767 0.020947311
-0.043440994 -0.14527535 -0.018972034 -0.01530898 -0.14613664 0.037285525 -0.086953 -0.04177229
-0.11221797 -0.025370922 -0.023477009 -0.0075801816 0.014786463 0.024901789 -0.043911677 0.042533368
-0.12108021 -0.018305399 0.043793514 -0.072449885 0.04218592 0.027012838 -0.022443788 -0.13266599
-0.05062283 -0.040328633 -0.084258065 -0.028591515 -0.077817574 -0.085649595 -0.0044682925 -0.11299194
-0.020993633 -0.08765988 -0.08033503 0.042264685 0.0025682414 -0.06410173 0.013642024 -0.0558299
-0.037610278 -0.07144951 0.00059749605 -0.016879737 -0.08844413 -0.07774963 -0.044691138 0.00732812
-0.013149123 0.024847101 0.032939833 -0.10918267 -0.09460026 0.019052735 0.04320129 -0.05060147
-0.032241505 -0.009099353 -0.046641342 -0.01882594 -0.0034511297 -0.05468106 -0.093482085 -0.081719875
-0.046455525 -0.014484489 -0.08428171 -0.031016875 -0.052847303 0.007132221 0.048093893 -0.033680383
-0.049592536 -0.029342959 -0.08028965 0.008598892 -0.034669574 -0.028394883 0.023054909 -0.14274022
-0.021914523 -0.0046081846 0.028066967 -0.029443676 -0.13941224 -0.12657125 -0.08434759 -0.065628044
-0.12564398 -0.052934814 -0.09232739 -0.02605916 -0.04585655 -0.049464647 -0.02885404 -0.10283263
-0.11366465 -0.14828679 0.039112378 -0.001098173 -0.0699956 0.024429467 -0.025794337 -0.00897314
0.013691891 0.011598731 -0.0925086 -0.14084546 -0.07151822 -0.044383444 -0.008119374 0.027648
-0.0637793 0.025217991 0.0033492728 -0.09854439 -0.019303111 -0.06048276 0.027136168 0.017720409
-0.14434305 -0.06802951 -0.04680001 -0.024110492 -0.006486997 -0.05216258 -0.12930901 -0.09764804
-0.08049461 -0.14768049 0.0071017034 -0.022808822 0.0048251934 -0.07616477 -0.0071181525 -0.07086852
0.0058061434 -0.11014277 -0.1490084 0.03855599 0.028109651 -0.050186675 -0.09199674 -0.0822109
-0.04447847 -0.046384923 -0.018033536 0.025933763 -0.043169808 -0.13815604 -0.022060642 -0.100574866
-0.14029495 -0.13961639 -0.08317347 -0.0052745845 -0.105364986 0.018401302 -0.059948977 -0.06728595
-0.015360493 -0.09970273 -0.08019745 -0.043146405 -0.07503925 -0.052919324 -0.03578559 -0.02864087
0.04096016 0.037217837 -0.051418584 -0.014968784 -0.024057161 -0.03363912 -0.08254555 -0.15223646
0.022343788 -0.011197514 -0.050784953 0.019159293 -0.013589988 -0.1103638 -0.014375541 -0.0066446643
-0.0505999 -0.022744773 -0.06571398 0.038677264 -0.00087861926 0.031418867 -0.08215079 0.020775627
-0.12996039 -0.018172497 0.021149034 -0.047770385 -0.08583215 -0.023705693 -0.0018550935 -0.07542974
0.036377057 -0.0064522326 -0.100419775 -0.121895276 -0.05531659 0.029343558 -0.056740385 0.00016770535
-0.06635862 -0.05637459 0.01170599 0.038461614 -0.021602878 0.019298896 0.038989928 -0.0756139
-0.04179442 -0.07611043 -0.023739364 -0.01567881 -0.025593324 -0.07196697 -0.07574099 -0.007866012
-0.08790066 0.023528473 -0.004668085 -0.03590643 -0.0010379872 -0.030538725 -0.09636045 -0.025366845
-0.089975595 -0.0173119 -0.10038592 -0.08324474 -0.03997045 -0.041519742 -0.110284984 -0.10593844
-0.01991894 -0.102436185 0.0018188173 -0.11302102 -0.02772915 0.010063211 -0.015783684 0.0045021847

projector.0.weight f4 [40, 4]
00000000: f448 d8be f1da fd3e 37ca d03e 9b0b 933e
00000010: 4c25 9c3d 1697 bb3e 4172 523d b470 bdbe
00000020: 95a9 f73e bad5 11bf c782 b6be d490 f03e
00000030: 9af7 103f da13 c4bd 2610 e6be 122b 6d3e
00000040: 926a c73e 511a 8abe 2475 123e 651a e6be
00000050: 34cd ffbe 819e 8e3e 6ece b53e 9c76 9cbd
00000060: 52d7 c5bd 8552 8d3e 26b0 9dbe 6622 44be
00000070: 254e c3bc 2aa8 30be cad8 9d3e 0c59 eabb
00000080: 411c ec3e 63eb 1b3e f9f2 733e 58fb 06bf
00000090: 9e84 3d3e 17f3 1a3f 7cf2 293e 633c 02be
000000a0: 7c55 9b3e 8930 70be 0013 58bc b52d 553e
000000b0: 7d13 59be ba9b e73d 0a6e f03e 22e9 df3e
000000c0: 8eee 3bbe 8f6f 3dbe d612 aa3e 0217 173e
000000d0: 9013 7ebd 6007 183e 1c64 34be eb0b 63be
000000e0: 0416 a23d 8ccc e23e 5eed 593a 23fd 873e
000000f0: 3abc b9be 978d 963d 1193 e5bc 0004 f13d
00000100: 2201 7dbe 3524 123f cd7e 2d3e 8743 0abf
00000110: 823c e3be 16a4 8fbe 288b dbbe 5c6c 5ebe
00000120: f30b a13d f277 e23e d587 f4be 2bea 193e
00000130: 8437 98bd 4f2b f6be 9010 61bc eecd 51be
00000140: 70fb 973e e5f3 8ebe 1ce5 a6be 3e3d 753e
00000150: b328 083e c9b0 2cbe 7d0f 56be 88f5 603e
00000160: 2d12 893e 6340 613e abc2 3bbe a127 4a3e
00000170: 6e36 a33e ffd0 0cbe 88c9 623e cecb c3be
00000180: 0bc2 78be 0926 bebd dc34 453e 4713 ddbe
00000190: 253a f73e 07cf e8bd 27b8 8a3e 552e b1be
000001a0: 5668 093f 0210 05bd 2c39 de3d f5de f1bd
000001b0: 70df 933e 37e3 6dbe 5473 f6be ce24 2c3d
000001c0: 9d1c 903e 3e20 6dbe fa63 c13e b1a3 743e
000001d0: 6350 793e 83d2 a73e 9b4c 64be d6f2 49be
000001e0: 661e 2d3e 53e1 04bf 43dd cd3e dc61 efbd
000001f0: a257 db3e 6273 0cbe 6b3d 3e3e cdda a2be
00000200: 35c4 86be 0902 2f3d 0289 e2be a34e 733e
00000210: d8cd ebbe c74c ccbe dafa fbbe 53e5 c93e
00000220: c2ae 2a3e c227 5e3e fa49 abbd 2fe9 b6be
00000230: d586 8abe c997 843e 4608 cabe d9eb babe
00000240: d51c d2be a16d cabd 340b ee3e d3d2 ac3d
00000250: 4efd 29be cfab 033d 9d9b f1bc 39f1 10bf
00000260: 7f2e 2d3e c837 6a3e 67c7 be3e 3f5f c8be
00000270: 8a98 9e3e d287 033f 5d94 69bd ef43 a1be
-0.4224316 0.49581102 0.40779278 0.28719792 0.07624301 0.36638707 0.051378492 -0.37000048
0.48371568 -0.56966746 -0.3564665 0.46985495 0.5662781 -0.09574099 -0.44934195 0.23160961
0.38948494 -0.26973203 0.14302498 -0.44942012 -0.49961245 0.27855304 0.35509056 -0.076398104
-0.0966021 0.2760202 -0.30798453 -0.19153747 -0.023840973 -0.1725165 0.3082946 -0.0071517285
0.46115306 0.15226512 0.23823155 -0.5272727 0.1850762 0.60527176 0.16596407 -0.12718348
0.30338657 -0.23456015 -0.013188124 0.20818217 -0.2119884 0.11308999 0.46958953 0.43732554
-0.1835272 -0.18499587 0.33217496 0.1475487 -0.062030375 0.14846563 -0.17616314 -0.22172515
0.079143554 0.44296682 0.00083132635 0.26560315 -0.36276418 0.07351225 -0.028024228 0.11768341
-0.24707463 0.570865 0.16942902 -0.5400929 -0.443821 -0.28054875 -0.42879605 -0.21721023
0.07863607 0.44232136 -0.47759882 0.15030734 -0.07432464 -0.48079917 -0.013736859 -0.20488712
0.2968402 -0.27920452 -0.32596672 0.23949143 0.13296776 -0.16864313 -0.20904346 0.21968663
0.2677168 0.21997218 -0.18335979 0.1974168 0.31877464 -0.137516 0.2214719 -0.38241428
-0.24292772 -0.092845984 0.19258446 -0.4317877 0.48286548 -0.11367612 0.27093622 -0.3460566
0.5367483 -0.03248597 0.108507484 -0.11810104 0.28881407 -0.23231207 -0.48134863 0.042027287
0.2814683 -0.2315683 0.3777159 0.23890568 0.24347071 0.32777795 -0.22294848 -0.19721541
0.16906127 -0.5190632 0.40207872 -0.11688587 0.42840296 -0.1371589 0.18578117 -0.31807557
-0.2632157 0.04272655 -0.44245154 0.23760466 -0.46055484 -0.39902326 -0.49214822 0.39432773
0.16668227 0.21694854 -0.08363719 -0.3572478 -0.27055994 0.25897053 -0.39459437 -0.36508062
-0.41037622 -0.09884191 0.46492922 0.08438649 -0.16600534 0.03214627 -0.029493148 -0.56618077
0.16912268 0.22872841 0.37261507 -0.39135167 0.30975753 0.5137912 -0.057026256 -0.31497142

projector.0.bias f4 [40]
00000000: 5e96 ec3e ca2e 293e 0765 ea3e 38a7 debe
00000010: 9698 543e 756c a3bc c3b6 803d 1def 2e3d
00000020: 71e4 b33e ab4f f93e af5f 883e 85ed 013f
00000030: 778d 02bf 6e19 5ebe a82c dcbe 3bec 9a3d
00000040: 7f22 293e a6cb b6be 5f71 8cbe 8673 de3e
00000050: b387 9f3e ad73 f53e 9b19 b4be c24d eb3c
00000060: dfb2 f83e baf1 9fbe cef1 8fbe ecc0 513d
00000070: b346 c63d 8223 9cbe 3cfb 3bbd 3c61 ea3e
00000080: 0ea4 383e ef98 aebe 95ef 77bd 8b7b 34be
00000090: 08a9 a2be b19a 063f 9f8b 40be 7599 d03e
0.4620847 0.16521755 0.45780203 -0.43486953 0.20761332 -0.019949177 0.06284859 0.042708505
0.35135224 0.48693594 0.266355 0.5075305 -0.5099711 -0.21689388 -0.4300282 0.07564589
0.16517065 -0.35702246 -0.27430245 0.43447512 0.31158218 0.47939816 -0.35175785 0.028723601
0.48573968 -0.3123911 -0.2811417 0.051209375 0.096814536 -0.3049584 -0.045893893 0.4577731
0.18031332 -0.34101054 -0.060531218 -0.17625253 -0.31769586 0.5257979 -0.18803261 0.40742078

projector.2.weight f4 [400, 40]
00000000: 1292 263e 7dfd a03d 60b3 99bd 727b 9b3d
00000010: b95b 1dbd 040b 07bd eee1 433d c83d 21bd
00000020: 9fbe 203d 47db ce3d 006d 72bd 36b5 483e
00000030: 414f 1e3e 52fc 97bd 7bb3 3fbd 488a 573e
00000040: 6a61 b43d 567f 06bd 4e14 543e e9c4 52bc
00000050: 5b4b 72bd d281 e83d b221 0b3e 47fb 96bd
00000060: 7cf7 303e bd53 8f3d 1ddd 263e a341 b0bd
00000070: 0899 43bd f9a6 43bd 7f45 a2bd f023 523e
00000080: 6046 3dbd eba8 ae3d 2444 16bd 3a3c 6c3e
00000090: 7891 313e 6ca8 673e 5f8d 583e 3433 02bd
000000a0: c8d9 103e 38fa 6a3c 591e 403e 5551 4dbd
000000b0: 8494 ef3c 6ce1 883c 659a e3bc 3adb 35bd
000000c0: 6f0a 003e 2f3f 663e 99d7 193e 1c34 103e
000000d0: 58d0 a63d b40e 173e 8361 2b3d 3f0d 113d
000000e0: 6dc4 81bd 6778 d43d 127d 4c3e b67b 593e
000000f0: 620b cb3b a08a 873d 44f8 453d ae5a c4bb
00000100: 30b8 0d3e 9748 f33d db0e 053e 0a9a 223e
00000110: 382b 843d d963 b7bd 246f 3d3e a74f b83d
00000120: af05 553e aad5 e73d 154e 8fbb f02f 573c
00000130: 08ad b53c fbab 383d 931b 8abd 4970 c13d
00000140: 1213 ba3d a4e3 7ebd 0ad9 97bd 9621 fbbd
00000150: 920f 17be 0a97 973d 9583 21bd cd70 16be
00000160: e00b dbbd 3d07 493d 1de3 58bd f8aa 52be
00000170: 1ed0 32bd 66b1 bc3d d30f 53bd 8ec2 3b3d
00000180: a633 49be b90c 133e fad2 993c 2014 003c
00000190: e042 483d eaec 38be c5d1 a8bd c0db 76bc
000001a0: 7a30 cb3c ec65 343d 70d5 8a3c 2da5 b5bd
000001b0: fe8f 34be 0070 583a b842 14be a936 cdbd
000001c0: 2e5c a7bd 00a0 753b 9ff0 abbd 309c 45be
000001d0: 8686 26bb 20c2 95bd 5b44 39bd 11df f63c
000001e0: ef30 023e 46d2 bc3d 0177 063e f373 f3bd
000001f0: 4dae b53c bf2e 243e c6e8 c03d eb54 c3bd
00000200: d9e5 623d 40c0 563e 0423 0d3e 9fad 683c
00000210: 171b 0ebb 9457 6d3c 20ef 5f3e f7ed 8fbd
00000220: 5c32 59bc c236 103c a0c6 113e f65c b8bd
00000230: 0bc3 263d 4e88 a7bd 6101 13be 2b39 c23c
00000240: d684 76bd 685e 16bc 8d7f 2f3e 9f6d 28bd
00000250: 4d2c ca3d cffa ffbc 00d3 fe3b 7211 583e
00000260: 9541 6d3c f442 fbbd faac 41bd 1467 233e
00000270: 675f dc3c 3f32 423d 76c5 5d3e f8c7 19bd
00000280: cbe5 013d c23f 37be 102b 14bd afb5 373e
00000290: f456 a33d 19b0 8cbd 3032 953b df43 663d
000002a0: b883 c6bd 783c cc3d c026 293e f8a5 74bc
000002b0: 4517 70bd 8a54 e1bd 36e3 803d 1296 aa3d
000002c0: cc7a d43a 5487 49bd f330 05bd 543f c13d
000002d0: 33ac 343e 64b9 293e a998 95bc 32cb 963d
000002e0: 50d9 babd e6fa 473e 7221 9bbd eba0 34bd
000002f0: 8241 35bd cedf eb3d b229 cb3d cc75 fc3d
00000300: 8ce6 a53c 760b 373e 12e4 a1bd 3b61 39be
00000310: 680e 113d 7d74 8ebd 0265 aa3d 9e92 fb3c
00000320: 34ef 0fbe 916a c6bd 0bde 563e 7f48 313e
00000330: 7c9a 32bc a0a4 bebd 5c8d ddbc a2db f33d
00000340: 0d83 f33d a6c4 ce3d 355f bdbd a362 1e3e
00000350: b896 063d f5a6 e7bd d68e e53d 0caf f7bd
00000360: d55a 3fbd f78b 133e 8841 033e 08a2 4d3c
00000370: 6ad2 153c b267 0fbe c7f6 153c 47e4 053e
00000380: 7a05 1ebd 7c45 253e ec57 97bd f1ae c4bc
00000390: 7c2e 913d 2548 2d3d 9fa9 233e 5682 363e
000003a0: 5237 c53d 844e 27bb bc37 e23c 57e6 27be
000003b0: afc9 43be e7be f6bd 83e3 13be 5073 1dbe
000003c0: 9293 b83d 7c34 e13c 41fa 34bd 6610 54bd
000003d0: 24cd 183e c940 0abd 9bae 50bd 7a6e b13d
000003e0: 551c 093e ba0e 573e ff1b 833b a999 243c
000003f0: 22e5 963d 32a7 4dbd e367 193e 8113 623c
0.16266659 0.07860849 -0.07504916 0.07591905 -0.03841755 -0.03296949 0.047822885 -0.03936556
0.03924429 0.101004176 -0.05918598 0.19600376 0.1545992 -0.07421173 -0.046802025 0.21048844
0.08807643 -0.03283628 0.2071087 -0.01286433 -0.059153896 0.11352886 0.13587072 -0.07372146
0.17281908 0.06998394 0.16295286 -0.08606269 -0.047753364 -0.04776666 -0.079234116 0.20521522
-0.046209693 0.08528312 -0.036686078 0.2306985 0.17340648 0.22622842 0.21147679 -0.031787112
0.14145577 0.014341883 0.18761577 -0.050126392 0.029245622 0.016709052 -0.027783582 -0.044398524
0.1250398 0.2248504 0.1502365 0.14082378 0.08145207 0.14751703 0.04184104 0.035413023
-0.06336293 0.103745274 0.19969586 0.21238598 0.0061964253 0.066182375 0.048332468 -0.005992255
0.13839793 0.1187908 0.12993948 0.15879074 0.06453556 -0.08954591 0.18499428 0.089995675
0.2080295 0.1132005 -0.004373322 0.013133988 0.022177234 0.04508589 -0.067435406 0.09445245
0.090856686 -0.062228814 -0.07414444 -0.122622654 -0.14752033 0.07401855 -0.039432127 -0.14691468
-0.10695624 0.04907917 -0.052950967 -0.20573032 -0.043655507 0.092135236 -0.051528763 0.04583984
-0.19648609 0.14360322 0.01877736 0.007817298 0.048891902 -0.18059126 -0.08243135 -0.015067041
0.024803389 0.044042513 0.016947478 -0.088693954 -0.17633054 0.00082564354 -0.14478576 -0.10020191
-0.08171879 0.00374794 -0.08395504 -0.19297862 -0.0025409772 -0.07312417 -0.045231204 0.030135663
0.12713979 0.09219794 0.13131334 -0.1188735 0.02217784 0.16033457 0.09419398 -0.09537681
0.05539498 0.20971775 0.13782889 0.014201551 -0.0021683627 0.014486212 0.21868563 -0.0702781
-0.0132566355 0.008802118 0.14235926 -0.09002106 0.04071335 -0.08180295 -0.14355995 0.0237089
-0.060185276 -0.009177782 0.171385 -0.041120168 0.09871731 -0.031247525 0.007776618 0.21100405
0.014480968 -0.1226863 -0.047284104 0.1595729 0.02690096 0.0474112 0.21657357 -0.03754422
0.03171329 -0.17895415 -0.03617388 0.179404 0.07975569 -0.068695255 0.004553102 0.05621707
-0.09693092 0.09972471 0.16518688 -0.014932148 -0.05861594 -0.11002453 0.06293337 0.08329405
0.0016210913 -0.049201325 -0.032517385 0.09435907 0.17643814 0.16574627 -0.01826127 0.07362975
-0.0912348 0.19529304 -0.075747386 -0.044098776 -0.044251926 0.11517297 0.09920062 0.123271555
0.020251535 0.17875466 -0.07904829 -0.18103497 0.03541413 -0.06955812 0.08320047 0.030709561
-0.14056093 -0.09688295 0.2098314 0.17312811 -0.01090109 -0.093087435 -0.027044944 0.11907126
0.1189023 0.100961015 -0.09246675 0.15467314 0.03285858 -0.113111414 0.112088844 -0.120939344
-0.046717484 0.14408861 0.12817967 0.012550838 0.009144405 -0.140044 0.009153075 0.13075362
-0.03857944 0.16139787 -0.07389817 -0.0240092 0.07088944 0.04230513 0.15982674 0.17823157
0.09629692 -0.0025528977 0.027614467 -0.16396461 -0.19119905 -0.120481305 -0.14442258 -0.1537602
0.09012522 0.027490847 -0.044183973 -0.05177345 0.14922005 -0.03375319 -0.050947767 0.0866365
0.13389714 0.21001711 0.00400114 0.010046401 0.07367922 -0.050208278 0.14981036 0.013798595

projector.2.bias f4 [400]
00000000: 5fd2 d73c df55 783d c6a6 0cbe 0065 0db7
00000010: 2534 553b c771 1e3e 8652 bf3d 3bd9 a13d
00000020: 558b 133e 873c b53d df15 04be 74b0 cd3d
00000030: 3cd6 503d 8abb 2cbe e2e1 0a3e 4ed9 073e
00000040: 43a8 703e 9d36 6e3e 4f68 963c 08af debd
00000050: f302 853e d953 343d 8f2c 803d ee0c 793c
00000060: f312 dbbc cc2a 313e 66c3 883d 852f 493e
00000070: fdea be3d a206 edbd ae7f 79bd c57c 05be
00000080: 8ae5 8a3d a20e a33d 26d7 3dbe 0f7c 003e
00000090: 5c86 92bc d530 53bd 6ded 323c 137d 6cbb
000000a0: a745 e53d 6909 d53d ffa4 ed3d 9669 613d
000000b0: c6ca 133d 0697 98bc 5101 9dbd 9a75 1c3e
000000c0: cdfc c6bc 60de 573c 3eb9 28bb 36b0 f23d
000000d0: 1c81 0ebe 4f1a 0d3e 9637 7f3e c80f cfbc
000000e0: febc 7f3d 86ab 5fbd 4520 663d d897 00be
000000f0: 86d9 cfbc d06a ecbd ce85 383d 5877 55be
00000100: 2103 2ebc 8644 a2ba 9790 16be 59d7 493e
00000110: ca32 bbbc 0715 28be 63d3 5a3e dbc7 eb3d
00000120: e3d2 f5bc bc76 713e 0f6f bdbd bc1a 833e
00000130: 7790 3a3e 584a 843c 3ed6 cb3d 9122 3a3e
00000140: fe43 29be 6ce2 8ebd 68d3 3a3d d25c 203e
00000150: 6101 0f3e e573 f6bd 24e5 69bd 768a 403d
00000160: 3819 e9bd 048f fc3c 14b0 ab3d b5a0 d6bd
00000170: f0d8 81bd ba58 ec3c a2b5 09be b5eb 6a3d
00000180: 31f0 2d3d 86f0 193e 8509 ddbb 00d8 013e
00000190: d295 d2bd c0f3 8b3d fd48 b0bd 130c b0bd
000001a0: b9cc 683d d8b7 c9bd d989 07be 388e 81bd
000001b0: b814 513c 068f 82bc 65e4 2a3e 147f 89bc
000001c0: 31e2 dc3d 1eb8 fa3c 1714 5cbd 323e fdbd
000001d0: 2ef3 9f3d af93 42bd d664 803c fd2f 823c
000001e0: 4062 e9bd 927d 5fbd b920 fcbc 157b 823d
000001f0: 47c5 11be b45e 483e 921e 753d 2861 8cbd
00000200: baed 263d 6cdb cbbd a8e2 383d 8c46 c3bd
00000210: cb7d 06be 7e05 5d3b 24cd 423e cef7 973b
00000220: 90be 60bd fdda 0cbd 41b6 933d 602a 72bc
00000230: e117 f63d 4a4d 113d b74d 3d3d f68b 97bd
00000240: 7f04 4fbb ce0e 323d 1be3 f33d b03b 4d3e
00000250: 0011 103c 809d 853a e7ea e53d e8b6 f63d
00000260: 72f3 6a3e 270c 003e 5956 2f3d 4ec6 1f3e
00000270: 6da4 9bbd dd77 673e 60a8 3e3d 0bf6 0c3d
00000280: 0cdc d63d f563 8bbd 3893 d93c 6405 2fbe
00000290: a8cf acbd d4ee 1d3e bf7d 533e 421f 5a3c
000002a0: a4ee be3d fb17 543e d783 3dbd 23d9 9dbb
000002b0: 044b 35be f1f7 773e 48b0 2b3e 5fa5 323c
000002c0: ca9e 563e 48f4 8d3d 73a5 9a3d 2a88 703e
000002d0: 056f de3d fc08 4e3e 5b06 673e 0a36 043e
000002e0: 4fe6 cd3d 781d 433e a864 dc3d ed98 923d
000002f0: 70cc 46bc fbf4 20be 2c63 543e 3a53 bebc
00000300: aa25 aebb f880 9ebd d601 eb3b 0c5d f13b
00000310: c87f c13c 682a dc3d 6ee8 04be eef7 443d
00000320: f78c 0b3e b5db 40be 20f9 653d 6a6f bd3b
00000330: be42 7e3e fff8 7f3e 57f1 dfbd efb8 263e
00000340: b236 033e 2b06 8cbd 7495 213c c69a 8b3d
00000350: 1022 ad3d a0e2 1cbd 2015 64bd 9c95 353e
00000360: eca7 c0bd acf7 09be 28e8 e2bd a556 e4bd
00000370: 3c44 1f3e e26f c53d f226 443c 8729 563d
00000380: b857 53bd e8f9 813e c094 903d affd a03d
00000390: c1cd 293e f51a 873e 5044 f43b 1cd5 033e
000003a0: e1fb 013e c847 96bd 75ac 453d f60f 82bd
000003b0: 0be8 19be eecc 26bc 6539 6e3e d1ab 903d
000003c0: 6695 913c ee62 ecbd 4571 02be 7efb 07be
000003d0: 45cd 863d 7965 0ebd 2a3d 5f3d 9708 44bc
000003e0: b0cd ee3b b8bb bc3b 5a61 5a3d 01d8 0ebe
000003f0: 3689 53bd 1023 193c 2303 76bd 0f0a b1bd
0.02634543 0.060628768 -0.13735494 -8.427771e-06 0.0032532301 0.1547309 0.09341912 0.079027615
0.1440862 0.08849435 -0.12898968 0.100434214 0.05098556 -0.16868415 0.1356273 0.13266489
0.23501687 0.23263021 0.018360285 -0.10873228 0.25978813 0.044025276 0.06258499 0.015200837
-0.026742434 0.17301482 0.06677894 0.19647034 0.09322164 -0.11573531 -0.06091278 -0.13035877
0.06782062 0.07961775 -0.18539104 0.12547325 -0.017886333 -0.05156024 0.0109208645 -0.0036085292
0.11194926 0.104021855 0.11603736 0.055032335 0.03608205 -0.018626701 -0.07666267 0.15279236
-0.024290467 0.013175577 -0.0025745179 0.11850016 -0.13916439 0.13779567 0.24923548 -0.02527608
0.062436096 -0.054606937 0.05618312 -0.12557924 -0.025372278 -0.1154381 0.04504948 -0.20846307
-0.010620863 -0.0012380041 -0.14703594 0.19711055 -0.022851367 -0.16414271 0.213697 0.11512729
-0.030007785 0.2358045 -0.09249698 0.25606334 0.18219171 0.016148731 0.09952973 0.18177249
-0.16529843 -0.0697678 0.04561177 0.15660408 0.1396537 -0.12033824 -0.05710329 0.047007047
-0.11381763 0.030829914 0.083831936 -0.10479871 -0.06340206 0.028850902 -0.13448194 0.057353694
0.042465393 0.15033159 -0.0067455196 0.12680054 -0.10282482 0.06833601 -0.086076714 -0.08596053
0.056835864 -0.098495185 -0.13236178 -0.06325954 0.012761287 -0.01593734 0.16688688 -0.016784228
0.1078533 0.030605372 -0.053730097 -0.123653784 0.07810055 -0.047504123 0.015673082 0.015892023
-0.11395693 -0.054563113 -0.030777322 0.06371132 -0.14235412 0.19567376 0.059843607 -0.068544686
0.040754057 -0.09953961 0.04513803 -0.0953494 -0.13133924 0.0033725197 0.19023567 0.004637695
-0.054869235 -0.03438853 0.072124965 -0.014780611 0.12016273 0.0354741 0.046216693 -0.07399742
-0.0031588373 0.04347115 0.11908551 0.200423 0.008793116 0.0010194033 0.11226445 0.12046605
0.2294443 0.12504636 0.042806957 0.15602991 -0.07599721 0.22604318 0.046547294 0.034414332
0.10491189 -0.06806175 0.026559457 -0.170919 -0.08438045 0.15423137 0.20653437 0.0133131165
0.09322861 0.20712273 -0.04626831 -0.0048171445 -0.17704397 0.24215676 0.16766465 0.010903685
0.2095901 0.069313586 0.07551088 0.23489442 0.10861019 0.20120615 0.22561018 0.1291124
0.100536935 0.1905421 0.10761386 0.071580745 -0.012133703 -0.15718453 0.20740956 -0.023233045
-0.0053145485 -0.077394426 0.0071718497 0.0073658284 0.023620501 0.10750276 -0.1297929 0.048088007
0.13627993 -0.18833812 0.056145787 0.005781104 0.24830148 0.24997328 -0.10934704 0.16281484
0.12813833 -0.06837114 0.009862293 0.0681663 0.084537625 -0.038302064 -0.05568421 0.17732853
-0.094070286 -0.13473386 -0.110794365 -0.11149339 0.15553373 0.096404806 0.011972176 0.052285697
-0.051597327 0.25385976 0.07059622 0.07860886 0.16582395 0.26387754 0.0074544325 0.12874264
0.1269374 -0.0733791 0.04826017 -0.063507006 -0.15029924 -0.010180695 0.23264082 0.070640214
0.017771434 -0.11542307 -0.12738521 -0.1327953 0.06582121 -0.03476474 0.05450169 -0.011964939
0.0072877035 0.0057596825 0.053315498 -0.13949586 -0.051644526 0.009346738 -0.060061585 -0.08644497

projector.4.weight f4 [40, 400]
00000000: e61a 8cbd ab71 81bd e1c8 033d f6ac e53c
00000010: af4b 283d 11d5 f4bc e5f7 073d fb9f a4bc
00000020: 0547 033d 25a1 1abd 8d8d 41bd a86d b5bd
00000030: 148f 97bd 8057 2dbb 6f06 8cbd c954 083d
00000040: 8a21 01bd 0e17 53bc 079e d1bc d8b4 ee3b
00000050: fac5 e2bc 47af 05bd 8945 c1bd 3f74 083d
00000060: c24a 9f3c 0ce1 b8bd a6ef 8c3c 4071 86ba
00000070: d026 20bc c5aa 10bd 6a49 70bb 137c f1bc
00000080: ef17 433d 073e 9fbc 5eb8 c93a d011 32bb
00000090: 4922 0abc 5bb3 353d 00d9 9fb9 5a6e fbbc
000000a0: 0617 80b9 9c22 c6bd aaf6 6fbd 3704 e5bc
000000b0: 762a 81bd d70f 133d 408e 66bc 56d4 b1bd
000000c0: abba 303d bdf4 86bc daa0 4ebd a068 79bd
000000d0: e6d0 a53c ff52 77bd 6b28 29bc 5dd0 6cbd
000000e0: 3462 9fbd 2451 79bd 8456 24bd 9be4 023d
000000f0: b741 ebbc d04c b4bb d94a 0a3d 6011 dcbc
00000100: abd7 493d f42f 2e3c 218f 063d 7b92 b9bd
00000110: 76d3 bcbd 3c9a 4dbd 5b42 3abd 762c 43bd
00000120: 40a2 cc3a ead4 dabc bbe9 6abc 967f c0bd
00000130: 6624 a6bd c799 d7bc 7887 27bd 7233 dd3c
00000140: 5a03 b5bc 854f 6bbd 2025 03bd 6e9c b1bd
00000150: 63c8 81bd a033 1d3b cd2d 73bd 481f 44bd
00000160: d45a 55bc 4448 8c3a 0414 80bd 40fc e4bc
00000170: 5a6b 8bbc 7848 20bc 43e6 2ebd 40ae b9bd
00000180: e84d bbbd 8729 ccbc b134 213d 8866 2cbd
00000190: b491 80bc 454b a2bd 1c8d c1bd 135e 46bd
000001a0: e341 c5bc 5729 21bc c019 2fbd 3164 163d
000001b0: 6f3f fdbc 2a1b eabc ae22 40bd d4d5 70bc
000001c0: d967 70bd 910e 7cbd b7d9 debc a843 b1bb
000001d0: c6cb 24bd ed2e 60bd 2d6c 47bd 7a4d 963c
000001e0: e9f3 cabb e6b5 863c 356f 9bbc 19d8 b7bd
000001f0: e073 82bc e667 0dbd 98a9 b2bd 9e91 79bd
00000200: 5548 a3bb d237 863c d778 1d3d 0018 68bc
00000210: 6d20 dabc 1f10 79bd f922 febb dc37 e9bc
00000220: c0f9 b8bc b59a 0f3d 2007 37bd 7211 7cbd
00000230: 22ed 96bd 309c 98bc 4622 c9bb 99b8 89bb
00000240: 4aa8 88ba 4a0e e7bb c11d 463d c305 7bbd
00000250: 39e0 493d e906 043d f24d 7abd 00cb c43a
00000260: ee51 45bd 6063 34bd 104a a63b a6b9 7bbd
00000270: 7430 523c a22e 8abd f44a 08bc a11f 6dbd
00000280: 2a7d b93c b84a 11bd ce87 27bd bac9 d6bc
00000290: c44d 583c 83a9 a3bd a53d a0bc 51db bebc
000002a0: 6814 dcbb cecd 25bc ccb7 acbc 52a3 21bd
000002b0: 72b6 863c e13d 91bc 853f 83bd a80c d5bc
000002c0: 0c3e 9dbd 865c a4bc 890e 8ebc b570 8abd
000002d0: e36e 7abd e1a2 5cba 59ac 58bd 5928 943a
000002e0: 9d2a 85bd f7f7 e5bc 204c a3bd 5d4c dcbb
000002f0: 0e5e ff3c 222d aa3c 2f5c 453d 6337 b7bd
00000300: 2b4c 43bd 51a4 16bd ff85 3bbd c81f 2fbd
00000310: 188a b5bb 38d3 faba 21c8 c2bd 2426 b4bd
00000320: 783e c0bd d299 ef3c c34f bfbb 51e1 6bbc
00000330: bcc6 8cbc 13b5 6bbd 5f6e a7bb a684 27bd
00000340: 3be3 76bd 0dff e4bc c02b 78bc 3276 9cbd
00000350: b264 98bd cccd 62bd a0f0 54bc 3684 a1bd
00000360: c40e 513c 03a9 e4bc f724 e9bc 1f07 31bd
00000370: f2c8 9d3c 7874 20bd 65c9 26bd 9010 85bb
00000380: 7597 103d 8943 b8bd 766c b2bd d036 1c3b
00000390: 5112 91bd 8214 43bd 04ee 74bd d3a5 9fbd
000003a0: 2391 a3bd f58f 0c3d 5732 c7bd 5675 90b9
000003b0: 4061 2bba c0f4 aeba 2851 aebd 5f5a b8bc
000003c0: 0bb8 9fbc 00ae 33bd db6a 2dbd ef82 46bd
000003d0: 12d7 0cbd 2f1a 43bd e84a 5bbd 2454 81bc
000003e0: 87da b4bc 365d a93c d6b5 75bb 20b6 42bd
000003f0: 806b 6cba 980b 34bd 4b4c 0bbd e9b3 a9bd
-0.06841068 -0.063205086 0.032173995 0.028036576 0.041087802 -0.029886754 0.033195395 -0.020095816
0.03205015 -0.037751336 -0.047254134 -0.08858806 -0.07400337 -0.002644986 -0.068371646 0.033283982
-0.031526126 -0.012883915 -0.025588049 0.007284742 -0.027682293 -0.03263786 -0.09437091 0.033313986
0.019444827 -0.09027299 0.017204117 -0.001025714 -0.009774879 -0.03531911 -0.0036664852 -0.029478109
0.047630247 -0.019438757 0.0015390029 -0.0027171262 -0.008431026 0.0443605 -0.0003048852 -0.030692268
-0.00024431216 -0.0967457 -0.058584847 -0.027956111 -0.06306927 0.035903778 -0.014072001 -0.08683078
0.04314677 -0.016474122 -0.05044637 -0.060890794 0.020241212 -0.060381886 -0.010324578 -0.0578159
-0.07782403 -0.060868397 -0.04012157 0.031956296 -0.028717859 -0.005502321 0.033762787 -0.026863754
0.049277943 0.01063155 0.032851342 -0.09061142 -0.092200205 -0.050195917 -0.045473438 -0.047649823
0.0015612319 -0.026712853 -0.014337952 -0.09399335 -0.08112411 -0.026318444 -0.040900677 0.02700207
-0.022096325 -0.057448883 -0.032017827 -0.08672415 -0.06337049 0.002398707 -0.05936985 -0.047881395
-0.013022143 0.0010702689 -0.06253818 -0.027952313 -0.017018963 -0.009782903 -0.042700063 -0.09066439
-0.09145719 -0.024922146 0.03935689 -0.04208997 -0.015694477 -0.07924513 -0.094507426 -0.04842956
-0.024079269 -0.009836516 -0.042749166 0.036716644 -0.030914037 -0.028577406 -0.046908073 -0.014699418
-0.058692787 -0.06153733 -0.027203424 -0.0054096766 -0.040233396 -0.054732252 -0.04868715 0.01834749
-0.006193627 0.016444158 -0.018973926 -0.08976764 -0.015924394 -0.034522913 -0.08723754 -0.060929887
-0.004982988 0.01638404 0.03844532 -0.014165878 -0.02662679 -0.06080639 -0.007755634 -0.028469019
-0.022580028 0.03505965 -0.04468453 -0.061540075 -0.07369448 -0.018629164 -0.006138119 -0.004202914
-0.0010426131 -0.007051264 0.04836822 -0.06128479 0.0492861 0.032233153 -0.06110949 0.0015014112
-0.048173837 -0.044040084 0.005074747 -0.061456345 0.012828935 -0.06747176 -0.0083186515 -0.05789149
0.02264269 -0.035471648 -0.040900998 -0.026219238 0.0132021345 -0.07991316 -0.019560644 -0.023297938
-0.0067163 -0.010119868 -0.021083735 -0.039462395 0.016444419 -0.017729701 -0.064086 -0.026007012
-0.0767785 -0.02006365 -0.017340915 -0.067597784 -0.061140906 -0.0008416605 -0.05289874 0.0011303528
-0.065022685 -0.02807234 -0.07973504 -0.0067229704 0.031172778 0.020773474 0.048183616 -0.08946111
-0.04768006 -0.036777798 -0.045782086 -0.04275492 -0.0055401437 -0.0019136434 -0.09510828 -0.08796337
-0.09386915 0.029248152 -0.0058383658 -0.014396981 -0.017184608 -0.057545733 -0.005109593 -0.040897988
-0.060275298 -0.027953649 -0.01514715 -0.076397315 -0.07441081 -0.055372044 -0.012996823 -0.07886545
0.012759868 -0.027912622 -0.028460009 -0.04321968 0.019260857 -0.039173573 -0.04071941 -0.0040608123
0.03530069 -0.08997256 -0.087120935 0.0023836382 -0.07083572 -0.04762698 -0.059797302 -0.077953
-0.07986667 0.034316976 -0.097263984 -0.00027553242 -0.00065376237 -0.0013348088 -0.08511573 -0.02250403
-0.019496938 -0.04386711 -0.042338233 -0.04846471 -0.034384795 -0.047632392 -0.053538233 -0.015787192
-0.022076858 0.02067433 -0.0037492416 -0.04753697 -0.00090187043 -0.04395637 -0.034008306 -0.08286268

projector.4.bias f4 [40]
00000000: 47f6 98bd 9748 efbc 2b4a f7bc 2dd5 bb3d
00000010: 0ce9 293c 4002 403c 2039 4bbd 7e4c acbc
00000020: a49f b4bd 9406 0e3e d312 933d f737 e1bc
00000030: 13c0 193e cec5 25bd 40aa f83a 5be1 71bd
00000040: 6e0b 3a3d 04d7 063e 647c 76bc 7acc ed3c
00000050: 6205 063d 437c 2e3d d406 59bc b1d5 45bd
00000060: 53c1 083e ce25 1e3e eb52 99bd ee0a 8b3d
00000070: 30bd 54bd ccfe 153e 6563 273e 4c7c d03d
00000080: b5b0 5dbc e77d 8fbd a0c9 0cbc f6d3 fa3d
00000090: cb7e 24bd b96e a7bc e652 063e 1da4 bebc
-0.07468849 -0.029209418 -0.030186733 0.091715194 0.010370504 0.011719286 -0.049615026 -0.021032568
-0.088195115 0.13869697 0.07181325 -0.027492506 0.15014677 -0.040471844 0.0018971637 -0.059052806
0.045421056 0.1316796 -0.0150443055 0.029028166 0.032719977 0.042598974 -0.013246257 -0.048299495
0.13354997 0.15444109 -0.074865185 0.06789194 -0.051938236 0.14647979 0.1634651 0.10179958
-0.0135309 -0.07006436 -0.008592993 0.122474596 -0.04015998 -0.020438539 0.1311756 -0.023271615

projector.6.weight f4 [4, 40]
00000000: 50b0 97bd cc4b b3bd 4b75 0d3e 63b6 61bd
00000010: 88c7 913d e27c 23bd 90f7 64bd 232d 98bd
00000020: 7311 013a cf15 493e ead8 f3bc 1728 babd
00000030: 0166 5c3e 5033 79bc f90c 033e fe0a d0bd
00000040: 9ab3 4dbd b287 1f3e 334b 313b 7cc8 64bd
00000050: 8990 633d 1c76 18be 7abb 1dbd 1b3f 9fbd
00000060: 6af7 663d 93ee 513e 7f5f a93d a839 ab3b
00000070: d784 1fbd c5f5 273e d94d 203e 14de ca3d
00000080: 2fba 053e 08e0 2b3d 4f9f bcbd d226 5c3e
00000090: fdce d53c f2e8 1bbd 7e9e 2d3d 8b50 513e
000000a0: a07e 1fbd dc4c 553e ae13 143e af8b 173e
000000b0: a06a 013d c4e7 c9bd 6a10 a93d d7c1 803c
000000c0: 0937 bcbd d6c8 663e 5cee 433e 25b0 b43d
000000d0: ceff c53d 244c a33d 3614 8c3d ec67 cf3d
000000e0: 02ea 923d cdea 1c3e 674b e1bc 05b3 8dbd
000000f0: 3003 563e 2488 903d 2ef8 b93d 4d21 98bd
00000100: f4eb 733e 7f37 be3d ed4a 023d ee38 553e
00000110: 1976 043e 5140 723e bbed 893e 0a00 aa3c
00000120: 52d1 98bd fc53 573d 005c 1339 4a92 323d
00000130: b594 cb3d 7f4d 323e c3c2 213e b444 7ebd
00000140: 54e7 3e3d a8e1 aabd 1898 8dbd 672a 1b3d
00000150: 6b71 b3bd e910 053e 624a 803d ac13 633c
00000160: 0dca 68ba a63b 84bd 1c00 083e 4cb9 6f3d
00000170: d661 1bbc 6d1d 15be dc69 373d 7840 ac3d
00000180: f40e 403e 6051 143e e0f3 3d3e 94cb 1bbd
00000190: 355d 0f3c 067f bb3d e822 6bbd dff8 f73d
000001a0: 8c74 ef3d 0d81 4c3e 8690 cbbd 4684 203e
000001b0: 2518 b6bd 9fde 983d 5180 063e 20a7 363e
000001c0: 52c8 b0bd b11c b9bd 7c98 0cbe 5dc4 493e
000001d0: 5a79 7abd 8161 633d fb8c 483d 6c8e 4b3d
000001e0: 38bf 833d e46b b6bc b4bd bdbd 1afd 853e
000001f0: a0e4 0dbc 26ca 75bd 9e8b 95bd c2d5 1d3e
00000200: 1e5e 0a3e 651c 423e 0118 023e e985 16bd
00000210: abf6 ae3d da95 02be b861 82bc 462f 2abd
00000220: 03a1 653e 79eb ad3d d380 b2bd 60bb 8e3c
00000230: 67c5 92bc 3416 033d 0059 f83b 9cf6 253e
00000240: 1818 aa3b d999 7b3e 18e8 21bd 6a6e d53c
00000250: da76 a23d 9e93 3a3e 8e1e f13d 9a07 f73d
00000260: 6d66 bd3d 31d5 cabd 56b6 1abe 9023 913e
00000270: 6bd7 84bc d8cb a03c a753 163e c1ae 48bd
-0.07406676 -0.087546915 0.13814275 -0.05510558 0.07118136 -0.03991402 -0.055900156 -0.07430484
0.00049235596 0.19637226 -0.029766519 -0.09089678 0.21523286 -0.015209988 0.12797917 -0.101583466
-0.05022011 0.15579107 0.002705288 -0.05585526 0.05555776 -0.14888805 -0.03850887 -0.07775708
0.056388296 0.20501165 0.082701676 0.005225379 -0.038945045 0.16402347 0.15654697 0.09905639
0.13059305 0.0419617 -0.09210073 0.21499184 0.026099676 -0.03806395 0.042387478 0.20440881
-0.03893912 0.20830101 0.14460632 0.14799379 0.031595826 -0.09858659 0.08255084 0.01571743
-0.091901846 0.2253755 0.19133896 0.088226594 0.096679315 0.07973507 0.068397924 0.101272434
0.0717354 0.15323944 -0.027501775 -0.06918911 0.20899653 0.07057217 0.0908054 -0.074282266
0.23820478 0.09287929 0.031809736 0.20822498 0.12935676 0.23657347 0.26939186 0.020751972
-0.074618 0.052570328 0.00014053285 0.043596543 0.09940473 0.17412375 0.15796952 -0.06207724
0.04660733 -0.08343822 -0.06913775 0.037882235 -0.08761867 0.12994732 0.062641874 0.013859671
-0.00088802056 -0.064566895 0.13281292 0.058526322 -0.009483775 -0.14562006 0.04477869 0.08410734
0.18755704 0.14484167 0.18550062 -0.038035944 0.00875025 0.09155087 -0.057406336 0.12108015
0.116921514 0.19971104 -0.09939675 0.15675458 -0.08891324 0.074643366 0.13134886 0.1783719
-0.08631958 -0.090386756 -0.13730043 0.19703813 -0.061150886 0.05551291 0.048962574 0.04969637
0.064329565 -0.022268243 -0.092646986 0.26169664 -0.0086604655 -0.060007237 -0.073020205 0.15413573
0.13512465 0.18956144 0.1270447 -0.0367488 0.08543142 -0.12752476 -0.015915737 -0.04154899
0.22424702 0.084921785 -0.087159775 0.017423332 -0.017916394 0.032003596 0.007578969 0.16207355
0.0051908605 0.24570407 -0.039527982 0.026053626 0.079328254 0.18220374 0.11773406 0.12061997
0.09248052 -0.09903944 -0.15108618 0.28347445 -0.016216 0.01962845 0.14680348 -0.048994783

projector.6.bias f4 [4]
00000000: 388d abbc 6f3d e43d 0097 4d3e 06f0 2a3e
-0.020941362 0.1114453 0.20077133 0.16693124
