models/squares/100/class0_student_config.pt (torch, 45575 bytes, 6 tensors)

predictor.0.weight f4 [100, 2]
-0.5185871 -0.46522778 -0.116903275 0.28193307 -0.427988 -0.67857873 0.58169997 -0.029061312
0.18921296 0.18024647 0.2538793 0.29532397 -0.06984453 0.18516494 -0.20373026 0.07228189
0.29492125 -0.15152428 -0.5283342 0.09357505 0.0032495458 -0.7103534 -0.2532077 -0.5885113
0.5346334 -0.26708326 -0.080403544 0.066098645 -0.11841864 0.5585213 0.42815018 -0.33619234
-0.4562254 -0.43659356 0.096622616 -0.17172042 0.5748891 -0.571667 -0.1212638 -0.42474422
-0.61308515 -0.41357538 0.5994069 0.18601704 -0.35610193 -0.34467852 -0.25984436 0.36254975
0.26843613 0.12457854 0.18782873 -0.23213407 -0.47999856 -0.4444187 -0.010370236 0.3488511
-0.08688229 -0.3921394 -0.59231937 0.1238493 -0.56090426 0.11151194 0.37580106 0.39321983
-0.78987837 0.14482707 0.44197533 -0.21946664 0.3163466 0.05246963 -0.37229642 -0.6556978
0.49052155 -0.17081183 -0.36685264 -0.31571555 -0.19044995 -0.3519158 -0.41821495 0.5435601
-0.5468364 -0.32198364 -0.17989516 0.43854508 0.20899442 0.12774022 0.37587765 0.0060000103
0.6194596 -0.14373466 -0.2875934 0.5679977 -0.41105616 -0.027276112 0.44085625 -0.06466312
0.10405024 -0.02308118 -0.2882063 0.48885375 -0.35260484 -0.20667922 -0.17818356 -0.3787658
-0.59015507 -0.22899741 -0.23514462 0.4710909 -0.60911846 0.60232806 0.016260857 -0.01117432
-0.35344467 0.6331138 0.3781859 0.21283568 -0.47027165 -0.3867312 -0.582237 -0.26190236
-0.54637754 0.64607745 0.6630383 -0.59386075 -0.4685111 -0.24033514 0.55394256 -0.06217204
-0.22898862 -0.56623346 0.23577203 -0.2966583 -0.5309713 -0.121616244 -0.21387225 0.287181
-0.3446195 -0.38860095 -0.37831238 -0.52909106 -0.1830766 0.36015344 0.43087542 -0.03481225
0.10664002 0.16399923 -0.39488596 0.4024093 -0.62350726 0.2530282 0.20709904 0.08248159
0.45755213 -0.51734763 0.30214784 0.27317613 -0.20493367 0.5106733 -0.25110364 0.5020128
0.60263574 -0.5082281 0.44082263 -0.22192715 -0.50256574 0.14385761 -0.14177406 -0.29852712
0.45749938 -0.1976458 0.46370772 -0.21610564 -0.68885845 -0.66398734 0.5764887 -0.22247945
-0.38584283 0.024363874 -0.57875586 -0.7035143 0.41848826 0.22900532 -0.72377586 0.3188789
-0.59226406 -0.042140007 0.3793565 -0.82639825 -0.45440337 -0.015087745 -0.37755853 -0.1783219
0.4103704 -0.46574676 -0.22506493 -0.074694514 -0.72652453 0.288075 -0.51500744 0.60252243
00000000: 20c2 04bf 5632 eebe fc6a efbd 8859 903e
00000010: 3e21 dbbe 56b7 2dbf 4aea 143f fd11 eebc
00000020: 0bc1 413e 8892 383e 78fc 813e b434 973e
00000030: a60a 8fbd e19b 3d3e aa9e 50be 8708 943d
00000040: ebff 963e 2e29 1bbe e940 07bf 47a4 bf3d
00000050: 55f6 543b b8d9 35bf 71a4 81be ada8 16bf
00000060: bcdd 083f 23bf 88be 9daa a4bd ba5e 873d
00000070: 7985 f2bd 40fb 0e3f 8036 db3e 6721 acbe
00000080: 6096 e9be 3189 dfbe 14e2 c53d 7ad7 2fbe
00000090: ef2b 133f c558 12bf 2859 f8bd 1378 d9be
000000a0: 26f3 1cbf 27c0 d3be bb72 193f 407b 3e3e
000000b0: fe52 b6be b479 b0be 520a 85be 1fa0 b93e
000000c0: 7670 893e 0923 ff3d 2d56 403e 8eb4 6dbe
000000d0: 5fc2 f5be d98a e3be ece7 29bc 9d9c b23e
000000e0: 58ef b1bd 7fc6 c8be 3ea2 17bf b4a4 fd3d
000000f0: 6c97 0fbf 5f60 e43d ff68 c03e 1c54 c93e
00000100: 7835 4abf 8c4d 143e 974a e23e ddbb 60be
00000110: 2ef8 a13e 65ea 563d a39d bebe d0db 27bf
00000120: a425 fb3e 4ce9 2ebe 1cd4 bbbe 78a5 a1be
00000130: 5005 43be 4f2e b4be 4520 d6be c126 0b3f
00000140: 78fd 0bbf 0adb a4be 7036 38be fb88 e03e
00000150: a202 563e 55ce 023e 0973 c03e bc9b c43b
00000160: e894 1e3f 2e2f 13be 713f 93be 4c68 113f
00000170: f475 d2be 2772 dfbc e9b7 e13e 196e 84bd
00000180: 4b18 d53d be14 bdbc c78f 93be 0a4b fa3e
00000190: 9f88 b4be b8a3 53be c075 36be 97ed c1be
000001a0: 6714 17bf 4c7e 6abe c0c9 70be d432 f13e
000001b0: 30ef 1bbf 2c32 1a3f 7d35 853c 7f14 37bc
000001c0: b3f6 b4be bf13 223f 95a1 c13e 99f1 593e
000001d0: 72c7 f0be a201 c6be 7c0d 15bf 1118 86be
000001e0: 66df 0bbf 5565 253f e1bc 293f 4207 18bf
000001f0: b0e0 efbe 6a1a 76be 2ecf 0d3f 1ca8 7ebd
00000200: fe7b 6abe adf4 10bf 396e 713e 99e3 97be
00000210: bced 07bf f011 f9bd 5401 5bbe 6309 933e
00000220: f871 b0be b4f6 c6be 29b2 c1be 8372 07bf
00000230: 6f78 3bbe 0866 b83e b49b dc3e 4a97 0ebd
00000240: 1566 da3d 6aef 273e 7e2e cabe 9708 ce3e
00000250: 2c9e 1fbf ea8c 813e c511 543e 1cec a83d
00000260: 4644 ea3e e570 04bf 1fb3 9a3e bedd 8b3e
00000270: 22da 51be 7cbb 023f a890 80be e983 003f
00000280: 5646 1a3f 3d1b 02bf 81b3 e13e df40 63be
00000290: 26a8 00bf 694f 133e 382d 11be 8cd8 98be
000002a0: 5c3d ea3e a963 4abe 196b ed3e cc4a 5dbe
000002b0: 0759 30bf 13fb 29bf c394 133f a7d1 63be
000002c0: 318d c5be bf96 c73c 5829 14bf 8319 34bf
000002d0: 1844 d63e 5f80 6a3e 6049 39bf 1844 a33e
000002e0: 9e9e 17bf 009b 2cbd 043b c23e d68e 53bf
000002f0: 8fa7 e8be 9732 77bc 5a4f c1be 049a 36be
00000300: 121c d23e 5c76 eebe 6c77 66be 70f9 98bd
00000310: 83fd 39bf 917e 933e 87d7 03bf e93e 1a3f

predictor.0.bias f4 [100]
-0.47202328 -0.96950406 -0.10525626 -1.1825434 -1.106932 -0.789614 -2.2138376 3.5554624
2.7860322 1.8939672 0.11979941 -0.6411278 2.2019274 -2.909958 -2.2287529 0.59729713
0.17954648 -4.7812853 -1.4880204 -0.43762776 -0.591903 -2.01277 -0.040770173 2.4009023
-1.4725245 -1.6881053 0.06558275 -2.3226516 -0.69333637 -2.487608 -1.8678724 -2.6172843
2.0574493 -2.6513379 -0.141523 0.122415125 0.011629389 0.38816768 -0.33288938 -1.7147934
-0.19129121 -2.66909 0.8066697 0.46255925 -1.5367749 2.1979902 0.6390254 1.7372341
4.7711225 -0.952287 -0.31158972 -0.2622661 0.11004734 3.056962 -3.0081205 2.2346628
2.2960398 0.4993917 -0.3073699 0.44171315 2.198067 2.3564594 0.27579635 -1.6968541
-0.053273857 1.3572065 -0.47193065 -1.890296 0.3888107 -0.27693126 2.4924018 -0.12625904
0.44305187 -2.044519 -2.275419 1.0203964 0.20854092 -2.2552593 0.77186215 1.4480884
1.3000102 -1.1299255 4.492064 -0.17683786 -1.1442046 -0.023630701 0.70634824 -0.7452946
0.08586087 -0.37670743 0.7202069 1.0561483 0.6746854 2.581015 -0.1007999 -0.0625658
0.7321034 -0.061646402 -1.1625016 2.6540778
00000000: 09ad f1be 6b31 78bf 9890 d7bd 955d 97bf
00000010: f3af 8dbf 2524 4abf 84af 0dc0 b28c 6340
00000020: 5a4e 3240 846d f23f 6559 f53d f420 24bf
00000030: 61ec 0c40 c03c 3ac0 e3a3 0ec0 77e8 183f
00000040: 08db 373e 4a00 99c0 7477 bebf bf10 e0be
00000050: f486 17bf 39d1 00c0 a0fe 26bd 62a8 1940
00000060: af7b bcbf d613 d8bf 4050 863d 53a6 14c0
00000070: 7e7e 31bf f834 1fc0 7116 efbf 9681 27c0
00000080: 40ad 0340 85af 29c0 68eb 10be c8b4 fa3d
00000090: 3189 3e3c eabd c63e 7a70 aabe 5a7e dbbf
000000a0: d8e1 43be 5fd2 2ac0 e881 4e3f 91d4 ec3e
000000b0: 0ab5 c4bf dfab 0c40 2b97 233f b05d de3f
000000c0: 09ad 9840 15c9 73bf b088 9fbe be47 86be
000000d0: 8060 e13d 44a5 4340 0c85 40c0 b704 0f40
000000e0: 51f2 1240 45b0 ff3e 965f 9dbe 3a28 e23e
000000f0: 21ad 0c40 3bd0 1640 2e35 8d3e 8432 d9bf
00000100: b035 5abd f1b8 ad3f e5a0 f1be 38f5 f1bf
00000110: 3212 c73e efc9 8dbe 8383 1f40 0d4a 01be
00000120: b2d7 e23e 66d9 02c0 77a0 11c0 599c 823f
00000130: c08b 553e 2b56 10c0 c298 453f f65a b93f
00000140: bc66 a63f 66a1 90bf fdbe 8f40 fc14 35be
00000150: 4c75 92bf 2c95 c1bc 3dd3 343f a0cb 3ebf
00000160: d3d7 af3d ccdf c0be 7b5f 383f de2f 873f
00000170: 2fb8 2c3f 5a2f 2540 2e70 cebd 8022 80bd
00000180: 216b 3b3f f080 7cbd dacc 94bf 69dc 2940

predictor.2.weight f4 [100, 100]
0.089860745 0.039954375 0.077464126 -0.11630208 -0.060789555 0.05951735 -0.112213306 -0.15277044
-0.012189025 -0.07467303 -0.12056583 -0.0027128085 -0.054426227 -0.01472946 -0.043938115 0.05757685
-0.045022763 -0.04046852 0.0343345 0.025516726 0.089143895 0.036268875 -0.030364014 0.057676397
-0.05683326 -0.04835317 0.0011467785 -0.024951233 0.015403748 -0.06588645 0.026487036 -0.09953567
-0.094480775 -0.0004170264 -0.0055684326 -0.034224056 -0.0101207895 -0.025321685 0.04257179 -0.115497686
0.06595618 -0.09464231 -0.00015042092 0.076745845 0.07836812 0.02420164 -0.01217963 -0.053556874
-0.094752975 -0.09869138 -0.07135348 -0.07293896 0.0008096248 -0.056972776 -0.027550546 0.06790781
-0.12732281 -0.06852138 0.0076318756 0.007469453 0.047606513 -0.02673904 -0.05473199 0.07909088
-0.011623107 -0.035669014 -0.04535694 0.072073855 -0.07757716 -0.09546726 0.03584055 -0.06667136
0.0467858 0.016761549 0.035201814 0.07400648 -0.037455086 -0.09173758 0.03373774 -0.06881933
-0.09090019 -0.09081372 -0.069771975 0.024308622 0.059646484 -0.108883865 0.022861347 -0.009119787
0.03779558 -0.048060168 -0.10263952 -0.14588083 0.08161675 -0.009859916 -0.086887114 -0.030022457
-0.087113924 0.01633884 0.003190111 0.029374419 0.048147745 -0.02203557 -0.016942456 0.00839515
0.051406946 -0.08337701 -0.00017438074 -0.124392204 0.0026877658 -0.06633559 -0.02914548 0.035432436
-0.028622326 0.024554271 -0.08941838 -0.06469839 -0.00084070116 0.073756434 -0.11846107 -0.07374084
0.09280238 -0.08050424 -0.096945286 -0.084568925 -0.06498401 -0.048573412 -0.054897334 0.021294061
-0.04776181 0.06081083 0.016846351 -0.07076533 0.028169118 -0.060456414 -0.09096212 0.07793244
-0.045256544 -0.08547876 -0.07727734 -0.094146736 -0.03884244 -0.032033816 0.068408296 0.036218002
-0.024817234 0.013600564 -0.11015131 0.07701688 0.018481173 0.0581181 -0.092893675 -0.033797845
0.06537291 0.013007552 0.06558107 0.017396165 0.049841907 0.0662547 -0.0054058805 0.06743213
0.04948047 -0.15708794 -0.09824332 -0.014993528 0.064306684 0.05985748 -0.033686437 -0.038699765
0.08836288 0.056742497 -0.090796486 -0.090130165 0.061446454 0.01941474 0.008083777 0.021116788
-0.04542944 -0.0055645364 -0.0453298 0.08249761 -0.06131743 0.014497085 0.010938853 -0.057719924
-0.040528666 -0.07927989 -0.08861156 -0.083339505 0.03797542 0.0016034096 -0.05288705 -0.03837882
0.08803711 -0.02647549 -0.052361086 -0.0014129281 -0.07236133 -0.0900524 -0.011566066 0.057535164
-0.06273143 0.05862678 0.07526734 -0.08342211 0.016912097 -0.104193196 -0.12633908 -0.119257234
-0.025863446 -0.12412248 0.0777465 0.075894915 -0.13256638 -0.060292352 -0.006207467 -0.04687476
0.09621044 0.08560402 -0.13058513 0.024284258 -0.052463617 0.025788086 -0.03832498 -0.029895935
-0.12554497 0.059495278 0.006921813 -0.10752522 0.062283196 0.013685999 -0.11011925 -0.042623185
-0.0025082175 -0.051379178 0.048306644 0.0092423335 0.04986655 0.0977921 0.079054676 -0.07634286
0.09891149 0.055182107 0.024735441 0.017202012 0.030646699 0.050467215 0.05096818 -0.06977821
0.008673862 -0.031612866 0.037137873 0.095490955 -0.017479897 -0.059000295 0.05461492 0.0005616591
00000000: e908 b83d 33a7 233d 83a5 9e3d c92f eebd
00000010: 78fe 78bd 77c8 733d 17d0 e5bd db6f 1cbe
00000020: 7ab4 47bc 2cee 98bd 38eb f6bd 60c9 31bb
00000030: 09ee 5ebd d553 71bc 74f8 33bd b4d5 6b3d
00000040: ca69 38bd 52c2 25bd 55a2 0c3d 7408 d13c
00000050: 1391 b63d ac8e 143d f4bd f8bc 163e 6c3d
00000060: fec9 68bd f90d 46bd 804f 963a 8766 ccbc
00000070: 0060 7c3c 7aef 86bd 57fb d83c 5bd9 cbbd
00000080: 237f c1bd 56a4 dab9 6677 b6bb 862e 0cbd
00000090: abd1 25bc 6c6f cfbc c25f 2e3d 0d8a ecbd
000000a0: 0914 873d d4d3 c1bd 4fba 1db9 ed2c 9d3d
000000b0: 777f a03d 8542 c63c 128d 47bc 745e 5bbd
000000c0: d90d c2bd b51e cabd c621 92bd 0561 95bd
000000d0: 003d 543a 495c 69bd afb1 e1bc 4013 8b3d
000000e0: e960 02be f054 8cbd d014 fa3b 50c2 f43b
000000f0: 0cff 423d d50b dbbc a72e 60bd 66fa a13d
00000100: d86e 3ebc ac19 12bd 33c8 39bd 759b 933d
00000110: c6e0 9ebd 5784 c3bd 8acd 123d fe8a 88bd
00000120: 78a2 3f3d 844f 893c c72f 103d b690 973d
00000130: 816a 19bd eae0 bbbd 9630 0a3d 26f1 8cbd
00000140: e129 babd 8bfc b9bd 9ce4 8ebd e022 c73c
00000150: df4f 743d 81fe debd b847 bb3c 296b 15bc
00000160: 8acf 1a3d bdda 44bd ab34 d2bd c961 15be
00000170: af26 a73d 7c8b 21bc dff1 b1bd a8f1 f5bc
00000180: c968 b2bd 08d9 853c 2e11 513b 9fa2 f03c
00000190: 9236 453d f183 b4bc e8ca 8abc d08b 093c
000001a0: 1790 523d 91c1 aabd f9d9 36b9 57c1 febd
000001b0: 3a25 303b f4da 87bd 80c2 eebc 9a21 113d
000001c0: 5e79 eabc 0a26 c93c fc20 b7bd 9780 84bd
000001d0: 8062 5cba 9d0d 973d b89b f2bd 7005 97bd
000001e0: 2d0f be3d 68df a4bd 408b c6bd 7932 adbd
000001f0: 5616 85bd eaf4 46bd 07dc 60bd e270 ae3c
00000200: e3a1 43bd c714 793d 5c01 8a3c 6aed 90bd
00000210: ecc2 e63c 25a1 77bd 594a babd 0b9b 9f3d
00000220: ed5e 39bd 7d0f afbd 9543 9ebd 01d0 c0bd
00000230: 4019 1fbd e435 03bd a619 8c3d 5459 143d
00000240: 834d cbbc e6d4 5e3c 0397 e1bd 07bb 9d3d
00000250: d465 973c 3f0d 6e3d 0a3f bebd 9c6f 0abd
00000260: 3be2 853d a11d 553c 5e4f 863d 6782 8e3c
00000270: 0727 4c3d 8bb0 873d d023 b1bb db19 8a3d
00000280: 09ac 4a3d a9db 20be cb33 c9bd 6aa7 75bc
00000290: 39b3 833d 1e2d 753d cafa 09bd a583 1ebd
000002a0: 99f7 b43d d26a 683d 82f3 b9bd 2a96 b8bd
000002b0: 47af 7b3d a90b 9f3c d171 043c 1dfd ac3c
000002c0: 3814 3abd b756 b6bb beab 39bd 82f4 a83d
000002d0: fc27 7bbd 2e85 6d3c e038 333c ba6b 6cbd
000002e0: 6301 26bd 7f5d a2bd fa79 b5bd e7ad aabd
000002f0: 1d8c 1b3d 8029 d23a 17a0 58bd 1c33 1dbd
00000300: cd4c b43d 20e3 d8bc 9478 56bd 0032 b9ba
00000310: 2d32 94bd 656d b8bd 997f 3dbc fea9 6b3d
00000320: 5679 80bd a222 703d c325 9a3d 36d9 aabd
00000330: 3d8b 8a3c 3e63 d5bd 085f 01be 233d f4bd
00000340: 94df d3bc ed33 febd 8f39 9f3d cb6e 9b3d
00000350: 7bbf 07be 1df5 76bd 0268 cbbb c0ff 3fbd
00000360: fb09 c53d 2951 af3d 1cb8 05be c8ef c63c
00000370: 17e4 56bd 8941 d33c a7fa 1cbd 52e8 f4bc
00000380: dc8e 00be 52b1 733d 60d0 e23b 2f36 dcbd
00000390: aa1c 7f3d 3e3b 603c 3486 e1bd a695 2ebd
000003a0: e860 24bb f972 52bd 30dd 453d 286d 173c
000003b0: de40 4c3d 3947 c83d 6be7 a13d a559 9cbd
000003c0: 1b92 ca3d a206 623d fba1 ca3c 3ceb 8c3c
000003d0: c90e fb3c b6b6 4e3d 03c4 503d e1e7 8ebd
000003e0: d01c 0e3c 7e7c 01bd e21d 183d c390 c33d
000003f0: 0032 8fbc 4baa 71bd e5b3 5f3d 4e3c 133a

predictor.2.bias f4 [100]
-0.13091785 -0.051157165 -0.096908204 -0.063295506 0.030882396 0.006938683 0.055204287 -0.06534331
0.083872296 0.040304232 -1.3176982 0.0010054313 1.9632475 0.00308727 -0.07252653 -0.06425676
2.05097 -0.0035292578 0.047482096 0.0063848696 -1.424261 -0.015530964 -0.012520506 0.017310144
0.05133953 -0.07142939 -1.7300034 -0.08238588 -0.9525867 -0.01725851 -0.08843187 0.03786362
1.452377 -0.0836381 -0.009988228 -0.09479053 -0.055231385 -0.79879546 -1.2566898 -0.96095306
0.8914792 0.061970927 -1.499567 0.014641835 -0.18648353 -0.039611943 0.04931406 -0.119384006
0.05837509 0.045512 -0.09003447 0.05235041 -0.0492357 0.073837824 -0.15679312 1.0521755
-2.0618076 -0.03781369 -0.038405407 -1.1437399 -0.106432356 -0.07519976 0.04601702 -0.03758745
-0.03474826 -0.085621074 -0.03158591 0.015694115 -1.3064134 0.044948176 1.8939298 -0.02532678
0.006252527 -0.003745261 -0.046303462 0.039132554 0.020561451 -2.0695043 -0.07210851 -0.11209417
0.018782534 0.615747 -0.07251584 -0.36307472 0.012292606 0.061001606 -0.090517305 -0.11992889
-0.052456476 0.016022705 -0.10829054 -1.4906402 -0.2140775 1.515258 -0.061906494 -0.03984983
-0.07285645 0.0382859 -0.05589384 -1.2739437
00000000: 540f 06be 2d8a 51bd cf77 c6bd 13a1 81bd
00000010: 14fd fc3c e45d e33b e41d 623d b7d2 85bd
00000020: 3dc5 ab3d 0d16 253d 56aa a8bf adc8 833a
00000030: b24b fb3f cc53 4a3b ca88 94bd 0c99 83bd
00000040: 1843 0340 1f4b 67bb 967c 423d 2b38 d13b
00000050: 2f4e b6bf 9675 7ebc cf22 4dbc 01ce 8d3c
00000060: 6649 523d 9249 92bd c070 ddbf eeb9 a8bd
00000070: b9dc 73bf b861 8dbc c51b b5bd e216 1b3d
00000080: 7de7 b93f 744a abbd aaa5 23bc 8a21 c2bd
00000090: 4e3a 62bd dc7d 4cbf 36db a0bf 0501 76bf
000000a0: fb37 643f 3ad5 7d3d d0f1 bfbf 4fe4 6f3c
000000b0: 8af5 3ebe 2240 22bd 8afd 493d 9a7f f4bd
000000c0: b81a 6f3d ca6a 3a3d fe63 b8bd 626d 563d
000000d0: 60ab 49bd 4938 973d 608e 20be b0ad 863f
000000e0: a8f4 03c0 87e2 1abd fd4e 1dbd 1266 92bf
000000f0: 35f9 d9bd 5502 9abd 587c 3c3d 4cf5 19bd
00000100: 3154 0ebd 1a5a afbd 3a60 01bd f290 803c
00000110: 8e38 a7bf 941b 383d 4b6c f23f 1b7a cfbc
00000120: ffe1 cc3b 0e73 75bb b3a8 3dbd 7549 203d
00000130: 7d70 a83c c272 04c0 a0ad 93bd a191 e5bd
00000140: d4dd 993c 98a1 1d3f 2f83 94bd eee4 b9be
00000150: ed66 493c d2dc 793d 2361 b9bd 479d f5bd
00000160: 9adc 56bd 0c42 833c 6ec7 ddbd 4ccd bebf
00000170: 2237 5bbe f9f3 c13f aa91 7dbd 9339 23bd
00000180: c335 95bd add1 1c3d f0f0 64bd 9610 a3bf

predictor.4.weight f4 [4, 100]
0.033228572 0.017160034 0.04831636 -0.017905913 0.0074612615 -0.044310827 0.09738423 -0.015426899
-0.068052806 0.0076949103 0.07051894 0.013707625 -0.14205262 -0.023964493 -0.051603585 -0.06342021
-0.08382911 0.043895427 -0.05297807 0.010215761 0.066997655 0.050567713 0.0351522 -0.0931794
0.002810046 0.016694352 0.069731675 -0.06763153 -0.09014941 0.015678644 -0.019648515 0.03378337
-0.15670079 -0.01888663 -0.08135013 -0.05553608 -0.004818781 0.07247227 0.082117654 0.10255513
-0.008470852 -0.03158518 0.020452175 -0.03747747 -0.03168033 -0.005654023 0.01219634 0.037628777
0.040537253 0.0060959905 0.0050080214 -0.0037001595 0.12483154 0.07069651 0.020648949 0.005260825
0.26004133 -0.06644632 0.07969452 0.07632365 -0.032983143 -0.09612961 -0.052143395 0.08677291
-0.14060745 -0.0031228438 -0.009649452 0.03985677 0.11876861 0.007320237 -0.08037494 -0.04859003
0.012838064 0.07649677 0.056654498 -0.011118149 -0.06252957 0.065480225 -0.08640011 0.07042828
-0.04270334 0.029612347 -0.014941472 0.03642619 0.093409196 0.02978585 0.059035555 0.06277184
0.015465203 0.010308467 0.0019445026 0.021549778 -0.07984884 0.026507352 -0.02989399 0.049550526
-0.06610117 0.033947226 0.03722661 0.09613682 0.018996943 -0.103406765 -0.063118435 -0.0638457
-0.066445075 -0.01537465 -0.059293352 0.08818223 -0.08117821 0.005432505 -0.016179167 -0.061307676
0.07060057 0.034611933 -0.060583882 -0.035203867 0.029490981 0.06728681 0.010548414 -0.06297282
-0.10528792 -0.035052598 -0.064389795 0.028958714 0.022097751 -0.060884345 -0.005531274 -0.06739232
0.007858019 -0.06814013 0.084383406 0.050608046 -0.090951696 -0.0057821707 0.08083063 0.02240453
-0.023451656 0.07285173 0.04605399 0.029779864 0.07906214 0.081227146 -0.091358416 -0.04460691
-0.008968433 0.033105187 -0.0803328 -0.08082252 0.01758309 -0.02836804 0.025105016 0.07595814
0.0950975 0.0031215101 -0.16451585 0.10127698 0.0017883583 0.06936968 -0.025843367 -0.02826608
0.048516713 -0.026479341 0.07586438 0.0404169 0.09222712 -0.038231697 0.009507384 0.0035589784
-0.052542515 0.026725141 0.06340396 -0.0033011662 -0.047714006 -0.06947131 0.0053366306 -0.045504794
-0.07435596 -0.089728236 0.030713685 0.09483679 -0.072301365 0.09004273 -0.05050081 -0.07038286
-0.043518987 0.028397642 0.04130191 -0.032515142 -0.003110278 -0.028754674 -0.014389442 -0.04743143
0.15924655 0.08004755 0.0077288593 0.014215328 0.09465409 0.06141408 -0.094085924 -0.14215612
0.019607712 0.0025672992 -0.006442928 -0.08032407 -0.03412492 0.05966456 -0.0111853015 -0.037672095
-0.08786092 -0.030254796 0.08432744 0.020368407 0.035347804 -0.014606617 -0.055260897 0.013133219
0.020061465 -0.06456461 0.0015482771 -0.0396336 0.061517127 -0.018351523 0.09924074 -0.06833469
0.050010033 -0.07253812 0.022224853 0.06514705 0.25449556 0.06277647 -0.068233326 0.024773732
0.06867328 -0.03376534 -0.012852763 0.09895565 -0.0071861353 -0.005886233 -0.10803878 -0.061582185
0.025259992 -0.03086339 0.030408505 -0.03290165 -0.038538396 -0.03213642 -0.051883556 -0.0004917282
0.078057736 -0.091213755 -0.075789794 -0.043491103 0.04016778 0.011055492 -0.13173874 -0.07771474
00000000: af1a 083d 3393 8c3c 60e7 453d 6caf 92bc
00000010: 997d f43b 457f 35bd 6271 c73d 1bc1 7cbc
00000020: 455f 8bbd 9625 fc3b 3c6c 903d f295 603c
00000030: 3e76 11be 2f51 c4bc 485e 53bd 74e2 81bd
00000040: 99ae abbd b1cb 333d 88ff 58bd 0260 273c
00000050: 1136 893d 1720 4f3d c1fb 0f3d d7d4 bebd
00000060: c028 383b 98c2 883c 7bcf 8e3d 6682 8abd
00000070: 41a0 b8bd 8070 803c ecf5 a0bc 6e60 0a3d
00000080: 2c76 20be 22b8 9abc e69a a6bd cd79 63bd
00000090: dde6 9dbb 576c 943d 4d2d a83d 6d08 d23d
000000a0: 54c9 0abc 765f 01bd 528b a73c fa81 19bd
000000b0: 3cc3 01bd 6245 b9bb 28d3 473c a220 1a3d
000000c0: 640a 263d e0c0 c73b 541a a43b 607e 72bb
000000d0: aea7 ff3d 55c9 903d fc27 a93c 0063 ac3b
000000e0: 2324 853e 0215 88bd e136 a33d 934f 9c3d
000000f0: 5519 07bd 9adf c4bd 5094 55bd ffb5 b13d
00000100: 66fb 0fbe a0a8 4cbb bc18 1ebc da40 233d
00000110: f53c f33d 99de ef3b 9e9b a4bd 5706 47bd
00000120: be56 523c 57aa 9c3d 8c0e 683d e628 36bc
00000130: 810f 80bd 7f1a 863d 8af2 b0bd b43c 903d
00000140: b3e9 2ebd 9895 f23c 13cd 74bc a133 153d
00000150: 524d bf3d 7401 f43c 44cf 713d 868e 803d
00000160: c361 7d3c d8e4 283c aede fe3a 2989 b03c
00000170: ca87 a3bd f225 d93c 3ee4 f4bc 7ef5 4a3d
00000180: 0d60 87bd 3f0c 0b3d ee7a 183d 62e3 c43d
00000190: 7a9f 9b3c edc6 d3bd 3d44 81bd 89c1 82bd
000001a0: 5b14 88bd f5e5 7bbc 96dd 72bd e398 b43d
000001b0: c340 a6bd 2803 b23b 2c8a 84bc c21d 7bbd
000001c0: 0897 903d 3ec5 0d3d ce26 78bd ee31 10bd
000001d0: 1297 f13c abcd 893d 41d3 2c3c e5f7 80bd
000001e0: 31a1 d7bd 5093 0fbd ccde 83bd d33a ed3c
000001f0: 5806 b53c dd61 79bd b03f b5bb fc04 8abd
00000200: ecbe 003c 0d8d 8bbd 35d1 ac3d 624a 4f3d
00000210: e244 babd 5d78 bdbb 888a a53d b489 b73c
00000220: b01d c0bc 4a33 953d 1ca3 3c3d e7f4 f33c
00000230: 55eb a13d 6b5a a63d 1f1a bbbd bcb5 36bd
00000240: 56f0 12bc 4e99 073d 8685 a4bd 4786 a5bd
00000250: 6a0a 903c 1864 e8bc 09a9 cd3c f18f 9b3d
00000260: 7ac2 c23d 4092 4c3b d876 28be 4e6a cf3d
00000270: 5967 ea3a b111 8e3d 78b5 d3bc 448e e7bc
00000280: 76b9 463d 34eb d8bc c95e 9b3d 318c 253d
00000290: 93e1 bc3d d798 1cbd dcc4 1b3c c03d 693b
000002a0: d236 57bd afee da3c efd9 813d 6158 58bb
000002b0: c36f 43bd f946 8ebd e7de ae3b 3c63 3abd
000002c0: f047 98bd 70c3 b7bd 449b fb3c ca39 c23d
000002d0: bd12 94bd 5368 b83d f0d9 4ebd e424 90bd
000002e0: f740 32bd 2ca2 e83c 312c 293d 992e 05bd
000002f0: ced5 4bbb ec8e ebbc b2c1 6bbc 7647 42bd
00000300: 8711 233e f8ef a33d 5f42 fd3b 68e7 683c
00000310: 01da c13d 558d 7b3d 1fb0 c0bd 6091 11be
00000320: 5aa0 a03c 2240 283b 331f d3bb f280 a4bd
00000330: 92c6 0bbd d362 743d 8e42 37bc 0e4e 1abd
00000340: 6df0 b3bd e8d8 f7bc ddb3 ac3d a5db a63c
00000350: dcc8 103d 9850 6fbc 4059 62bd b72c 573c
00000360: f157 a43c 733a 84bd 8fef ca3a d756 22bd
00000370: 62f9 7b3d ef55 96bc bb3e cb3d 0ff3 8bbd
00000380: 52d7 4c3d de8e 94bd e510 b63c d16b 853d
00000390: 3e4d 823e f390 803d eabd 8bbd 48f2 ca3c
000003a0: 94a4 8c3d 864d 0abd 6594 52bc 43a9 ca3d
000003b0: ac79 ebbb 4de1 c0bb 7043 ddbd 9a3d 7cbd
000003c0: 0bee ce3c 38d5 fcbc 421b f93c e1c3 06bd
000003d0: 70da 1dbd 7ba1 03bd da83 54bd 52e7 00ba
000003e0: bcdc 9f3d 47ce babd ae37 9bbd ba23 32bd
000003f0: f886 243d 1822 353c 85e6 06be e828 9fbd

predictor.4.bias f4 [4]
-1.8952788 0.5885767 0.54943526 1.7520801
00000000: 7f98 f2bf f6ac 163f caa7 0c3f 2944 e03f
