models/squares/100/class0_teacher_config.pt (torch, 144367 bytes, 9 tensors)

decoder.0.weight f4 [2, 400]
0.04450186 -0.11143653 -0.07671722 -0.032270104 -0.09079055 0.14006712 -0.1067327 0.087494485
0.019620031 0.07136539 0.0026568782 0.12094454 0.026346095 0.052289322 0.044277716 0.043805186
-0.1530734 0.012545373 -0.006394991 0.00587675 0.026173623 -0.09439504 0.039803557 0.07325668
-0.07957151 0.043248225 -0.1424277 -0.040915243 0.03936191 0.02743409 -0.10079375 0.051522996
0.12743422 -0.07176572 0.039808564 -0.010622498 -0.03166658 -0.015125695 0.08316415 -0.06363002
-0.010618273 0.076479025 -0.020040343 0.09629356 -0.014268014 -0.075115584 0.10153482 -0.038072336
0.090748765 0.08799929 -0.1021474 0.10658722 -0.08426183 0.002625854 0.0026726138 0.019677443
0.12297512 0.018545054 -0.1462344 0.0891329 -0.07919029 -0.09851717 0.019706786 -0.15965645
0.058382407 -0.006406965 0.12811492 -0.06439792 0.035234086 0.07191112 0.026547218 0.08999712
-0.15318008 -0.09047895 0.061168045 0.006933545 0.030355265 -0.039073665 -0.04310756 0.0757572
0.023766525 0.004226655 0.0083408095 -0.006181435 0.019317871 0.00028239182 0.07031878 -0.1341853
0.114866845 -0.0841353 0.08070152 0.11437047 -0.0054837377 -0.02644836 -0.02666082 0.010166752
-0.14928453 -0.075349934 0.01979451 0.025788896 -0.109559864 -0.10130727 -0.021366855 -0.12655473
-0.034589186 -0.123298176 0.083283834 0.0078739 -0.034501426 -0.051513504 -0.16094571 0.0063114404
-0.017800529 0.017304175 0.10821361 -0.11013569 0.05295708 -0.010928851 -0.04291525 0.085971706
-0.1251851 0.06037479 -0.032392368 -0.09879442 0.023197848 -0.15545948 0.031096771 0.049269985
0.048593905 0.020960225 -0.0006516949 -0.06751595 -0.10595448 -0.097610064 -0.072923616 5.2306743e-05
0.008696243 -0.043223336 0.03278584 0.010333713 0.0472583 0.046127755 -0.035164177 -0.11366218
-0.010343589 -0.09721886 0.035052694 -0.07941318 -0.07928907 -0.05014976 0.004492575 -0.1584963
0.08574658 0.13325581 -0.022871995 -0.05201337 0.030361647 0.00520543 0.14090614 -0.0023788982
-0.07079184 -0.06747065 -0.047925904 -0.02246184 0.06241748 0.0030280282 0.0037224893 0.10576708
0.019565701 0.04945145 0.002766967 -0.04057105 -0.032919534 0.046142127 0.101622455 -0.043672267
0.047527146 -0.150711 -0.026964677 -0.15260556 -0.07310969 0.012855393 -0.16140282 0.12994689
0.107540466 -0.1212934 -0.16111058 -0.029668644 0.039680146 -0.008521195 -0.005143547 0.046650205
0.03951908 -0.14446656 -0.0420508 -0.07140142 0.116713025 0.12554745 -0.14269541 -0.14775269
0.0036234376 0.09172494 0.0076662744 0.11886097 0.044577632 -0.13119835 -0.119696036 -0.0662837
-0.010962543 0.12432382 -0.005541654 -0.016499374 0.0034685133 -0.13280156 0.05352737 0.042919602
0.04201782 -0.10946117 -0.020445133 -0.001846498 0.060060024 -0.03502852 -0.007357855 0.038159877
-0.017676596 -0.071169674 -0.08740052 0.0020006895 0.044617567 0.10737776 0.0104796775 0.0444236
0.018089417 -0.09318872 0.048151996 -0.07787787 0.017935742 -0.16277683 0.0041704774 0.14033666
-0.1256167 0.11073018 -0.025226122 0.011452619 -0.024378076 -0.086326994 0.010881932 -0.121536225
5.4746895e-05 0.0025167626 0.05589232 0.13383225 0.06731469 -0.12004237 -0.014162234 -0.024197014
00000000: 9547 363d d638 e4bd eb1d 9dbd a82d 04bd
00000010: 65f0 b9bd c16d 0f3e ac96 dabd 4f30 b33d
00000020: 30ba a03c 0528 923d 051f 2e3b c5b1 f73d
00000030: c4d3 d73c 542d 563d 8d5c 353d 116d 333d
00000040: 46bf 1cbe 1c8b 4d3c 138d d1bb c191 c03b
00000050: 116a d63c 3052 c1bd 0e09 233d 9907 963d
00000060: 63f6 a2bd 0d25 313d 91d8 11be be96 27bd
00000070: f439 213d 75bd e03c f46c cebd c709 533d
00000080: 1e7e 023e e8f9 92bd 4e0e 233d fc09 2ebc
00000090: d1b4 01bd c3d1 77bc f751 aa3d 7550 82bd
000000a0: 44f8 2dbc 09a1 9c3d a52b a4bc 8f35 c53d
000000b0: 63c4 69bc 33d6 99bd 7df1 cf3d bdf1 1bbd
000000c0: 7dda b93d f938 b43d a832 d1bd 674a da3d
000000d0: 7791 acbd 8516 2c3b 0527 2f3b 9732 a13c
000000e0: 61da fb3d cceb 973c 78be 15be 4f8b b63d
000000f0: 852e a2bd 5fc3 c9bd 2070 a13c fb7c 23be
00000100: 6422 6f3d 85f1 d1bb 8f30 033e 0fe3 83bd
00000110: 9e51 103d 2346 933d 8d79 d93c 6950 b83d
00000120: 3ddb 1cbe 074d b9bd 588b 7a3d cb32 e33b
00000130: 9bab f83c b50b 20bd 8e91 30bd 9726 9b3d
00000140: 04b2 c23c c07f 8a3b e4a7 083c a38d cabb
00000150: 8340 9e3c fd0d 9439 4b03 903d df67 09be
00000160: 4f3f eb3d 214f acbd d746 a53d 113b ea3d
00000170: edb0 b3bb 3baa d8bc cb67 dabc 7392 263c
00000180: 0bde 18be 1151 9abd 1928 a23c 3c43 d33c
00000190: ec60 e0bd 307a cfbd 8b09 afbc 9097 01be
000001a0: 64ad 0dbd c183 fcbd b790 aa3d 8801 013c
000001b0: 5e51 0dbd d3ff 52bd f4ce 24be 33d0 ce3b
000001c0: 6ad2 91bc 7cc1 8d3c 199f dd3d d28e e1bd
000001d0: 86e9 583d ec0e 33bc e7c7 2fbd ef11 b03d
000001e0: 8630 00be 8e4b 773d dcad 04bd bb54 cabd
000001f0: 6a09 be3c c530 1fbe a8be fe3c 53cf 493d
00000200: 670a 473d c7b4 ab3c 81d6 2aba cd45 8abd
00000210: aafe d8bd c9e7 c7bd fa58 95bd f063 5b38
00000220: b07a 0e3c f40a 31bd 724a 063d bc4e 293c
00000230: eb91 413d 75f0 3c3d 5008 10bd b8c7 e8bd
00000240: 2878 29bc af1a c7bd 6a93 0f3d 61a3 a2bd
00000250: 4f62 a2bd d669 4dbd 7336 933b db4c 22be
00000260: e79b af3d 3674 083e 0d5e bbbc f90b 55bd
00000270: fdb8 f83c 5092 aa3b b349 103e 4ae7 1bbb
00000280: 50fb 90bd 0d2e 8abd f44d 44bd e501 b8bc
00000290: 79a9 7f3d e271 463b 02f5 733b 699c d83d
000002a0: 4048 a03c 9b8d 4a3d 0156 353b d42d 26bd
000002b0: a2d6 06bd 87ff 3c3d 6f1f d03d b1e1 32bd
000002c0: d3ab 423d fc53 1abe 07e5 dcbc a244 1cbe
000002d0: 88ba 95bd 6d9f 523c c846 25be cc10 053e
000002e0: 2d3e dc3d ad68 f8bd 2cfa 24be a80b f3bc
000002f0: a687 223d 7b9c 0bbc 338b a8bb 4914 3f3d
00000300: c2de 213d 0bef 13be 763d 2cbd e83a 92bd
00000310: 3d07 ef3d 838f 003e bf1e 12be 7b4c 17be
00000320: 3277 6d3b 49da bb3d 5f35 fb3b 616d f33d
00000330: 0997 363d dc58 06be 3223 f5bd c0bf 87bd
00000340: 3d9c 33bc 7d9d fe3d c396 b5bb b229 87bc
00000350: ff4f 633b 22fd 07be 843f 5b3d 77cc 2f3d
00000360: e11a 2c3d 2e2d e0bd 8d7c a7bc 3106 f2ba
00000370: 8001 763d 117a 0fbd 291a f1bb 884d 1c3d
00000380: 82ce 90bc 68c1 91bd 0bff b2bd 001e 033b
00000390: e9c0 363d dfe8 db3d f4b2 2b3c 85f5 353d
000003a0: 4230 943c bad9 bebd 073b 453d 6f7e 9fbd
000003b0: faed 923c f8ae 26be 80a8 883b 6ab4 0f3e
000003c0: aaa1 00be 81c6 e23d 03a7 cebc c4a3 3b3c
000003d0: 88b4 c7bc 35cc b0bd 224a 323c fce7 f8bd
000003e0: 08a0 6538 45f0 243b 58ef 643d 520b 093e
000003f0: 49dc 893d c6d8 f5bd b708 68bc d138 c6bc

projector.0.weight f4 [40, 4]
-0.045748867 0.25919488 0.3337989 -0.34743455 -0.09366241 0.29422694 0.42798564 0.12684962
-0.48997185 0.3591872 -0.41895774 -0.41318414 0.06677324 -0.22295211 0.052808367 -0.52475536
0.4801274 -0.37622753 -0.49428716 0.058368593 0.41621903 -0.04277111 0.32225126 0.3499822
-0.027719101 0.17511278 0.48126253 -0.13233677 -0.072590955 0.4438871 0.19448131 0.44385427
0.0752233 0.30902565 0.056797996 -0.46268034 0.3931881 -0.029765008 0.34711632 0.24678998
0.4805258 0.17018105 0.1639339 -0.2826887 -0.24381298 -0.04598125 -0.07957601 0.40364116
0.0006104708 -0.33754623 -0.42631966 0.46604502 -0.1917264 0.15338649 -0.050004166 -0.4973214
0.26472533 -0.06897472 0.37119243 0.11108388 0.39966065 -0.067901 0.21423465 -0.1904559
-0.14049251 -0.08881093 0.44693327 -0.037273776 -0.36053497 -0.5350196 -0.36784875 -0.44224703
-0.3012989 0.43681693 0.36447987 -0.5531723 -0.24528706 0.20927244 0.27573845 -0.53016347
0.2457462 0.20391786 -0.28272867 -0.10469601 0.463514 0.14363165 0.106288105 -0.18343982
-0.34721273 -0.33346778 -0.42559156 -0.090819836 0.368157 -0.37944743 0.3212158 -0.47961852
0.024934746 0.110725924 -0.40776354 0.35405105 -0.44441298 -0.29951313 0.42972252 0.092845164
0.208791 -0.12541956 0.42151773 0.27363142 -0.24605115 -0.008799258 0.17270909 0.436615
0.51093346 0.22454298 -0.3813787 0.09539845 0.3137292 0.22267039 0.29211995 0.22390817
-0.43942752 0.14747083 -0.118817806 -0.14693166 -0.02727158 -0.12937039 0.38134563 -0.54315555
0.36762282 -0.34536552 -0.05769857 0.07324373 -0.19462702 0.3193266 0.47933868 0.16417295
-0.004257459 -0.21466097 0.35558677 -0.38660902 -0.15673442 -0.39140338 -0.059666935 0.16396616
0.09768386 0.4494583 -0.13431479 -0.16768777 0.10135041 0.033131488 -0.26769444 0.4086232
-0.3972093 -0.4766124 -0.26726055 -0.517991 0.34750897 0.12740216 0.44531137 0.06396283
00000000: 2a63 3bbd 31b5 843e b0e7 aa3e f1e2 b1be
00000010: 14d2 bfbd eaa4 963e ef20 db3e dee4 013e
00000020: 97dd fabe 62e7 b73e a181 d6be df8c d3be
00000030: 69c0 883d 8f4d 64be 964d 583d 5e56 06bf
00000040: 42d3 f53e e5a0 c0be 3513 fdbe e813 6f3d
00000050: a91a d53e c230 2fbd 1efe a43e de30 b33e
00000060: 2b13 e3bc c450 333e 0b68 f63e 4a83 07be
00000070: 91aa 94bd 2c45 e33e 1c26 473e de40 e33e
00000080: ac0e 9a3d 9c38 9e3e 04a5 683d 70e4 ecbe
00000090: f34f c93e bfd5 f3bc 3bb9 b13e 83b6 7c3e
000000a0: 7a07 f63e f143 2e3e 4ade 273e 93bc 90be
000000b0: 1caa 79be d656 3cbd bff8 a2bd 0eaa ce3e
000000c0: 0008 203a dcd2 acbe 9246 dabe 749d ee3e
000000d0: ed53 44be 5911 1d3e 2bd1 4cbd e9a0 febe
000000e0: 148a 873e 9e42 8dbd ef0c be3e f27f e33d
000000f0: 52a0 cc3e ae0f 8bbd 5460 5b3e df06 43be
00000100: 45dd 0fbe 81e2 b5bd 70d4 e43e 63ac 18bd
00000110: 0a98 b8be 0bf7 08bf ac56 bcbe 346e e2be
00000120: d943 9abe 78a6 df3e 1b9d ba3e b39c 0dbf
00000130: 882c 7bbe 844b 563e 972d 8d3e cbb8 07bf
00000140: e4a4 7b3e d8cf 503e d0c1 90be dd6a d6bd
00000150: b551 ed3e 2d14 133e 94ad d93d a6d7 3bbe
00000160: dec5 b1be 4abc aabe 23e7 d9be c0ff b9bd
00000170: 137f bc3e ef46 c2be 6676 a43e 8f90 f5be
00000180: f443 cc3c 46c4 e23d 62c6 d0be 2e46 b53e
00000190: 198a e3be c959 99be 9704 dc3e 9b25 be3d
000001a0: 4fcd 553e fc6d 00be 2cd1 d73e 6b19 8c3e
000001b0: d5f4 7bbe c32a 10bc a7da 303e 008c df3e
000001c0: 89cc 023f 98ee 653e 1244 c3be 4360 c33d
000001d0: 1da1 a03e b503 643e bf90 953e 2f48 653e
000001e0: a5fc e0be 9802 173e c056 f3bd 4175 16be
000001f0: a668 dfbc ac79 04be bc3f c33e 3e0c 0bbf
00000200: 0f39 bc3e c0d3 b0be 5655 6cbd cf00 963d
00000210: 4e4c 47be c77e a33e e16b f53e f41c 283e
00000220: 2882 8bbb 16d0 5bbe 780f b63e 9ef1 c5be
00000230: fd7e 20be 0666 c8be 5165 74bd bfe6 273e
00000240: 7a0e c83d 661f e63e d189 09be 58b6 2bbe
00000250: ce90 cf3d e2b4 073d 3f0f 89be 0f37 d13e
00000260: 045f cbbe 8a06 f4be 60d6 88be 0f9b 04bf
00000270: b2ec b13e b675 023e daff e33e f2fe 823d

projector.0.bias f4 [40]
0.40545446 -0.2277172 0.34514034 0.16285688 0.25892007 0.129258 -0.45881915 -0.31521696
0.0069044665 -0.10625706 -0.43120575 -0.037276067 -0.28085387 0.467515 0.42062366 0.08449332
-0.04171216 0.4780652 0.42357373 0.36206168 0.028361479 0.16330594 0.36665827 0.53825337
-0.35683474 -0.3797262 0.3531415 0.049002413 0.3621848 -0.4507732 0.5275968 0.3406851
-0.43237543 0.41330504 0.10081871 -0.41223657 0.39913523 -0.30111343 -0.4486388 0.5781082
00000000: ba97 cf3e b32e 69be 3cb6 b03e f4c3 263e
00000010: 2c91 843e 365c 043e 58ea eabe 1e64 a1be
00000020: dd3e e23b 4d9d d9bd 00c7 dcbe caae 18bd
00000030: 14cc 8fbe 205e ef3e fc5b d73e d50a ad3d
00000040: 5fda 2abd f6c4 f43e a8de d83e 2660 b93e
00000050: 5556 e83c ac39 273e a2ba bb3e f9ca 093f
00000060: 0bb3 b6be 796b c2be f6ce b43e c1b6 483d
00000070: 4970 b93e bfcb e6be 9510 073f 476e ae3e
00000080: 5060 ddbe b89c d33e 0a7a ce3d ac10 d3be
00000090: 745b cc3e 8a2b 9abe fcb3 e5be e6fe 133f

projector.2.weight f4 [400, 40]
0.09578105 0.17910519 0.044313762 0.019750724 0.040468626 -0.09261726 0.0809824 -0.05825009
0.12621227 0.15978624 -0.043513607 -0.13032801 -0.021850064 0.025417656 0.0787353 -0.06830275
0.039392576 0.07720655 0.18350632 0.0094835125 0.14243917 0.20203209 0.20282151 0.02606093
-0.0890715 -0.09717887 0.053492 -0.060308 0.061232787 0.17646672 0.18678461 0.1043787
0.1145521 0.22394283 0.10815023 -0.030558452 0.025703011 -0.11926362 0.080083296 0.13216607
-0.07737021 0.1467662 0.20587106 0.037061036 -0.110062905 -0.13895172 -0.07849899 0.0437751
0.10854234 0.023782901 0.12284619 -0.07252268 -0.12562674 -0.026983341 -0.015370021 0.054580674
0.018831417 0.065997705 -0.0026566347 0.032111637 0.036902826 0.040824044 -0.0054737325 -0.04181851
0.080696 -0.096985474 0.116172105 0.011467218 0.15341362 -0.07795401 0.15066178 0.089172326
-0.100306585 0.12532954 0.18375543 0.14797129 0.15217607 0.107149966 0.19853127 0.016108217
0.0017124605 -0.11041824 -0.031702235 -0.0764634 0.098107725 0.0008061861 0.003038413 -0.012502237
0.18346761 0.091560975 -0.066695504 -0.03541121 0.06359869 -0.019262135 -0.10667964 -0.01324714
0.01898922 0.11045986 0.11625918 0.18219186 0.039838582 0.14342856 0.118585 0.05288434
-0.10069534 0.1540973 0.124895416 0.16230863 0.03631942 0.0022244933 0.08654947 0.077010244
-0.01698332 0.07505158 0.18007034 -0.08541989 0.0039232997 0.03864765 -0.012547926 0.14439127
-0.017167373 -0.029515361 0.06504482 0.016462311 -0.046883456 0.16595118 0.20972285 0.079283245
0.12039551 -0.0018674885 0.18331954 0.10172617 -0.08366321 0.17693324 0.12195845 -0.09393089
0.15321274 -0.0094078425 0.21693702 0.06983137 -0.10625828 0.08892524 0.0106841745 0.15322496
-0.12401894 0.10160952 0.012137695 -0.085242495 0.05002999 -0.018276023 0.08316926 0.07115254
-0.06307164 0.06216471 0.017988235 0.076179065 0.10696721 -0.032170154 0.06813748 0.14603199
0.003190781 -0.045097116 0.08968194 -0.08499031 0.07725668 -0.12252522 -0.0054749963 -0.058683988
0.09106432 -0.06252931 0.050962318 -0.10078669 -0.12498705 0.108770095 -0.062225737 0.12821384
-0.05647552 -0.017878644 0.1528675 0.094859384 -0.038033046 -0.004183404 -0.06428297 -0.046131626
-0.17312784 0.13000162 -0.13358991 0.08374186 -0.082848854 0.13792163 0.20587462 0.097785085
0.12880391 -0.029626923 -0.013665246 -0.0330503 -0.06753261 0.12812127 0.11638706 -0.028137797
0.17978035 0.119749784 0.083169684 -0.062294696 0.021901414 0.03665442 -0.02652056 -0.058425438
0.14531459 -0.02357748 0.11260046 0.025601279 0.03655915 0.14626269 -0.018206155 0.0674841
0.09837106 0.08228145 0.09272694 -0.06509453 -0.03901687 0.012812853 0.19658443 0.17189881
0.09091483 0.024475284 0.07126493 0.0057661426 0.14094847 0.014943768 0.20044702 0.22447026
0.049400125 0.15422527 -0.0148454355 0.15082146 -0.059674487 0.08818274 -0.056853592 0.023508376
0.002099481 0.14781687 0.05706552 0.15724936 -0.03540624 -0.10986028 0.056288134 -0.016963473
0.10871361 0.08155648 -0.06451451 0.12579693 0.07596211 0.034795955 0.19329002 0.045557387
00000000: db28 c43d 5a67 373e 5982 353d 45cc a13c
00000010: 6ec2 253d 1eae bdbd 1ada a53d a597 6ebd
00000020: ca3d 013e 019f 233e 533b 32bd b574 05be
00000030: e8fe b2bc b038 d03c f93f a13d 50e2 8bbd
00000040: 1c5a 213d 781e 9e3d 15e9 3b3e bc60 1b3c
00000050: 93db 113e 80e1 4e3e 71b0 4f3e bb7d d53c
00000060: 1e6b b6bd b705 c7bd 6d1a 5b3d 8505 77bd
00000070: 3bcf 7a3d b1b3 343e 7744 3f3e 80c4 d53d
00000080: 4b9a ea3d 4551 653e de7d dd3d b855 fabc
00000090: 1f8f d23c 7c40 f4bd b602 a43d 8b56 073e
000000a0: 4674 9ebd e149 163e ddcf 523e 50cd 173d
000000b0: a968 e1bd 5c49 0ebe 14c4 a0bd 854d 333d
000000c0: 724b de3d 5cd4 c23c c996 fb3d c586 94bd
000000d0: 4ca4 00be 2b0c ddbc 8ad2 7bbc fc8f 5f3d
000000e0: 5844 9a3c ce29 873d ef1a 2ebb 7e87 033d
000000f0: 6b27 173d 1d37 273d ff5c b3bb e349 2bbd
00000100: f243 a53d 52a0 c6bd a4eb ed3d 00e1 3b3c
00000110: 7618 1d3e 5aa6 9fbd 1547 1a3e fb9f b63d
00000120: 8a6d cdbd 6356 003e 622a 3c3e c985 173e
00000130: 0bd4 1b3e 7171 db3d c84b 4b3e 61f5 833c
00000140: a474 e03a f522 e2bd 34da 01bd d898 9cbd
00000150: b4ec c83d 3c56 533a 1c20 473b 2fd6 4cbc
00000160: efde 3b3e 5284 bb3d a797 88bd 580b 11bd
00000170: 0840 823d a0cb 9dbc db7a dabd 880a 59bc
00000180: 488f 9b3c c738 e23d 4b19 ee3d 8190 3a3e
00000190: c82d 233d f0de 123e b1dc f23d 409d 583d
000001a0: 5c39 cebd afcb 1d3e 2bc9 ff3d 3c34 263e
000001b0: acc3 143d cec8 113b d940 b13d 8cb7 9d3d
000001c0: 9a20 8bbc a5b4 993d 5c64 383e a0f0 aebd
000001d0: 068f 803b 004d 1e3d d195 4dbc 4edb 133e
000001e0: 97a2 8cbc 33ca f1bc 3836 853d f8db 863c
000001f0: de08 40bd 1bef 293e 96c1 563e 415f a23d
00000200: ec91 f63d 84c6 f4ba 1eb8 3b3e cf55 d03d
00000210: 9e57 abbd fd2d 353e 5ac5 f93d d75e c0bd
00000220: cde3 1c3e 5a23 1abc bd24 5e3e c003 8f3d
00000230: f19d d9bd 701e b63d ad0c 2f3c 01e7 1c3e
00000240: a4fd fdbd a718 d03d 2fdd 463c 9e93 aebd
00000250: 3fec 4c3d 99b7 95bc a554 aa3d 6cb8 913d
00000260: b42b 81bd 6ca0 7e3d 105c 933c c503 9c3d
00000270: a011 db3d dac4 03bd aa8b 8b3d 6989 153e
00000280: 6c1c 513b c1b7 38bd 2aab b73d 660f aebd
00000290: c038 9e3d 81ee fabd 9967 b3bb 9f5e 70bd
000002a0: ee7f ba3d 5e0f 80bd ddbd 503d 4169 cebd
000002b0: 36f9 ffbd dbc2 de3d 6ae0 7ebd 7d4a 033e
000002c0: e052 67bd 3c76 92bc 4c89 1c3e a345 c23d
000002d0: 8ac8 1bbd f014 89bb caa6 83bd 84f4 3cbd
000002e0: 6d48 31be 251f 053e cbcb 08be da80 ab3d
000002f0: a9ac a9bd 543b 0d3e ccd0 523e 8c43 c83d
00000300: 2ce5 033e 29b4 f2bc 32e4 5fbc c05f 07bd
00000310: 894e 8abd 3932 033e 575c ee3d 3d81 e6bc
00000320: 5718 383e 603f f53d de54 aa3d b928 7fbd
00000330: 986a b33c f222 163d a541 d9bc 834f 6fbd
00000340: 59cd 143e 8f25 c1bc 129b e63d c6b9 d13c
00000350: 0cbf 153d e3c5 153e 1325 95bc 1b35 8a3d
00000360: c476 c93d 2d83 a83d 9fe7 bd3d 4850 85bd
00000370: 27d0 1fbd 00ed 513c 6e4d 493e 3e06 303e
00000380: 8e31 ba3d 6480 c83c 59f3 913d e9f1 bc3b
00000390: cc54 103e b5d6 743c fc41 4d3e 88db 653e
000003a0: c957 4a3d 3bed 1d3e 453a 73bc f170 1a3e
000003b0: 3c6d 74bd 2799 b43d 50df 68bd a394 c03c
000003c0: 7297 093b 4e5d 173e 89bd 693d fa05 213e
000003d0: 2206 11bd 6dfe e0bd 638e 663d fbf6 8abc
000003e0: 3ea5 de3d 1507 a73d 2f20 84bd e9d0 003e
000003f0: 0692 9b3d 3486 0e3d d2ed 453e 629a 3a3d

projector.2.bias f4 [400]
0.03418559 0.1583705 0.10190307 0.15506065 -0.1243972 0.23190403 0.0802341 0.11246872
-0.04104526 0.14572671 0.2335853 0.16362981 -0.016804196 0.13520245 -0.055066712 -0.058351006
-0.033009887 0.010852938 0.124823846 0.007894751 -0.16893835 0.20425232 0.08579397 0.08062382
-0.08684646 -0.048498593 0.09512822 0.10946607 0.09594731 0.11045083 0.04015482 0.19468033
-0.00413695 0.08660527 0.07973341 0.067878164 0.17237273 0.0692622 0.13697667 0.2136641
-0.11827834 -0.05173566 -0.075211324 0.12712418 -0.06831441 -0.15022378 0.08621776 0.23816971
-0.09785908 -0.051429614 -0.094304875 -0.069931254 -0.017509082 0.16974881 0.0077356547 0.039167132
-0.12007587 0.18183953 0.02732256 -0.12996817 0.20489247 -0.014336924 -0.11409525 -0.016758323
0.1061904 -0.074371286 0.10023761 -0.007799127 -0.048238993 0.07051926 0.05929066 -0.12854853
0.17151338 0.021501353 0.013827339 0.09472667 0.048486676 -0.041038528 -0.026310438 0.06079355
-0.028686807 -0.14636098 -0.043513097 0.11103102 -0.002109629 -0.14090092 0.22422217 -0.171219
0.14799201 -0.10880833 -0.017679062 -0.10000916 -0.07654598 -0.06525985 0.2025802 0.11387349
0.093289986 0.1294595 -0.065536074 0.11759437 0.1262656 0.14660686 -0.0020518322 0.017241137
0.23396723 -0.010154692 0.04846859 0.08876874 0.14223734 -0.12440292 -0.18858589 0.09031743
-0.0008522192 -0.03232756 -0.03923711 0.100374565 -0.1537771 -0.017209234 0.027618773 0.034810994
-0.13991569 -0.16266795 -0.08838558 -0.040087264 -0.028315362 0.050856873 0.13657829 0.14750122
0.083216235 0.012631459 0.13492654 -0.010766708 0.019446963 0.12626615 0.06222798 0.09021079
0.044942223 -0.07124753 0.17276226 -0.037416775 -0.11635606 0.0766265 0.13525693 -0.09867406
0.05635543 0.120441616 -0.027521517 0.19355734 0.12543672 0.031591393 -0.004809198 -0.071677715
0.003545363 -0.03685732 0.088944905 0.05849632 -0.0441478 -0.06462611 0.08489156 -0.013575712
0.06764014 -0.008790344 0.015402685 -0.0042927526 -0.0010446161 -0.06611394 -0.10705955 -0.10063819
0.14049517 0.24402936 0.13084778 0.041937917 0.21517918 0.0921266 0.041475065 -0.12566802
-0.07270798 -0.076320596 0.16685149 0.055680126 0.19638911 0.22881153 -0.09558465 -0.07539873
0.08858651 -0.13676889 -0.022902697 0.029353203 0.11858159 -0.0882824 0.1588962 -0.0047681713
-0.012161932 -0.13902056 -0.11304618 -0.14299086 -0.12867068 0.20091327 0.13140245 0.15034696
-0.1478726 -0.076877035 0.19550124 -0.14816357 -0.1498135 -0.07162281 -0.011630043 0.15611844
0.050950143 0.22010091 0.064599216 -0.07840159 -0.026504474 -0.05367058 0.17866562 -0.10074825
0.12582602 0.20500189 0.13204646 -0.023162244 -0.029961534 0.10265531 0.12741663 0.056680117
0.062499687 0.042080138 0.24083646 0.035007115 0.16462493 0.06764535 0.037404787 -0.039937325
-0.07835974 -0.05261342 0.24244173 -0.03168047 -0.008550026 0.14585385 0.17326026 0.06281233
0.1590818 -0.001177454 -0.020248972 0.006978009 -0.03753695 0.12671982 -0.012543392 -0.028240457
-0.050836563 0.043711923 0.17335783 0.06695072 -0.049514756 0.1673632 0.08374976 0.1268274
00000000: 3006 0c3d e02b 223e 8fb2 d03d 38c8 1e3e
00000010: f6c3 febd 4078 6d3e c751 a43d 0056 e63d
00000020: 131f 28bd 6239 153e fc30 6f3e 938e 273e
00000030: f4a8 89bc 8372 0a3e a28d 61bd 7701 6fbd
00000040: 6035 07bd 85d0 313c a5a3 ff3d fc58 013c
00000050: 2dfe 2cbe 8527 513e c0b4 af3d 1a1e a53d
00000060: 8fdc b1bd 76a6 46bd 96d2 c23d bf2f e03d
00000070: 0680 c43d 0b34 e23d 6179 243d 485a 473e
00000080: 408f 87bb 1b5e b13d 454b a33d b503 8b3d
00000090: 7a82 303e 57d9 8d3d 9d43 0c3e c3ca 5a3e
000000a0: ea3b f2bd c5e8 53bd 6508 9abd d72c 023e
000000b0: 6de8 8bbd 43d4 19be f092 b03d c3e2 733e
000000c0: 576a c8bd dca7 52bd ea22 c1bd 1e38 8fbd
000000d0: 356f 8fbc a2d2 2d3e 607b fd3b b76d 203d
000000e0: 56ea f5bd 2434 3a3e 90d3 df3c 6016 05be
000000f0: 55cf 513e 6be5 6abc c5aa e9bd c048 89bc
00000100: 5a7a d93d f94f 98bd 6049 cd3d d28f ffbb
00000110: 4096 45bd 676c 903d c3da 723d 3aa2 03be
00000120: 34a1 2f3e 9b23 b03c 108c 623c 0e00 c23d
00000130: f799 463d 0418 28bd fd88 d7bc a802 793d
00000140: 9800 ebbc a7df 15be ca3a 32bd 3b64 e33d
00000150: b441 0abb 5548 10be 7f9a 653e 0954 2fbe
00000160: 388b 173e e7d6 debd aed3 90bc 9ad1 ccbd
00000170: 24c4 9cbd f5a6 85bd 2f71 4f3e 8136 e93d
00000180: d20e bf3d 0891 043e c737 86bd 51d5 f03d
00000190: c54b 013e 1c20 163e 0878 06bb 493d 8d3c
000001a0: 1b95 6f3e de5f 26bc 0087 463d 63cc b53d
000001b0: aaa6 113e f5c6 febd a91c 41be 58f8 b83d
000001c0: 7667 5fba e769 04bd 18b7 20bd 2e91 cd3d
000001d0: be77 1dbe 61fa 8cbc c440 e23c f995 0e3d
000001e0: 0f46 0fbe 6d92 26be 8003 b5bd 8b32 24bd
000001f0: 9ef5 e7bc 4c4f 503d 2edb 0b3e 8f0a 173e
00000200: 466d aa3d 2ef4 4e3c 2f2a 0a3e d966 30bc
00000210: 3d4f 9f3c ea4b 013e c4e2 7e3d 6fc0 b83d
00000220: 5615 383d 3aea 91bd 97e8 303e 5542 19bd
00000230: 164c eebd 5bee 9c3d cb80 0a3e a015 cabd
00000240: f4d4 663d 18aa f63d ce74 e1bc e533 463e
00000250: 7c72 003e fa65 013d 7a96 9dbb c4cb 92bd
00000260: 5259 683b b4f7 16bd bf28 b63d d699 6f3d
00000270: 53d4 34bd b25a 84bd a0db ad3d aa6c 5ebc
00000280: ea86 8a3d 6005 10bc 8b5b 7c3c 38aa 8cbb
00000290: 80eb 88ba bf66 87bd 0a42 dbbd 651b cebd
000002a0: f7dd 0f3e d5e2 793e f6fc 053e 18c7 2b3d
000002b0: ee57 5c3e dfac bc3d c2e1 293d 1eaf 00be
000002c0: ece7 94bd f94d 9cbd 1edb 2a3e d810 643d
000002d0: 3a1a 493e 924d 6a3e e3c1 c3bd a66a 9abd
000002e0: d86c b53d 250d 0cbe 709e bbbc 2176 f03c
000002f0: e8da f23d 67cd b4bd afb5 223e 523e 9cbb
00000300: d742 47bc 685b 0ebe c184 e7bd 326c 12be
00000310: 3fc2 03be 35bc 4d3e 5d8e 063e 8ef4 193e
00000320: ea6b 17be b571 9dbd 7a31 483e 31b8 17be
00000330: b668 19be fbae 92bd f08b 3ebc 83dd 1f3e
00000340: 19b1 503d 2262 613e 984c 843d 0391 a0bd
00000350: e91f d9bc afd5 5bbd 1ff4 363e 1955 cebd
00000360: 89d8 003e 04ec 513e 3037 073e bfbe bdbc
00000370: e471 f5bc f23c d23d 8179 023e 6929 683d
00000380: acff 7f3d 395c 2c3d d59d 763e 9f63 0f3d
00000390: 7093 283e a589 8a3d c335 193d 5295 23bd
000003a0: 127b a0bd 2b81 57bd a542 783e 61c3 01bd
000003b0: 6915 0cbc b65a 153e 236b 313e c0a3 803d
000003c0: 57e6 223e cd54 9aba 2ce1 a5bc c8a7 e43b
000003d0: 58c0 19bd d7c2 013e cd82 4dbc 8858 e7bc
000003e0: 003a 50bd 460b 333d b784 313e 761d 893d
000003f0: fccf 4abd 4261 2b3e ff84 ab3d 0bdf 013e

projector.4.weight f4 [40, 400]
-0.01933021 -0.030890448 0.0063966736 0.0026621409 0.04511397 -0.026066566 0.046098728 -0.0071038418
-0.003387671 0.026675817 -0.03579704 -0.008557159 -0.03251674 -0.0071455054 0.019668493 -0.0025431402
-0.014453948 -0.018551778 0.040122535 0.0360356 -0.026207417 -0.017666794 -0.0455302 -0.047381986
-0.0017866679 -0.0012045316 0.010037176 0.0034177378 0.006634254 -0.011700638 -0.043028064 0.04794875
-0.013079263 -0.0270315 -0.025375867 0.034074817 0.03223208 0.029342819 0.04292557 0.015668098
0.042490613 0.023886863 -0.02178119 0.04768734 -0.039039858 -0.010797728 -0.03982829 0.0373205
-0.016509127 -0.020565897 -0.036369257 -0.031569697 0.000439547 -0.023526508 -0.0002638176 -0.039858043
-0.039152484 0.044023935 0.0046559274 0.036850248 0.026813637 -0.012828659 -0.04895695 -0.041735493
-0.01976536 -0.028300399 -0.043465473 -0.0238424 -0.037157804 0.019302305 -0.03884669 0.01632971
-0.026041193 0.026206765 0.044800524 0.03959431 -0.048805054 -0.035481494 0.0032482333 -0.04098189
0.043214675 0.040933196 0.01338939 -0.036065996 0.025320437 -0.004568558 -0.023984803 0.042041052
-0.0006017387 -0.00690224 -0.0060718767 -0.02278914 -0.023589874 -0.03826668 -0.001733087 0.021489743
0.045483153 0.0111118555 -0.04028943 0.02276228 -0.028659511 -0.010744892 0.020165566 -0.00547757
0.0070471764 -0.010193605 -0.012611739 0.039611656 -0.003459096 0.0027324744 0.043900076 -0.044306744
-0.0023619607 -0.022286212 0.013102341 0.0423163 0.012381084 -0.0028646886 0.026949678 0.0016858876
0.011123557 -0.017269999 0.03251082 -0.02008015 0.027544077 -0.03386145 -0.021432597 0.013408605
0.019904029 0.021548841 -0.032591477 0.0124788955 0.04437874 0.04237451 0.00026685745 -0.04561459
-0.017246552 -0.020508636 -0.003042858 -0.0051611774 0.048475925 -0.042976547 0.010622345 -0.04038561
-0.008885998 -0.03766058 -0.001974441 0.016317498 -0.00015022606 0.04971047 -0.015558548 0.0017917268
-0.002243828 -0.021556884 0.03848428 -0.03433448 -0.016796876 0.03450981 -0.00857529 0.019361649
0.019652437 0.029527914 0.0012824908 0.03638904 0.03577843 0.027464408 0.03576945 0.035582963
0.005219836 -0.039808698 -0.030796552 0.03724267 0.0010008141 0.0063529685 0.008049913 0.023200247
-0.041729152 -0.04952116 -0.028885627 0.040376443 0.035065446 -0.0064372346 0.047795508 -0.0005396381
-0.0022558942 -0.016192365 -0.012190364 0.0342992 -0.048397135 0.015057411 0.005913209 0.023960639
0.044267867 -0.01938473 -0.011308353 -0.017478831 -0.013549667 0.0038896576 -0.04000198 -0.04202684
0.010403644 0.046923224 0.024753343 0.047496047 0.047421616 0.034464035 -0.019467736 -0.009819537
0.023618493 0.02408604 -0.025157535 -0.02800451 0.045456227 0.022769842 0.019068446 0.019040193
-0.010408305 -0.044045944 -0.025478352 0.03885557 -0.030179948 0.042220008 0.0013924167 -0.032638066
-0.01494626 -0.025041921 -0.0013992973 -0.035406183 0.034168806 -0.005049996 -0.041755926 0.0030477718
-0.044955492 0.012580197 0.0053295083 -0.03503654 0.024964202 -0.036530405 -0.002235908 0.014892552
0.011511765 0.026376288 -0.035586197 0.047422912 -0.0013619661 0.044526417 0.028314207 0.028033178
0.011804324 0.016800199 0.015906814 0.049241718 -0.028515352 0.01036815 0.0045429654 -0.009572256
00000000: 635a 9ebc f70d fdbc 309b d13b 5077 2e3b
00000010: 6dc9 383d 8d89 d5bc 05d2 3c3d 58c7 e8bb
00000020: b003 5ebb 3e87 da3c eb9f 12bd 5433 0cbc
00000030: 4630 05bd d824 eabb d21f a13c d0aa 26bb
00000040: 40d0 6cbc e6f9 97bc 8757 243d 119a 133d
00000050: f0b0 d6bc f4b9 90bc e07d 3abd 9d13 42bd
00000060: a02e eaba 60e1 9dba f872 243c 20fc 5f3b
00000070: 2864 d93b 08b4 3fbc 323e 30bd e965 443d
00000080: 684a 56bc 2a71 ddbc 0de1 cfbc 0992 0b3d
00000090: c905 043d 5a60 f03c b9d2 2f3d 625a 803c
000000a0: a30a 2e3d 62ae c33c 776e b2bc cd53 433d
000000b0: 42e8 1fbd f4e8 30bc fd22 23bd 61dd 183d
000000c0: 263e 87bc d079 a8bc eef7 14bd 3a4f 01bd
000000d0: 0073 e639 aaba c0bc 0051 8ab9 3042 23bd
000000e0: 5b5e 20bd 7152 343d c090 983b 49f0 163d
000000f0: 46a8 db3c 4c2f 52bc 1587 48bd d6f2 2abd
00000100: f7ea a1bc 3dd6 e7bc da08 32bd 2351 c3bc
00000110: c832 18bd de1f 9e3c b51d 1fbd e2c5 853c
00000120: 5754 d5bc 92af d63c c180 373d a52d 223d
00000130: cfe7 47bd 0b55 11bd 50e0 543b a0dc 27bd
00000140: df01 313d 91a9 273d 2c5f 5b3c f0b9 13bd
00000150: ce6c cf3c d8b3 95bb c77b c4bc 3d33 2c3d
00000160: 00be 1dba 302c e2bb 98f6 c6bb 4ab0 babc
00000170: 8d3f c1bc 86bd 1cbd c028 e3ba 420b b03c
00000180: 8b4c 3a3d 800e 363c 8806 25bd f677 ba3c
00000190: 5ac7 eabc 580b 30bc 4232 a53c 307d b3bb
000001a0: 00ec e63b 1403 27bc 78a1 4ebc d53f 223d
000001b0: 00b2 62bb 5013 333b 91d0 333d fd7a 35bd
000001c0: 20cb 1abb 9391 b6bc 34ab 563c db53 2d3d
000001d0: 08da 4a3c 80bd 3bbb 92c5 dc3c 00f9 dc3a
000001e0: 943f 363c d079 8dbc 112a 053d 207f a4bc
000001f0: 1ea4 e13c 4eb2 0abd 6a93 afbc c4af 5b3c
00000200: c60d a33c 3287 b03c a47e 05bd 4874 4c3c
00000210: 7bc6 353d e590 2d3d 00e9 8b39 5dd6 3abd
00000220: a448 8dbc ba01 a8bc b06a 47bb 181f a9bb
00000230: b18e 463d 2d08 30bd 5809 2e3c 626b 25bd
00000240: 9496 11bc fb41 1abd a065 01bb 46ac 853c
00000250: 0086 1db9 359d 4b3d 48e9 7ebc 60d8 ea3a
00000260: 300d 13bb 1098 b0bc b1a1 1d3d 50a2 0cbd
00000270: 9a99 89bc 295a 0d3d 607f 0cbc 529c 9e3c
00000280: 26fe a03c 86e4 f13c 4019 a83a ad0c 153d
00000290: 678c 123d 0afd e03c fd82 123d 71bf 113d
000002a0: 280b ab3b 720e 23bd 0d49 fcbc c58b 183d
000002b0: c02d 833a 902c d03b c8e3 033c 720e be3c
000002c0: 30ec 2abd b3d6 4abd 8da1 ecbc c561 253d
000002d0: c9a0 0f3d 70ef d2bb 39c5 433d 8076 0dba
000002e0: a0d7 13bb daa5 84bc 18ba 47bc 517d 0c3d
000002f0: 133c 46bd 5cb3 763c 98c3 c13b 1a49 c43c
00000300: 3952 353d bacc 9ebc ac46 39bc c42f 8fbc
00000310: 6cff 5dbc a0e9 7e3b 1ed9 23bd 5624 2cbd
00000320: 0c74 2a3c 9132 403d 86c7 ca3c 378b 423d
00000330: 2b3d 423d 292a 0d3d cd7a 9fbc 20e2 20bc
00000340: 927b c13c 1650 c53c 2d17 cebc b769 e5bc
00000350: 4f30 3a3d d287 ba3c 6e35 9c3c 2efa 9b3c
00000360: 9887 2abc 8569 34bd fab7 d0bc 0527 1f3d
00000370: f03b f7bc e3ee 2c3d c081 b63a 7eaf 05bd
00000380: 28e1 74bc b724 cdbc a068 b7ba 1306 11bd
00000390: 97f4 0b3d 707a a5bb 4308 2bbd 20bd 473b
000003a0: 4023 38bd 2c1d 4e3c 28a3 ae3b 7a82 0fbd
000003b0: ba81 cc3c e8a0 15bd 5088 12bb e4ff 733c
000003c0: d89b 3c3c 1613 d83c d5c2 11bd 873e 423d
000003d0: 0084 b2ba 5561 363d 32f3 e73c d6a5 e53c
000003e0: ec66 413c 92a0 893c 024f 823c afb1 493d
000003f0: 0799 e9bc 2cdf 293c 28dd 943b f4d4 1cbc

projector.4.bias f4 [40]
-0.046010327 0.017553005 0.0003571645 0.088560276 0.13221827 -0.033994105 -0.015217613 0.123687506
0.07689541 0.13881117 0.11247149 0.15348437 0.1436538 0.0065390468 -0.014262117 0.11011061
0.12661083 -0.05120876 -0.064238586 0.0050449697 -0.015180964 0.08215945 0.01653282 0.09012581
0.016124789 0.11523937 -0.066230305 -0.05635333 -0.046249073 0.0758718 -0.055706944 0.017061433
-0.030808218 -0.035868663 -0.071758345 -0.043779016 -0.05462146 0.1324492 -0.024897851 -0.0056489683
00000000: 5375 3cbd 52cb 8f3c cf41 bb39 175f b53d
00000010: 3a64 073e 673d 0bbd 4c53 79bc e04f fd3d
00000020: 577b 9d3d 8424 0e3e 7457 e63d 022b 1d3e
00000030: fb19 133e 8045 d63b a8ab 69bc ac81 e13d
00000040: 45a6 013e 47c0 51bd 858f 83bd 4650 a53b
00000050: 94b9 78bc 3743 a83d d66f 873c e193 b83d
00000060: 2218 843c 9e02 ec3d c1a3 87bd c0d2 66bd
00000070: ab6f 3dbd ad62 9b3d f72c 64bd 6bc4 8b3c
00000080: 8461 fcbc 05eb 12bd 0af6 92bd a051 33bd
00000090: c1ba 5fbd c3a0 073e 94f6 cbbc fb1a b9bb

projector.6.weight f4 [4, 40]
0.041003227 0.035790488 -0.06310556 0.13422847 0.025875637 0.12528822 -0.14345929 0.09448038
0.051910505 0.066522874 0.20982182 0.22567031 0.24194936 -0.08981138 0.028846532 0.16915901
0.16542925 -0.096628025 -0.1004749 0.017644705 -0.06373099 -0.027673539 -0.09936794 0.14734688
-0.12035705 0.086953975 0.058754027 -0.032476664 0.107154295 0.24963766 0.051458664 -0.03646794
0.03601543 -0.05638431 -0.028632723 -0.1289636 -0.08360804 0.22466002 0.16630541 0.09366301
-0.010587886 -0.14466389 0.14547408 -0.0018688096 0.13244057 -0.03323632 0.1264893 0.19557783
0.18314555 0.19889627 -0.049262736 0.0016381064 0.1772866 0.15497361 0.07774883 0.14330266
0.20367526 0.10904275 -0.060847092 0.15827364 -0.11062993 0.18133591 -0.08191155 0.123654954
-0.079731084 0.17730938 -0.10718842 0.01267336 0.14081149 -5.0116563e-05 0.115661845 -0.09682892
-0.0637058 -0.09564462 -0.09344871 -0.005381301 -0.10503169 -0.061654173 -0.01978746 0.115205884
-0.06903453 -0.098661155 0.13580216 0.05446023 0.12516889 -0.040599953 0.011609256 0.1769361
0.06774616 0.09747047 0.09644992 0.06171458 0.068549514 0.010334805 0.092269935 0.12020796
-0.02734073 0.104508236 -0.072492756 -0.08735134 0.13592748 0.12914944 -0.076091126 0.16078834
0.12960248 -0.0024313652 -0.04195336 -0.054354586 0.069275886 0.006039856 -0.06702626 0.09100738
0.17352061 0.14967485 -0.012695804 0.0848749 -0.08610305 0.2120055 -0.041267917 -0.08506437
0.022875413 0.08123748 0.051397577 0.10199582 0.1370027 -0.08313759 -0.13388821 0.10968793
0.016036786 0.09116826 -0.002998667 0.04708882 0.11987397 -0.12224367 -0.022543833 0.06957509
0.1592191 -0.01881697 0.021381557 0.16792211 0.03133093 0.006305852 -0.017962515 0.15646727
-0.06332937 0.14935608 0.07302362 0.07701933 -0.09312176 0.08389237 -0.11838536 -0.09303701
-0.0986062 0.06415017 0.016820082 0.15367867 0.038220797 0.028503574 -0.022003494 -0.024446253
00000000: 00f3 273d 0c99 123d 7d3d 81bd 3073 093e
00000010: 25f9 d33c 8e4b 003e fee6 12be ee7e c13d
00000020: 1ca0 543d 253d 883d 88db 563e 1e16 673e
00000030: 93c1 773e 07ef b7bd 904f ec3c 0538 2d3e
00000040: 4966 293e eae4 c5bd c9c5 cdbd a18b 903c
00000050: 6585 82bd 9eb3 e2bc 6b81 cbbd 1ae2 163e
00000060: c27d f6bd ed14 b23d 10a8 703d 4006 05bd
00000070: b673 db3d 04a1 7f3e 52c6 523d 685f 15bd
00000080: ea84 133d 3cf3 66bd 2c8f eabc 090f 04be
00000090: b13a abbd 470d 663e f74b 2a3e 64d2 bf3d
000000a0: d078 2dbc c522 14be 28f7 143e d8f2 f4ba
000000b0: 809e 073e cf22 08bd 6986 013e 8e45 483e
000000c0: 828a 3b3e 77ab 4b3e b9c7 49bd bbb5 d63a
000000d0: 9e8a 353e 67b1 1e3e c73a 9f3d efbd 123e
000000e0: 3f90 503e ce51 df3d cd3a 79bd 7c12 223e
000000f0: f291 e2bd 1fb0 393e 3ec1 a7bd cf3e fd3d
00000100: 0d4a a3bd 9790 353e 9a85 dbbd eda3 4f3c
00000110: e330 103e 4034 52b8 1ee0 ec3d 3e4e c6bd
00000120: 3078 82bd 54e1 c3bd 0a62 bfbd a055 b0bb
00000130: db1a d7bd 1689 7cbd 5019 a2bc 10f1 eb3d
00000140: fa61 8dbd dc0e cabd b90f 0b3e b111 5f3d
00000150: 462c 003e 234c 26bd c034 3e3c bd2e 353e
00000160: 80be 8a3d 999e c73d 8987 c53d 6dc8 7c3d
00000170: b063 8c3d 5053 293c 05f8 bc3d 972f f63d
00000180: abf9 dfbc 6a08 d63d 1577 94bd 42e5 b2bd
00000190: 9330 0b3e c03f 043e aad5 9bbd b3a5 243e
000001a0: 83b6 043e 8a57 1fbb 49d7 2bbd eaa2 5ebd
000001b0: 84e0 8d3d fce9 c53b 1045 89bd 1462 ba3d
000001c0: 63af 313e 5d44 193e 1002 50bc e4d2 ad3d
000001d0: cc56 b0bd f817 593e 8c08 29bd 3a36 aebd
000001e0: 3865 bb3c d65f a63d 4486 523d 2fe3 d03d
000001f0: 704a 0c3e 0a44 aabd fe19 09be 11a4 e03d
00000200: 945f 833c 6db6 ba3d 4985 44bb 35e0 403d
00000210: 7c80 f53d e45a fabd d8ad b8bc 637d 8e3d
00000220: 550a 233e 0c26 9abc 6028 af3c c6f3 2b3e
00000230: dc54 003d 52a1 ce3b 2026 93bc f538 203e
00000240: d4b2 81bd cdf0 183e 688d 953d 4fbc 9d3d
00000250: 9fb6 bebd c3cf ab3d 0674 f2bd 308a bebd
00000260: 0cf2 c9bd 2a61 833d 45ca 893c f15d 1d3e
00000270: 698d 1c3d 5480 e93c ac40 b4bc 8243 c8bc

projector.6.bias f4 [4]
-0.0093081705 0.17424583 0.036022052 -0.04899486
00000000: 4c81 18bc 806d 323e dc8b 133d d6ae 48bd
