models/squares/100/student_config.pt (torch, 45583 bytes, 6 tensors)

predictor.0.weight f4 [100, 2]
00000000: c864 033e 96b1 a43e d908 183f 1510 27be
00000010: 02ca ca3e af92 233e 9620 9e3c 8466 2a3e
00000020: c454 f83d 5e33 0cbe b067 933e 178d 9f3e
00000030: a031 39be 0096 8bbc dcf4 be3e 1e4f ef3d
00000040: c3e3 453e f4b0 6a3e 52ed 423c dbb6 fc3e
00000050: 220c 81be 46a7 993e a952 973e 6e6d 803e
00000060: 2650 fd3e 0a2a eb3c 9124 cdbd c651 183d
00000070: 2ca0 4c3e bd05 8c3c 7ac4 f53b 6e29 86be
00000080: 8824 013f 7d9b 46be a71b f43e 1291 a6be
00000090: 517e 2e3e 584b 27bf adbc b53e e756 3bbe
000000a0: 7db4 723e dd42 953e 319a 893e b8c6 d0be
000000b0: d16c 89bd 2093 673c 8bb0 2dbf d0b6 d53d
000000c0: cfdb 98be fe8c fd3d 7fb5 a2be d74e d7be
000000d0: a40c 28be 280d 0cbe 6c7d 1bbf 58d8 933e
000000e0: 795c c3bd 3126 423e 4be9 ffbe 0a29 263f
000000f0: 62b4 99be b865 0fbe bbe0 d3be 06fc 283f
00000100: c954 4abf 7adc cc3e 3483 013f d04f dfbe
00000110: 9373 543e 38a2 f53d f83b 24bf ece6 983e
00000120: 636b f43c ed22 293d a800 273f d537 8ebe
00000130: bee1 9d3e 0ad6 ad3e 916c 033f 479a e13d
00000140: f1e6 93be a033 c73e c08c 18bf 308c abbd
00000150: 7030 0fbf 80c4 bcbc fa65 973e a994 5ebf
00000160: d69a 193f 612e f7be 5d03 663e 6b81 17bf
00000170: 4379 aabe a060 9fbe 4ecc c53e a997 b1be
00000180: e18b 2b3f 0507 2cbf e287 1abf 902c 1bbd
00000190: fc0f 3cbe 2f88 f4be a99a 91be 047f 03be
000001a0: 9422 42be c9f2 8abe a4f5 2a3f 8045 18bf
000001b0: b2ab a83c cd41 c63e f822 f4be 695e ccbe
000001c0: 5b25 d63e 65fd 2cbf 8c2a 293f ed2a 92bd
000001d0: 91df 2b3f 0389 1cbf ba6d f8bc 8de8 923e
000001e0: 82e5 7fbd 0975 81bb d253 92be 7566 963e
000001f0: 210b 00bf dff2 1bbf 2ce1 8c3e 00d1 a73c
00000200: e242 b73d e9b8 803e cadc b2be 2d77 e0be
00000210: 9e19 c73e 1ea8 33bf 84b3 a9be 8bb7 a33e
00000220: 17a9 a6bd 4991 d53e 8482 11bf dd22 b8be
00000230: 2b90 37bf 5eff 603e 0f42 26be 2b0d 273e
00000240: 2782 0cbf bc07 1dbe e9d9 193f 903b ddbe
00000250: 47ab a7be 3b25 223e 4a93 1c3f e4ca 0abd
00000260: 22e8 ac3e c046 82bd c483 e3be 5b95 2cbf
00000270: 9d86 fe3d 76ea 3a3e 456c 223f fb40 993e
00000280: e970 c83d 5e24 fa3e 9c43 3fbe 0092 68bc
00000290: 07de 313e 1a12 003e 5df0 d8bd 5b53 a03e
000002a0: 09a3 17bf c48e a43e 884b f13e 346e cfbe
000002b0: 804c 3fbc 7056 9bbd 4040 43bd 7c6b 66be
000002c0: fc63 a03e ffe5 6b3e e589 0b3f c9f0 b43e
000002d0: 01d5 1ebf 714e 16bf e490 0b3f a427 113f
000002e0: 9af0 59be f84b 1cbf bd5b cc3d 05b9 01bd
000002f0: fcd2 2e3e 520f fd3c 005c 21bf e3cc c7be
00000300: 09c5 45bf 35a7 f93d b850 8b3e 50a8 133c
00000310: c745 e13e 1304 843e 0c3f 06bf e71e f73e
0.12831414 0.32166737 0.593885 -0.16314729 0.39607245 0.15973924 0.019302648 0.16640669
0.12125543 -0.1369147 0.28790045 0.3116233 -0.18085337 -0.017039299 0.37296188 0.11685012
0.19325165 0.22919065 0.011897402 0.49358258 -0.2520457 0.30010432 0.29555252 0.25083488
0.4947521 0.02870657 -0.1001674 0.03718736 0.19982976 0.01709258 0.0075002285 -0.26203483
0.5044637 -0.19395252 0.47677347 -0.32532555 0.17040373 -0.6534934 0.3549551 -0.1829487
0.23701663 0.29152575 0.2687545 -0.4077661 -0.06710208 0.014134198 -0.6784751 0.10435259
-0.298552 0.12380408 -0.31779096 -0.42052338 -0.16411072 -0.13676894 -0.60738254 0.28875995
-0.09539122 0.18959881 -0.49982676 0.6490637 -0.30020434 -0.14003646 -0.41382393 0.6600956
-0.7903562 0.4001196 0.50590825 -0.4361558 0.20747213 0.119938314 -0.64154005 0.2986368
0.029836362 0.041293073 0.65235376 -0.2777697 0.3083629 0.3395236 0.51337534 0.11015754
-0.28887132 0.38906574 -0.5958977 -0.08376348 -0.55933285 -0.023042917 0.2956999 -0.8694559
0.60001886 -0.48277572 0.2246222 -0.5918185 -0.3329564 -0.31128407 0.38632435 -0.3468602
0.67010313 -0.6719821 -0.6036359 -0.037884295 -0.18365473 -0.4776015 -0.2843831 -0.12841421
-0.18958503 -0.27138355 0.6678107 -0.5948105 0.020589683 0.38722077 -0.4768293 -0.3991578
0.41825375 -0.6757415 0.66080546 -0.07137094 0.6713801 -0.61146563 -0.03032576 0.28693047
-0.062474735 -0.0039507193 -0.28579575 0.29375044 -0.5001698 -0.60917467 0.27515543 0.020485401
0.08948304 0.25141075 -0.34934074 -0.43840924 0.38886732 -0.701784 -0.33144772 0.3197597
-0.0813772 0.41712406 -0.56839776 -0.359641 -0.7170436 0.21972415 -0.16236137 0.16313617
-0.54886097 -0.15334982 0.6009813 -0.43209505 -0.32747862 0.15834515 0.61162245 -0.033884898
0.33770853 -0.06361151 -0.44436467 -0.674154 0.12428019 0.18253502 0.63446456 0.2993239
0.09787161 0.4885587 -0.18678135 -0.014194965 0.17369853 0.12506905 -0.10592721 0.31313595
-0.59233147 0.32140172 0.47127938 -0.40513766 -0.011675954 -0.07584846 -0.047668695 -0.2250194
0.31326282 0.23036955 0.54507285 0.35339954 -0.6204377 -0.5871344 0.5451796 0.5670111
-0.21283188 -0.6105342 0.09978435 -0.03167059 0.17072672 0.030891094 -0.63031006 -0.39023504
-0.77253777 0.12190095 0.2721002 0.009012297 0.43998548 0.25784358 -0.5243995 0.48265764

predictor.0.bias f4 [100]
00000000: 53e3 c33f a3ee cbbf cfea 19c0 a7a8 24c0
00000010: cf11 2abf a0d8 0840 6830 793e 7db1 07c0
00000020: 53e7 7e3f 8d11 cbbf 0f4b 0340 36c5 be3f
00000030: 51cb 943f ce08 f73f 73ec c2bf 7f9d dabf
00000040: c9eb d1bf e2bd 0cc0 ad44 2640 a06f 2240
00000050: 8f1c eebf 3ea8 c83f 08de 3a40 f028 95bf
00000060: 1022 10c0 882e c83d 0d64 98be edc4 b4bf
00000070: f11a 8bbf 60f0 d0bf 3886 b0bd 4a7d e5bf
00000080: bf8b 19be 8d4d e5bf 466b b93f e4b7 953f
00000090: 2460 78c0 c6d1 8b3f 0f2e d53f d41a 0440
000000a0: 2227 dfbf e066 b83d 86fc a73e 703e 8ebd
000000b0: 2c5c 0240 b524 e3bf 40b8 2dbe 5ba6 eb3f
000000c0: 50d5 eabf f545 28bf 00ae b23c 6180 00bf
000000d0: 2fcc 083f 6721 72bf bec0 2fc0 86a8 c43e
000000e0: 83c2 303f 8a29 0dc0 42c7 bebf 8c92 cf3f
000000f0: caf7 cfbe f246 3140 0b7a 323f 06c0 0b40
00000100: 9c3e e0be fc37 143e 6b7b bc3f b372 e13f
00000110: 87da b2bf 391f 113f 8de2 893f d279 36c0
00000120: e05a b8bd c5da bebf cf17 0340 21ea eebf
00000130: 3d1d de3f 58f4 07bf 69a9 0740 4fbd 89bf
00000140: 2ecd 25bf 7b77 003f 9ed1 b03f 73f6 9c3f
00000150: 94b9 05bf cef7 e6bf 13f3 a7be ed53 f8be
00000160: a54a 0340 00d9 f43f 5789 023f f6b7 fd3f
00000170: dca7 f4be cd1d d7bf 7c8d 08c0 acd3 2dbe
00000180: 0872 b9bf 8867 b5bf cf49 0440 e383 e73f
1.5303749 -1.5932201 -2.4049566 -2.5727937 -0.66433424 2.1382217 0.24334872 -2.120208
0.9957172 -1.5864731 2.0514562 1.4903934 1.1624547 1.9299562 -1.5228409 -1.7079314
-1.6400081 -2.1990895 2.5979416 2.538063 -1.8602465 1.5676343 2.9198017 -1.1653118
-2.252079 0.097745 -0.29763833 -1.4122597 -1.0867597 -1.6323357 -0.0861935 -1.792886
-0.14994715 -1.7914292 1.4485862 1.1696744 -3.880868 1.0923393 1.6654681 2.0641375
-1.7433817 0.09003997 0.32809848 -0.06945503 2.0368757 -1.7745577 -0.16964817 1.8410143
-1.8346348 -0.65731746 0.021811485 -0.5019589 0.5343656 -0.9458222 -2.746139 0.38409823
0.690468 -2.2056603 -1.4904559 1.6216598 -0.40618736 2.7699552 0.6971747 2.1835952
-0.43797767 0.14474481 1.4725164 1.7613128 -1.3972939 0.56688267 1.0772263 -2.8511853
-0.09001708 -1.4910513 2.0483282 -1.86652 1.7352673 -0.53107214 2.119715 -1.0760897
-0.64766204 0.5018231 1.381397 1.226271 -0.52236295 -1.8044374 -0.32802638 -0.4850153
2.051431 1.9128723 0.50990814 1.9821765 -0.47784317 -1.680597 -2.1336355 -0.16975278
-1.4487925 -1.417222 2.067005 1.8087124

predictor.2.weight f4 [100, 100]
00000000: 54e8 81bc 9b54 92bd d77e 833d 6d5a 95bd
00000010: f6ab 203d bd98 c83d c8fd a7bc 9ea8 653d
00000020: c0bb 68bb 7ba3 af3d e87d b3bd b8b1 bcbc
00000030: a8c2 043c 0055 203a aac4 0dbd d0eb 34bd
00000040: d491 973c a8be 6e3c c37a a23d fa14 01bd
00000050: 77fa 68bd 2199 b33d 4897 9abc d02f 56bd
00000060: 80b3 973a a0da 8bbb 07d7 62bd 604c 53bd
00000070: 9a3b 59bd d090 23bd d6dc 3f3d 3ccd e93c
00000080: 9293 6a3d d010 553c 83d3 c8bd 26a2 04bd
00000090: 60e2 da3b 5aef 5abd b80a 9abc b953 993d
000000a0: 81b6 ba3d 92c9 1c3d 6ef9 93bd b041 1cbc
000000b0: 95d8 bf3d a043 b4bb 560d 583d c27a 9abd
000000c0: 355f 84bd 68e7 423c 20dc e9bc 68d1 3a3c
000000d0: 9f73 b53d 7980 b33d 86d1 323d f319 cb3d
000000e0: b020 66bc 287f 903c de98 333d 00a4 06bd
000000f0: 2bae acbd 29c7 b13d 40bf 993a 0ce3 c23c
00000100: f2c0 1c3d 208a d8bc d278 633d 6c56 b03c
00000110: c7a4 41bd 3876 a3bc 28dc 42bc a97f 823d
00000120: b361 7dbd 37b2 6abd e78b 3ebd 7048 6ebc
00000130: 2026 b7bb 312e 993d 7f1f ca3d 6014 bc3b
00000140: a066 d0bb a091 b6bc da4b 113d f002 393c
00000150: 00c8 23bc cb0b ccbd 4011 143b 40c4 fabc
00000160: 9d97 29bd 6861 79bc a214 3f3d 0c72 8abd
00000170: 7d1e 943d 18a1 3d3c a15d a43d 5daf 5bbd
00000180: e8f3 453c 0040 643a fa69 bbbd 9d54 46bd
00000190: 4054 0d3b a81b c6bc 2473 15bd 2a4d 03bd
000001a0: 60ba f3bb d013 383c 591c 893d 585d b6bc
000001b0: fb56 a7bd 15a6 c53d 158d b2bd 8075 863b
000001c0: 36e1 18bd 7628 653d 6c37 0abd b0fb 2abc
000001d0: 0a57 313d 510f c23d 207d 873b d0b5 bcbb
000001e0: e84e e2bc c0d6 563b dd8f 50bd 3f9f 863d
000001f0: 4530 993d a465 d63c 0893 b3bc d596 be3d
00000200: edaa 32bd 003d 553a 272f c23d be54 5e3d
00000210: 4bba 9cbd a3d0 c2bd 7e47 5a3d 28bb 01bc
00000220: bd36 c6bd c8e7 8cbc bb26 c33d 50c5 763c
00000230: d75e 3ebd d73c 1bbd c0c7 04bd b278 1c3d
00000240: 13af 19bd a0b2 3dbb 6322 b4bd 418f 9e3d
00000250: 37bc 60bd ed6b 3abd d9ba 8b3d 0262 a8bd
00000260: c0d5 1ebd 20a2 4bbd 5729 7ebd 55f1 9dbd
00000270: 6079 8b3b 184f 82bd afdf b3bd e615 503d
00000280: aba7 ccbd b6f5 a0bd 609f 60bb f0b0 aabd
00000290: 886e bdbd 22f6 223d 3705 76bd df14 a93d
000002a0: 5abd 5cbd c615 023d c014 59bd d4cb 9f3c
000002b0: 884a bbbd 174b 23bd bf76 963d 18d9 a9bd
000002c0: d7ce 44bd 1622 4b3d 180c eebc 408a 16bb
000002d0: c0ba 3fbd 9bc1 a43d e154 933d ec2a 07bd
000002e0: e366 943d 2900 bb3d 62e0 5e3d d700 29bd
000002f0: 72bf 063d 36d4 563d 00b8 83bb 2507 aabd
00000300: 908d 4abc f881 8a3c d291 0c3d 3c9e 10bd
00000310: 6775 54bd 4073 bd3c bdb6 8ebd 5014 abbd
00000320: 7507 2b3d 46d0 3e3b 9d8c 03bc 5b72 a93d
00000330: 2506 543b 73b8 e4bc 3105 c83d 04fd d63c
00000340: f36d 973a 2092 883a bb0e ffbd 7258 7b3d
00000350: 7069 41bd 2f5a 863e 0579 b83d 67b0 d43e
00000360: 43d1 01bd e3ba e43d 0c6e 53be 22c8 c6bd
00000370: e77a 0439 037f 6ebd 00b9 c03d 726f 603a
00000380: d065 803e 98a8 8c3c 9442 eabc d818 4e3e
00000390: 0456 343d 5360 26bd dc2b 01bd 54b7 8a3b
000003a0: 7a83 063e 9c84 d1bb 8d98 373d 1bec 583e
000003b0: 7120 713f bc14 113d 9d0c 86bc 6420 f73c
000003c0: 70da a63c de33 243d 13bc 8d3d daa4 b23e
000003d0: b3ff 21bd 1737 853e 97b8 b33d 7e08 23bd
000003e0: 132c e33b 18d4 bebd 2503 b13d 23f4 9c3d
000003f0: a7cc 4ebd b814 a7bc 58f0 efbc c017 1bbd
-0.015857853 -0.071450435 0.06420677 -0.07292638 0.039226495 0.097947575 -0.020506755 0.05606901
-0.0035512298 0.08576103 -0.08764249 -0.023033962 0.00810305 0.00061161816 -0.03461138 -0.0441702
0.018502153 0.014571823 0.07933571 -0.031514145 -0.056879487 0.087694414 -0.018870965 -0.05229169
0.0011573881 -0.0042680055 -0.055380847 -0.05158651 -0.053035356 -0.039933026 0.046841465 0.028540246
0.05726964 0.013004497 -0.09805968 -0.0323812 0.006679818 -0.05345092 -0.01880394 0.07486672
0.09116841 0.03827817 -0.07225309 -0.0095371455 0.093674816 -0.0055012256 0.052747093 -0.075429454
-0.06463472 0.011895992 -0.028547347 0.011402465 0.088599436 0.087647386 0.04365685 0.09917059
-0.014045879 0.017638758 0.043846957 -0.032871246 -0.084316574 0.08680565 0.001172997 0.023789905
0.038269944 -0.02643305 0.055535145 0.021525584 -0.047276285 -0.019953832 -0.01189331 0.063720055
-0.06186075 -0.057298865 -0.04652014 -0.014543638 -0.0055892617 0.074795134 0.09869289 0.0057397336
-0.00635989 -0.022286236 0.03547273 0.011292204 -0.009996414 -0.09963187 0.002259329 -0.030611157
-0.041404355 -0.015220977 0.046650536 -0.06760034 0.07232378 0.011574052 0.08025671 -0.053634036
0.012082078 0.00087070465 -0.09151073 -0.048420537 0.002156511 -0.02418311 -0.03648676 -0.03205601
-0.007437989 0.011235192 0.0669486 -0.022261307 -0.08170887 0.09650818 -0.087183155 0.0041033626
-0.037324153 0.05594679 -0.03374426 -0.010435984 0.043295898 0.094755776 0.004134789 -0.0057589784
-0.027625516 0.003278181 -0.05091845 0.065733425 0.0747991 0.026171513 -0.021920696 0.09306113
-0.04362004 0.0008134395 0.0948165 0.054280035 -0.0765272 -0.095124505 0.053290837 -0.007918157
-0.09678409 -0.017200366 0.095288716 0.015061691 -0.046477165 -0.03789982 -0.03241706 0.03820104
-0.03752048 -0.002894558 -0.08795621 0.07742167 -0.054866996 -0.045513082 0.06822748 -0.082218185
-0.038778067 -0.04971516 -0.062051143 -0.07712046 0.0042564124 -0.06362742 -0.08782899 0.050802134
-0.099929176 -0.07859366 -0.0034274682 -0.083345294 -0.09249598 0.03978551 -0.060063567 0.08255934
-0.053891517 0.031759046 -0.052998304 0.019506373 -0.09145075 -0.039866533 0.07346868 -0.082933605
-0.04804882 0.049593054 -0.029058501 -0.0022970587 -0.046808958 0.0804474 0.07193924 -0.032999918
0.072461866 0.0913089 0.054413207 -0.041260567 0.03289742 0.052448474 -0.0040197372 -0.08302144
-0.012362853 0.016907677 0.034318753 -0.035307154 -0.051869776 0.023126245 -0.06968448 -0.08353484
0.04175516 0.002911584 -0.00802913 0.08273765 0.0032352295 -0.027919983 0.09766615 0.026243694
0.0011553153 0.0010419525 -0.124539815 0.061363645 -0.047219694 0.2624068 0.09007458 0.41540834
-0.03169371 0.11168458 -0.20647448 -0.09706141 0.00012634286 -0.058226597 0.09410286 0.00085615285
0.25077677 0.017170236 -0.0285962 0.20126665 0.044027343 -0.040619206 -0.03153597 0.00423328
0.13136092 -0.006393982 0.044823218 0.21183817 0.94190127 0.035420164 -0.016363436 0.030166812
0.020367831 0.040088527 0.06920638 0.34891397 -0.039550494 0.26018593 0.08775442 -0.03980302
0.0069327443 -0.093177974 0.08643178 0.07663753 -0.05048814 -0.020395622 -0.02928941 -0.037864447

predictor.2.bias f4 [100]
00000000: e930 883d e158 bd3d b625 babf 38ab c1bf
00000010: ad8a cbbb e1aa d3bf d838 353c 75cb a43f
00000020: 9f1a bc3f 01af e43f a7ff c5bf 7ff9 7fbd
00000030: ffc5 aebd 50fa 7a3c 7165 9d3d 95ab c43f
00000040: 8d54 e13f 1954 a4bd 69e7 9abf bd94 cbbf
00000050: c90c c33f 190d e63e 77ef ac3f 777f 03bf
00000060: 6e63 d9bf 10ea 44bc 2882 f4bf 8cfc e3bc
00000070: 9a5c 043d ad03 9b3f 859f d83f 59aa 3ebf
00000080: 1a62 243d 3e47 713f ea32 283d 66e9 313d
00000090: 1604 8fbc 64e0 a6bf 05ce ba3f e88c 98bd
000000a0: 9837 163c 9ee9 cf3f 281d 3c3c 74c1 e1bc
000000b0: fa6b a3bd 5728 003d 8f66 c3bf 829f 9bbd
000000c0: 707c 5d3f 86c1 c5bf 231a b0bd af27 a8bf
000000d0: 21b0 433f d334 74bf c5ff d33f 529c 593d
000000e0: 8cc0 eabf 65fc 8dbd ff81 b4bd f503 b83f
000000f0: a69b 933d 80a7 ce3f 7962 813f 7f53 abbf
00000100: bb82 1c40 1c9d 793d a7d1 523f efc8 d33e
00000110: 001b 813b 2037 dd3f 1ba4 adbf afd1 bfbf
00000120: f7d1 62bd 2c49 b6bc d413 edbf b773 943c
00000130: c0a6 38bc 80da 90ba bdaa 943f 4669 d9bf
00000140: 8c87 cf3c 9c7f 7cbd 61e1 e03f b5fe b0bd
00000150: 50d0 8fbd 3970 83bf 0051 bcbb 46cf 113d
00000160: 82ff 253d d79b 0040 eabc 71bd 8411 f53f
00000170: 30f0 c3bd 2234 03c0 1929 c33f 29e4 c03f
00000180: 219d 963d c905 d23f 36da 08bf 806d 49ba
0.06649954 0.09245468 -1.4542758 -1.5130377 -0.0062116 -1.6536523 0.011060916 1.287459
1.4695624 1.7865907 -1.5468644 -0.062493797 -0.085338585 0.015318468 0.07685364 1.5364863
1.7603928 -0.08023853 -1.2101871 -1.5904766 1.5238277 0.44931868 1.3510579 -0.5136637
-1.6983469 -0.0120186955 -1.910222 -0.027830385 0.032314874 1.2110497 1.6923681 -0.7447868
0.04013262 0.9424933 0.04106418 0.043435477 -0.017458003 -1.3037229 1.4594122 -0.07448751
0.009168528 1.6243169 0.011481561 -0.027558066 -0.07979579 0.03128847 -1.5265673 -0.07598783
0.86518 -1.5449684 -0.08598735 -1.313711 0.76440626 -0.95393103 1.656243 0.053127594
-1.8340011 -0.06932906 -0.08813857 1.4376208 0.07207422 1.6144867 1.0108176 -1.3384856
2.4454792 0.060940847 0.82351154 0.41364238 0.003939986 1.7282448 -1.3565706 -1.4985865
-0.05537602 -0.022251688 -1.8521676 0.018121583 -0.011270225 -0.0011051446 1.1614605 -1.6985252
0.025333188 -0.061645135 1.756878 -0.086423315 -0.07022154 -1.0268623 -0.0057469606 0.035598062
0.040526874 2.0095117 -0.059018053 1.914597 -0.095672965 -2.050057 1.5246917 1.5069629
0.07354189 1.6408015 -0.53457963 -0.0007683858

predictor.4.weight f4 [4, 100]
00000000: 60ff bcbc 00d5 8239 4849 27bc a63c 21bd
00000010: 61d9 473d b7dc efbc 93e0 a93d f59c 5e3d
00000020: 7a63 9fbf 99e7 13bf bb0e 653c 9029 dc3c
00000030: f956 ae3d b2b6 b3bd a974 8ebd 49f9 a5bc
00000040: b4b8 26bd c220 193d 94ce 333e b660 31bd
00000050: f3dc 2d3d 584d 76bf 92db 8ebd 45de 0ebc
00000060: a02c 473d 50e6 803b ef5f 823d f4ee ac3c
00000070: 68db c5bc 8255 87bc dfe7 79bc 3833 df3e
00000080: 9c05 80bd a3f4 7e3d 7481 fdbc 8cc1 88bc
00000090: 97ec 4d3d cc3f 38bd 1797 5f3e a548 b53d
000000a0: 2fda bbbd 1342 cb3c 18fe 84bd fe9c 93bd
000000b0: 2002 90bc d372 f03c 30fe 13bb 4a91 9bbd
000000c0: a16d 953c 88f0 bb3d d825 8dbd f26f d4c0
000000d0: 4a3a d1bb 9ff9 d9be e520 9c3b a67c 90bd
000000e0: a1d8 3abd 19e6 a03d 7215 863d 98aa 8ebe
000000f0: 19c0 ba3d 0e50 04bd 3b4b 953d d827 493e
00000100: 14f4 4140 33b5 fe3d 4cad 743d 6c48 9abc
00000110: 2c52 9c3c f0c2 78bd 0191 99bd ceda 9a3d
00000120: b979 9a3b 7b03 c03d dd84 863d 842d 9f3d
00000130: 187b aa3c 48db c3bd df36 4e3d aa5f 5cbf
00000140: 453e aebd eaef 3dbd d603 31be 4979 853d
00000150: 6720 8fbd 0960 8cbb 803d 6abd 4c6e afbc
00000160: e4ce eb3c 2e31 b5bf 59a4 bd3d adf8 22bc
00000170: 2bb6 1ebd 7fc0 fe3d cf8a 4ebd ae81 0fbe
00000180: d60b 0d3d d0de debe 0f59 023d 878a 59bd
00000190: 1fe4 b7bd 9e1b a8bd dbed 15be f9b7 2bbf
000001a0: 9e8c 333d 9cb8 b0be b2f0 733d 9977 ab3d
000001b0: e748 a33d b2f4 983e fcb3 5fbd de8b 713c
000001c0: bb18 833d 62a3 c9bd 1d17 e1bd 943c 9f3e
000001d0: 3b25 e63e aae0 43bd b244 5ebe 0e73 83be
000001e0: 1164 ae3e 0ef6 a03f 1a7b 8abc b2f7 a33d
000001f0: f074 a7be e066 8ebd 2803 3dbf 2469 d03c
00000200: e843 e6bc 6664 0bbd 097f f33e 7975 b0be
00000210: 4021 d8ba 332b fa3e e675 273d 80d6 7cbd
00000220: 2a9c 55bd 1622 e53c b2f9 933e 60e9 8f3b
00000230: 2314 4cbd 0d54 5b3e 4fd2 c83d d82a aebc
00000240: 98e2 70bc 2c49 00bd b272 eabd e5e1 92bd
00000250: 1bc0 4b3d 5d5f 8bbd a9bf aebd dd26 a9be
00000260: 00a1 793d 7591 0f3f 7c30 b73e 1141 8e3d
00000270: 570a a6bf 0ea5 d8bd 4bcc 393c c889 ab3e
00000280: f9e8 133d 9e7b e23e 372e a03d 77df acbe
00000290: f517 003f f70b 18bd 8a5a 7c3d a720 fd3e
000002a0: b81e 84bd 9ec1 313e 4071 b5bd 27fb c5bd
000002b0: 159c 913c e906 b83d d7b7 e8be 73a3 533d
000002c0: e0e4 973b 867e 473d 0287 81bc 2d87 9ebe
000002d0: 956a c3bd b59e 243d 0b7b a63e 7559 9a3d
000002e0: 3691 e5bc 17b8 bf3d a4dc fd3c a666 093d
000002f0: 523b b2bd 8801 8d3e edba 843d 5b39 bd3e
00000300: 87f6 833d 67ae 13bf 2365 9a3e 1246 e63d
00000310: a9a0 9e3d a959 e43e 310c 65be 804d f83b
00000320: 501c 9dbd b0ea 773c 8771 3fbd 4a8a 293f
00000330: 3880 0d3c 4d4c 7fbd 37fc b8bd 00f5 aebd
00000340: 51b1 6f3e 966f 083e d332 f5bd 9611 173d
00000350: 1be9 b23d aaf1 56bd 7984 dfbc 1849 7bbe
00000360: bd9c 083f 4a02 10bd eca3 253f 8cde 3fbd
00000370: 912f 3cbf a334 673d c1c7 873d 3b88 973d
00000380: c5e5 843d a33b 8dbd 90c5 583f 3d5b 3bbd
00000390: 0da3 c6bd 325e dfbc f28f a93e 09f1 a9bb
000003a0: ea78 2f3d f8f6 a6be 83dc 68bd 03bf 53bd
000003b0: 82a4 233d f369 05be 8c0e e83d 83dd 34bd
000003c0: 9013 28bc 18cd cabd 56b8 1c3d 8066 d6bb
000003d0: 2282 023d 78c6 423d 718c 6abe 56d1 a3bd
000003e0: 6057 19bd 2d8f 6d3d f690 3abd 4aee c63d
000003f0: f714 b0c0 29e4 b7bd b7e9 cd3c c8fb c5bd
-0.023070991 0.0002495423 -0.010210343 -0.03936448 0.048791293 -0.02928005 0.08294787 0.054348905
-1.2452233 -0.57775265 0.013980563 0.026875287 0.085126825 -0.08775081 -0.06955845 -0.02026047
-0.04070349 0.037384756 0.17559272 -0.04330512 0.04244704 -0.9621177 -0.069754735 -0.008719985
0.048626542 0.0039337054 0.06365954 0.021110035 -0.024152473 -0.016520265 -0.015253036 0.43593764
-0.0625107 0.062245023 -0.030945517 -0.016693853 0.050274458 -0.044982716 0.2183498 0.088517465
-0.091724746 0.02481178 -0.06493777 -0.07207678 -0.017579138 0.029351627 -0.0022581927 -0.07596071
0.018240752 0.09176737 -0.06891984 -6.638665 -0.0063851224 -0.42573258 0.0047646635 -0.07055025
-0.04561675 0.07856388 0.06547059 -0.27864528 0.09118671 -0.03230291 0.0728974 0.19644105
3.0305223 0.12436905 0.05973558 -0.018833362 0.019082151 -0.060732782 -0.074983604 0.07561265
0.0047142175 0.09375664 0.065683104 0.07772353 0.020810649 -0.09563309 0.050345298 -0.8608347
-0.08507971 -0.046371378 -0.1728662 0.06517274 -0.06988602 -0.004283909 -0.057187557 -0.021414898
0.028785177 -1.4155633 0.092598625 -0.009946984 -0.038747948 0.124390595 -0.050425347 -0.14014313
0.034435116 -0.43529367 0.031823214 -0.053110626 -0.089790575 -0.082083926 -0.14641516 -0.67077595
0.043835275 -0.34515846 0.059555717 0.08372421 0.079728894 0.29874188 -0.054615006 0.01474282
0.06401201 -0.09845616 -0.10990737 0.31100905 0.4495028 -0.04782168 -0.21705893 -0.25673717
0.3406072 1.257509 -0.016904403 0.080062285 -0.32706404 -0.069532156 -0.7383294 0.02544076
-0.028108552 -0.034031294 0.47557858 -0.34464625 -0.0016489401 0.48861083 0.04088392 -0.061728
-0.052150883 0.027970355 0.2890144 0.004391834 -0.04982389 0.21418782 0.09805738 -0.021260664
-0.014702462 -0.031319782 -0.11447658 -0.07171992 0.049743753 -0.068052985 -0.0853265 -0.33037463
0.060944557 0.56081325 0.35779178 0.06946004 -1.2971905 -0.10578357 0.011340211 0.33503556
0.036110852 0.44234937 0.07821315 -0.3376424 0.50036556 -0.037120786 0.061609782 0.49438974
-0.06451172 0.17359015 -0.08859491 -0.09667044 0.017774621 0.08985693 -0.4545276 0.05166955
0.0046354383 0.048704647 -0.015811447 -0.30962506 -0.09541813 0.040190417 0.3251575 0.07536594
-0.028023344 0.09361284 0.030988999 0.03354516 -0.08702721 0.2754023 0.06480966 0.3695782
0.06443506 -0.5768799 0.30155286 0.112438336 0.07745487 0.44599655 -0.22367932 0.007577598
-0.07671416 0.015131637 -0.046739127 0.6622664 0.008636527 -0.062328625 -0.09032481 -0.08542824
0.23407485 0.13323817 -0.119725846 0.036882006 0.087358676 -0.052476563 -0.027284848 -0.24539602
0.53364164 -0.035158433 0.6470325 -0.046843097 -0.7351008 0.056446683 0.06629897 0.07399031
0.064891376 -0.068961404 0.84676456 -0.04574131 -0.09699068 -0.027266596 0.33117634 -0.0051862043
0.042839922 -0.32610297 -0.05685092 -0.051695835 0.03995181 -0.13028698 0.113308996 -0.044156563
-0.01025857 -0.099024 0.038261734 -0.0065429807 0.031862386 0.047552556 -0.22905137 -0.07998912
-0.037436843 0.05799787 -0.0455484 0.09713419 -5.502559 -0.08979065 0.025135858 -0.09667164

predictor.4.bias f4 [4]
00000000: 0bed be3e 9b82 b33f e3ff 383f 444c c1bf
0.37290224 1.4024233 0.7226545 -1.51014
