models/squares/100/student_config.pt (torch, 45583 bytes, 6 tensors)

predictor.0.weight f4 [100, 2]
-0.23282745 -0.63750917 -0.028292263 0.014016826 -0.020943874 0.11869983 0.34808975 -0.5665351
0.49412626 -0.5998812 -0.4519698 0.17713179 -0.071694314 -0.102519095 -0.10957079 0.106764264
-0.16766107 0.26385966 0.58914536 -0.47916013 -0.41471994 -0.68720865 -0.23193105 0.09239149
-0.23963487 0.105519034 0.0061700596 -0.058901697 0.010227838 -0.11219997 -0.00088642363 -0.31538618
-0.28641757 -0.58656704 0.41075498 -0.4330734 0.49623957 -0.20251393 -0.028773012 -0.35696307
0.32053134 -0.35058033 -0.0048960983 -1.0595895 -0.50671333 0.37721422 -0.7065018 -0.5368995
-0.0473482 -0.20210934 -0.35122442 0.27620342 -0.106831975 0.2513884 0.04385919 -0.2641129
-0.1666351 0.065808505 0.2926642 -0.60296655 -0.7378356 0.65906966 -0.05740492 0.053555492
-0.013907049 -0.054666486 0.08865113 -0.3134993 -0.2651883 -0.076101184 -0.3041228 -0.22348803
-0.7315392 -0.0011448183 0.014417461 -0.081198916 0.21861023 -0.07100938 0.31328127 -0.089574866
-0.020855714 -0.024679232 -0.1519753 0.026163723 0.0060146535 -0.001513936 -0.060638558 0.020139236
-0.01594515 -0.061048068 -0.3579868 -0.5770458 0.4265858 -0.63593334 0.0632658 -0.28095812
-0.61207044 -0.14570433 0.009436086 0.20161697 0.49782082 -0.7049653 -0.54740775 -0.07853341
0.37914208 -1.0187354 -0.13110629 0.16170007 0.03816072 -0.04529394 -0.63034666 0.31012148
0.006229743 -0.010763037 0.03046839 -0.13938588 -0.71384615 0.024579467 -0.08940947 -0.6675561
-0.3246533 0.3820813 -0.678542 -0.40111864 -0.2807991 0.3884192 -0.46828127 0.30604303
-0.89992595 0.15383524 -0.22345263 0.2745433 -0.34587127 -0.29542908 -0.13956684 -0.22434843
0.086823836 -0.21756008 -0.16546994 -0.17536694 0.07079135 0.14196976 -0.017460145 -0.6992679
-0.40559882 0.07798323 0.3523143 -0.38646674 -0.009223762 -0.018865142 -0.029550068 -0.14124794
-0.045162577 0.13001262 -0.013798577 -0.004330778 -0.3424406 -0.13821357 -0.23220506 0.36610863
0.055818398 0.0056206537 0.4254085 -0.972605 -0.6105581 0.3585093 0.008556536 -0.13413823
0.19689117 -0.35087216 -0.6158837 0.53549236 0.061551493 0.03326649 -0.04069575 0.034982357
-0.048796996 0.13124007 0.06757322 -0.38714218 -0.6882292 -0.38021228 0.2525328 -0.1531189
0.0027957745 -0.10924503 0.16248956 -0.19533749 -0.047553767 0.0575983 -0.16902754 -0.015547086
-0.4873209 -0.64607567 -0.6411243 -0.011345078 -0.5264356 -0.45347995 -0.010151982 -0.15588027
00000000: 526a 6ebe cd33 23bf 2dc5 e7bc d4a6 653c
00000010: 7d92 abbc e518 f33d d238 b23e 7208 11bf
00000020: 1efe fc3e d091 19bf 9668 e7be 0962 353e
00000030: 78d4 92bd 88f5 d1bd a666 e0bd 39a7 da3d
00000040: 58af 2bbe 9d18 873e 3bd2 163f 7a54 f5be
00000050: 2c56 d4be e8ec 2fbf 557f 6dbe c037 bd3d
00000060: d862 75be 5d1a d83d 362e ca3b e842 71bd
00000070: a992 273c 19c9 e5bd e25e 68ba 4c7a a1be
00000080: 53a5 92be 4229 16bf 7a4e d23e ccbb ddbe
00000090: 1d13 fe3e d05f 4fbe 61b5 ebbc ddc3 b6be
000000a0: af1c a43e 447f b3be 736f a0bb a1a0 87bf
000000b0: f7b7 01bf 3922 c13e 4ddd 34bf 3f72 09bf
000000c0: 30f0 41bd c0f5 4ebe b0d3 b3be 896a 8d3e
000000d0: b9ca dabd fbb5 803e b2a5 333d ce39 87be
000000e0: 64a2 2abe 9cc6 863d 15d8 953e 045c 1abf
000000f0: cbe2 3cbf cab8 283f 6c21 6bbd 015d 5b3d
00000100: 64da 63bc f7e9 5fbd b98e b53d fb82 a0be
00000110: c3c6 87be f0da 9bbd fcb5 9bbe 0cda 64be
00000120: 2746 3bbf ba0d 96ba 3737 6c3c 9e4b a6bd
00000130: 5cdb 5f3e 5e6d 91bd 6766 a03e 0773 b7bd
00000140: 9ad9 aabc 1a2c cabc 6a9f 1bbe 4e55 d63c
00000150: 9216 c53b 436f c6ba 2360 78bd 0afb a43c
00000160: 679f 82bc 8a0d 7abd 0c4a b7be 46b9 13bf
00000170: 7469 da3e 87cc 22bf 8091 813d bed9 8fbe
00000180: a6b0 1cbf 8433 15be d099 1a3c ae74 4e3e
00000190: 5fe2 fe3e 9b78 34bf ea22 0cbf 20d6 a0bd
000001a0: e91e c23e ec65 82bf ba40 06be b494 253e
000001b0: 6a4e 1c3d 2386 39bd 665e 21bf 3ec8 9e3e
000001c0: df22 cc3b 7357 30bc d898 f93c 2cbb 0ebe
000001d0: 9fbe 36bf e15a c93c 501c b7bd f5e4 2abf
000001e0: f538 a6be 29a0 c33e eeb4 2dbf 6c5f cdbe
000001f0: e6c4 8fbe e2de c63e 90c2 efbe acb1 9c3e
00000200: 8c61 66bf fc86 1d3e c4d0 64be f090 8c3e
00000210: 0a16 b1be 7b42 97be 9cea 0ebe 98bb 65be
00000220: b2d0 b13d 12c8 5ebe f470 29be 6493 33be
00000230: 0efb 903d 8560 113e 9408 8fbc 3903 33bf
00000240: a6aa cfbe acb5 9f3d 8a62 b43e f8de c5be
00000250: 431f 17bc 128b 9abc fc12 f2bc 4da3 10be
00000260: 65fc 38bd 0722 053e 6d13 62bc 33e9 8dbb
00000270: 6054 afbe dc87 0dbe 2ac7 6dbe 9772 bb3e
00000280: d5a1 643d 762d b83b 25cf d93e a4fc 78bf
00000290: 894d 1cbf 888e b73e b730 0c3c 885b 09be
000002a0: d79d 493e 84a5 b3be 8eaa 1dbf 0716 093f
000002b0: 6b1d 7c3d 7142 083d 96b0 26bd a949 0f3d
000002c0: 5cdf 47bd cc63 063e d463 8a3d 8037 c6be
000002d0: ca2f 30bf 2fab c2be fb4b 813e 33cb 1cbe
000002e0: 5039 373b dcbb dfbd aa63 263e 8d06 48be
000002f0: bdc7 42bd 32ec 6b3d 8e15 2dbe 34b9 7ebc
00000300: 2082 f9be 3765 25bf b920 24bf b5e0 39bc
00000310: 7cc4 06bf 862e e8be 8054 26bc 149f 1fbe

predictor.0.bias f4 [100]
0.3168642 -2.995461 -4.441859 -5.07231 -4.290771 5.0886865 -0.02620697 -3.426179
3.8210962 4.472565 -0.7022444 -1.5111227 -2.8550637 -3.2369392 2.4757385 -0.38100424
-0.10635167 3.2210507 -4.237957 0.2028986 3.4791138 4.4908915 -4.0127296 -0.500956
0.04652953 -4.070335 -5.3515654 -1.8187337 3.442789 5.864202 3.8450942 4.644792
3.926308 7.2391934 0.6796741 0.24705017 -0.6875015 2.546331 -6.7884884 2.6537352
2.668863 -2.610499 -2.7780986 -3.459415 4.516702 -0.043337345 -5.0570006 2.089972
0.39165348 -3.686477 -3.6071496 0.33464772 -2.4597921 -8.158523 -5.8048887 2.3021865
-2.1759357 -4.4156094 2.7346509 -0.084617496 -1.0569123 0.039705694 4.7590303 -2.8803346
-4.343763 -1.4137639 -0.064649224 -0.08787668 4.8283725 -0.00015854836 -3.8311896 -0.29643598
1.6674161 -2.938071 6.727483 2.5872855 -6.0946646 -0.55439174 -0.6518772 6.037749
-4.262036 -2.7442288 -4.438749 2.787156 5.3923173 2.782078 -5.2111197 5.9736776
-5.6334777 8.643176 -0.096836686 4.7975035 4.0831637 1.4074717 5.7922463 2.0935168
-0.17837185 -0.3997993 -0.45500168 0.043467402
00000000: 063c a23e a2b5 3fc0 b523 8ec0 5d50 a2c0
00000010: ff4d 89c0 85d6 a240 00b0 d6bc 8446 5bc0
00000020: d78c 7440 411f 8f40 4ac6 33bf 786c c1bf
00000030: 5db9 36c0 032a 4fc0 8072 1e40 fd12 c3be
00000040: e8ce d9bd b225 4e40 589d 87c0 a7c4 4f3e
00000050: cda9 5e40 62b5 8f40 4868 80c0 a73e 00bf
00000060: c095 3e3d 2f40 82c0 0640 abc0 44cc e8bf
00000070: a856 5c40 8ba7 bb40 0616 7640 23a2 9440
00000080: a148 7b40 79a7 e740 1fff 2d3f b8fa 7c3e
00000090: 1900 30bf 16f7 2240 4c3b d9c0 ccd6 2940
000000a0: a7ce 2a40 6a12 27c0 5ecc 31c0 0e67 5dc0
000000b0: d388 9040 8082 31bd f3d2 a1c0 1ac2 0540
000000c0: ce86 c83e 3def 6bc0 8adb 66c0 f256 ab3e
000000d0: 3c6d 1dc0 4f89 02c1 a6c1 b9c0 0657 1340
000000e0: 8842 0bc0 ac4c 8dc0 8504 2f40 f04b adbd
000000f0: e748 87bf 70a2 223d fa49 9840 6757 38c0
00000100: 1b00 8bc0 37f6 b4bf d066 84bd b0f8 b3bd
00000110: 0782 9a40 0040 26b9 3632 75c0 75c6 97be
00000120: e46d d53f 5b09 3cc0 8a47 d740 1696 2540
00000130: 7e07 c3c0 9eec 0dbf 6de1 26bf 3d35 c140
00000140: 9962 88c0 72a1 2fc0 3b0a 8ec0 c460 3240
00000150: dd8d ac40 910d 3240 7ec1 a6c0 5e28 bf40
00000160: 7345 b4c0 734a 0a41 5052 c6bd 2685 9940
00000170: 47a9 8240 0828 b43f 155a b940 2efc 0540
00000180: 1ca7 36be 7eb2 ccbe fbf5 e8be e00a 323d

predictor.2.weight f4 [100, 100]
-0.030206464 -0.05525668 0.0628399 -0.005619953 0.026670918 -0.075353295 -0.07397995 0.079709284
-0.11321718 -0.053434853 0.06974197 0.05822828 0.0043215267 0.016079051 -0.065204635 0.07937095
0.060352273 0.030241162 0.021079961 0.062098067 -0.016167337 0.0046398533 -0.0440888 -0.07119541
0.06769877 -0.0389882 0.071770534 -0.077668555 -0.023151778 -0.081221834 -0.015352846 -0.09953239
0.058578357 -0.080241084 -0.08288095 -0.085179485 -0.047154035 0.04530055 0.03268798 -0.035081398
-0.00276345 -0.024664575 0.030575091 8.6544445e-05 -0.07350106 -0.004630588 0.0071340776 -0.11431758
0.09312702 -0.07995791 0.07333453 0.04130625 -0.06983741 -0.12435471 -0.09976483 0.049700607
0.029198267 0.02820343 -0.10240068 -0.024225488 -0.08229741 0.07095305 0.071606204 -0.027248317
-0.070196204 -0.08096902 -0.0048699975 0.024993733 -0.056263667 -0.043342363 -0.11144002 -0.021324467
-0.070962906 0.052746367 0.04562689 0.051347706 0.06293267 -0.055330943 -0.090440586 0.047867708
0.042484973 0.04111285 -0.04144257 -0.08362739 0.009377607 0.032129187 0.0004442641 0.06262552
-0.08681879 -0.08956147 -0.037856925 -0.098316595 0.07462515 0.0050117816 -0.07851553 -0.11695525
-0.058794964 -0.11999052 0.045397855 -0.012267813 -0.08542701 0.012884713 0.020821588 0.09170038
-0.09808731 -0.251793 0.09325463 -0.05201003 -0.0040826607 -0.06247717 0.072659485 -0.08020564
-0.14043784 -0.037770502 -0.12514001 -0.09961774 -0.037458263 0.055210944 0.093780816 -0.0062812194
0.060057778 0.061426215 -0.02354319 -0.040512215 -0.046093848 -0.10835655 0.0101776635 -0.08635008
-0.051637724 0.014502957 -0.060958687 -0.12095003 0.006481688 0.006586373 0.09233821 0.06503383
0.0122239245 0.03483197 -3.0452716 -0.090865746 -0.060255017 0.038018346 -0.038919434 -0.08084398
-0.11262952 0.07637452 0.0338353 -0.05527812 0.023633696 -0.034615457 0.0010946542 -0.0102400035
-0.018143758 -0.12910976 0.075926565 -0.09904484 -0.10247367 -0.025231803 -0.10831472 -0.024163447
0.014752682 0.039481856 -0.12646608 -0.17506206 0.00601735 -0.014216361 0.014747463 0.0001938194
-0.0018293634 0.021265171 0.02831495 0.09317944 -0.012393454 -0.06252812 -3.1357803 -0.11719655
-0.12804233 0.0029718627 -0.07293061 -0.12534377 -0.043390393 0.026774116 -0.0032001727 -0.093450524
-0.09376278 -0.12757298 0.019271703 0.030015457 -0.021868533 -0.048630416 -0.08671313 -0.123988084
-0.09964766 -0.079983175 -0.09861566 0.03032389 -0.012320325 0.058019735 0.065425895 0.054492123
-0.07295289 0.045273013 -0.019695258 -0.100159034 -0.046938833 -0.06345774 0.08133299 -0.10755028
-0.07474134 -0.016751098 0.0016284212 0.07663231 0.05771167 0.06508778 0.06521481 0.033045046
-0.07308887 -0.010523585 -0.08216834 0.03402657 0.042905148 0.020735504 -0.06377492 0.07562586
0.07086513 -0.07972268 -0.09481826 0.012734192 -0.08360089 -0.0075793033 -0.08419305 0.063136525
0.03487027 0.053890932 -0.081225954 0.071403824 -0.02223958 0.046279017 -0.06511491 -0.11380578
-0.0027182417 -0.10037271 -0.08096263 -0.10408603 -0.08399454 0.007861927 -0.10483532 -0.12026939
0.05507376 -0.028690673 0.01797987 0.0625054 -0.07040225 -0.084718965 0.055264756 -0.052186396
00000000: 8c73 f7bc d454 62bd 35b2 803d 9527 b8bb
00000010: f87c da3c d452 9abd cd82 97bd 9f3e a33d
00000020: 69de e7bd 81de 5abd e1d4 8e3d c780 6e3d
00000030: 989b 8d3b 37b8 833c 028a 85bd 3d8d a23d
00000040: f233 773d 50bc f73c e2af ac3c 8b5a 7e3d
00000050: 5d71 84bc e909 983b 7596 34bd e6ce 91bd
00000060: a7a5 8a3d 17b2 1fbd 6efc 923d b110 9fbd
00000070: cca8 bdbc a257 a6bd 818a 7bbc a3d7 cbbd
00000080: dcef 6f3d 7055 a4bd 7dbd a9bd 9572 aebd
00000090: 9724 41bd 128d 393d d5e3 053d 83b1 0fbd
000000a0: ff1a 35bb 5d0d cabc 9d78 fa3c 327f b538
000000b0: b987 96bd 30bc 97bb fbc4 e93b 561f eabd
000000c0: 61b9 be3d f9c0 a3bd 6a30 963d be30 293d
000000d0: ea06 8fbd afad febd 8151 ccbd dd92 4b3d
000000e0: 3431 ef3c e10a e73c 73b7 d1bd 8874 c6bc
000000f0: 8b8b a8bd d54f 913d 46a6 923d dd37 dfbc
00000100: 07c3 8fbd 16d3 a5bd 8094 9fbb a8bf cc3c
00000110: bb74 66bd c387 31bd aa3a e4bd a6b0 aebc
00000120: 0055 91bd 930c 583d 43e3 3a3d f951 523d
00000130: d8e2 803d b3a2 62bd ea38 b9bd ee10 443d
00000140: b904 2e3d f365 283d afbf 29bd d644 abbd
00000150: 89a4 193c e599 033d 1eec e839 cf41 803d
00000160: 0dce b1bd 016c b7bd dd0f 1bbd 365a c9bd
00000170: 12d5 983d df39 a43b c0cc a0bd 3c86 efbd
00000180: fdd2 70bd 97bd f5bd 1af3 393d f0fe 48bc
00000190: 5bf4 aebd 671a 533c 0992 aa3c 69cd bb3d
000001a0: 00e2 c8bd 03eb 80be 49fc be3d 7808 55bd
000001b0: d7c7 85bb 10e8 7fbd 7fce 943d db42 a4bd
000001c0: f0ce 0fbe 3eb5 1abd b424 00be 6304 ccbd
000001d0: d66d 19bd df24 623d 2810 c03d b0d2 cdbb
000001e0: 25ff 753d 0e9a 7b3d a6dd c0bc 23f0 25bd
000001f0: e7cc 3cbd 0aea ddbd 37c0 263c 50d8 b0bd
00000200: 1482 53bd d09d 6d3c d1af 79bd a6b4 f7bd
00000210: 5764 d43b 80d2 d73b d11b bd3d 7530 853d
00000220: db46 483c f8ab 0e3d bbe5 42c0 d217 babd
00000230: f7cd 76bd 20b9 1b3d fc69 1fbd 8791 a5bd
00000240: 4eaa e6bd 3f6a 9c3d e296 0a3d 4f6b 62bd
00000250: 749b c13c f0c8 0dbd 807a 8f3a b0c5 27bc
00000260: 38a2 94bc 5935 04be 637f 9b3d 05d8 cabd
00000270: b7dd d1bd edb2 cebc 1cd4 ddbd 6cf2 c5bc
00000280: 3cb5 713c bab7 213d 5380 01be 7843 33be
00000290: 312d c53b bdeb 68bc 589f 713c 003c 4b39
000002a0: 40c7 efba 4c34 ae3c c1f4 e73c ddd4 be3d
000002b0: ea0d 4bbc be0e 80bd a0b0 48c0 bf04 f0bd
000002c0: 871d 03be 95c3 423b a55c 95bd 1e5a 00be
000002d0: 20ba 31bd 6455 db3c fdb9 51bb fd62 bfbd
000002e0: b306 c0bd 7ea2 02be b1df 9d3c fae2 f53c
000002f0: a325 b3bc b030 47bd a796 b1bd 77ed fdbd
00000300: 1314 ccbd 38ce a3bd 02f7 c9bd ce69 f83c
00000310: 30db 49bc 1aa6 6d3d 03fe 853d 2233 5f3d
00000320: 5368 95bd 3270 393d f357 a1bc 2e20 cdbd
00000330: ef42 40bd 22f6 81bd e991 a63d 5243 dcbd
00000340: fd11 99bd 9939 89bc c070 d53a 67f1 9c3d
00000350: 1263 6c3d be4c 853d 588f 853d 3e5a 073d
00000360: 9eaf 95bd 1d6b 2cbc e047 a8bd 725f 0b3d
00000370: 4fbd 2f3d 81dd a93c 6d9c 82bd bbe1 9a3d
00000380: bd21 913d a545 a3bd 1330 c2bd 13a3 503c
00000390: f236 abbd ce5b f8bb 686d acbd b94d 813d
000003a0: 21d4 0e3d bdbc 5c3d cb59 a6bd 2b3c 923d
000003b0: c82f b6bc 118f 3d3d f75a 85bd 0113 e9bd
000003c0: 8724 32bb 3590 cdbd bccf a5bd 0e2b d5bd
000003d0: 5405 acbd 50cf 003c e6b3 d6bd cc4f f6bd
000003e0: 0695 613d b408 ebbc 854a 933c d502 803d
000003f0: 0e2f 90bd 2381 adbd 4c5d 623d 67c1 55bd

predictor.2.bias f4 [100]
-0.07417441 -0.14156395 0.015954247 -0.27024913 -0.65676516 -3.7775555 -0.0948231 -0.030690951
-0.13536437 -0.124578774 -0.06521002 -1.055933 -0.06619064 0.2084017 -0.4519685 4.24519
-0.11858764 0.18053757 -0.8478524 0.029717235 0.06534166 -0.05477252 3.2320313 -0.10955387
-0.068935476 -0.11192889 0.2374378 1.5968589 -0.09320368 2.7093477 -0.07723388 -1.5297871
-2.6908302 -0.09578819 0.057717305 0.55930024 -1.1857885 0.017366627 -0.044871703 2.4254706
-0.32027352 0.05178032 -0.108137146 -0.16904742 0.06916585 -0.09960723 -0.008172958 1.1275308
-0.24809138 -0.78059334 -0.076460145 -0.16974084 -0.014869615 -0.052219365 -0.12022437 -3.2123
-0.69430006 -0.03272274 -0.09681261 -0.044182513 0.015130057 3.085738 0.023951313 1.3892045
0.98933053 -0.18729495 0.04615939 -0.2063503 -0.13435592 -4.312006 -1.0890245 2.363792
-0.038889036 -0.13480067 -0.06306331 -0.024202198 -0.44552892 -0.21164767 -0.022004224 -0.07628627
-1.5692697 -0.12414784 0.022049813 -0.018697638 -0.03733415 -0.07356428 -4.308091 -0.23772064
-0.21866989 -0.12857267 -0.05614062 -1.497414 -0.06453796 -0.14156638 3.211285 0.05933324
-0.11953181 -0.046007045 0.04154722 -0.36138707
00000000: c1e8 97bd 24f6 10be 7bb2 823c 185e 8abe
00000010: c321 28bf 78c3 71c0 9d32 c2bd 976b fbbc
00000020: f59c 0abe 2823 ffbd d58c 85bd d028 87bf
00000030: f58e 87bd 4167 553e 6a68 e7be 99d8 8740
00000040: 14de f2bd d7de 383e db0c 59bf 8f71 f33c
00000050: d9d1 853d 2659 60bd 9ad9 4e40 c85d e0bd
00000060: 0b2e 8dbd f93a e5bd e522 733e df65 cc3f
00000070: 92e1 bebd f465 2d40 cc2c 9ebd 10d0 c3bf
00000080: 9036 2cc0 992c c4bd fb68 6c3d 4d2e 0f3f
00000090: ebc7 97bf 7544 8e3c 64cb 37bd e93a 1b40
000000a0: e4fa a3be 9a17 543d 0277 ddbd c41a 2dbe
000000b0: d3a6 8d3d e0fe cbbd dfe7 05bc ee52 903f
000000c0: ab0b 7ebe f7d4 47bf 2397 9cbd 8bd0 2dbe
000000d0: b09f 73bc f9e3 55bd 3238 f6bd 5396 4dc0
000000e0: a6bd 31bf 4808 06bd b145 c6bd b9f8 34bd
000000f0: 0fe4 773c bb7c 4540 8b35 c43c 74d1 b13f
00000100: c444 7d3f 3fca 3fbe a111 3d3d 7e4d 53be
00000110: 9994 09be f4fb 89c0 2865 8bbf 5e48 1740
00000120: 1c4a 1fbd 3009 0abe 5627 81bd b043 c6bc
00000130: 5e1c e4be 2bba 58be 3442 b4bc fa3b 9cbd
00000140: d4dd c8bf 3941 febd cfa1 b43c ca2b 99bc
00000150: b2eb 18bd dfa8 96bd e2db 89c0 0a6d 73be
00000160: 00eb 5fbe 8ea8 03be b5f3 65bd 43ab bfbf
00000170: 7a2c 84bd c7f6 10be b285 4d40 6907 733d
00000180: 18cd f4bd e271 3cbd 6b2d 2a3d ba07 b9be

predictor.4.weight f4 [4, 100]
-0.053050756 -0.041220713 -0.046424404 0.093734734 -0.044217873 -0.5427509 0.01893785 0.025269426
-0.10844216 0.048687905 0.023720875 -0.054940842 -0.03844315 0.03867788 -2.257337 -0.442454
-0.045745816 -0.0022418364 0.10243611 0.050295405 -0.040165197 0.08665663 -0.29017335 -0.019049572
-0.06844903 -0.004310207 0.09007317 0.0268656 -0.06944847 0.0394238 -0.114586644 -0.049481038
-0.020548249 -0.014219709 0.03005754 0.06256792 -1.3136007 0.018276464 0.036943626 -2.0296905
-0.02990946 0.0068180114 -0.02444382 0.12213564 -0.067710966 -0.0052824826 -0.026022367 -0.037396297
0.033076383 0.04808408 -0.032215487 -0.009078125 -0.03774898 -0.019579427 0.14549328 -1.7781936
0.018896472 0.005499126 -0.0335627 0.08878227 0.03185652 -0.1152416 0.012217463 -0.036994603
-0.013658125 0.03969293 0.0007575952 -0.08666692 -0.030281814 0.85559183 -0.20778473 -0.002344073
0.028898528 0.066940136 -0.06720192 0.009260295 -0.037918776 0.17343032 0.043147005 -0.05380654
0.30631024 -0.06484594 0.015358633 0.054291774 0.045643356 -0.055834547 0.4950344 -0.16184051
-0.15627798 0.13531719 -0.016759774 0.15763426 0.081434295 -0.06977634 0.7765774 0.064791545
0.036616776 0.042054303 -0.04781878 0.029317314 0.06558981 0.09705895 0.120730795 0.16150694
-0.0041137664 0.997744 -0.0124933645 -0.066450424 0.04351428 0.08869778 -0.07964189 -0.0023284333
-0.099403664 0.043084014 -0.21430138 0.35306415 0.0527209 0.0777502 0.048402093 0.1043944
-0.046537615 -0.19489953 0.31427643 0.010711726 -0.044034038 -0.042502005 0.07337603 0.1527457
-0.094955064 0.5074661 0.17007421 -0.0517565 -0.34828267 -0.02268772 -0.05522172 0.04491011
-0.35060096 0.05204549 -0.040878467 2.1469195 0.0066026817 -0.011259519 0.01566938 -0.13220944
0.0915815 -0.061112095 -0.045377165 0.19002688 0.06290862 0.036563285 -0.08758633 0.103048466
0.034853347 0.060395252 0.079613686 0.79117936 0.03138372 0.021653 -0.055556156 0.0951046
0.068900816 0.33870837 0.0490792 0.20707986 0.5746219 -0.07652181 0.009328554 0.03328496
-0.014699395 -2.457436 -0.25936556 0.2773399 0.09119262 -0.056430005 -0.0003131896 0.024174307
0.10357057 -0.12604971 0.02357857 -0.030000664 -0.40242764 -0.033252444 0.020687426 0.04178476
0.06582066 -0.03964798 -1.3378001 0.088794254 0.023362748 -0.067154616 -0.020025423 -0.034924448
-0.037299052 0.06386583 -0.1502981 0.05120933 0.068094045 -0.00095692434 -0.06350834 0.008693569
-0.09518221 0.07108789 -0.0018260251 -0.021754181 -0.060536887 -0.12328513 -0.059065443 -0.025243571
-0.162075 0.022450088 0.03650794 0.21099992 -0.093314745 0.03169143 0.12909332 0.7803442
-0.07384766 -0.07309527 -0.020061843 0.06144929 -0.03033197 0.06467528 -0.509339 -0.037865166
-0.06878515 0.021379994 0.046391215 -0.016611496 0.034041278 -0.41393638 -0.025259234 0.14300704
0.73435926 -0.10400324 -0.054472532 0.06949134 -2.3054624 0.016431637 0.017505316 0.18636224
0.10681033 -0.0116957575 0.04816754 0.07240144 -0.09562903 0.168135 0.06784143 -0.0009823423
-0.009844853 0.031903405 0.10985561 -0.0072975704 -0.02925422 -0.010417193 0.14246526 -0.39827135
00000000: c04b 59bd 0dd7 28bd 8427 3ebd fff7 bf3d
00000010: cd1d 35bd b9f1 0abf 8d23 9b3c d401 cf3c
00000020: ec16 debd f86c 473d 4852 c23c a609 61bd
00000030: 9176 1dbd b26c 1e3d 3678 10c0 5589 e2be
00000040: f75f 3bbd c6eb 12bb 06ca d13d 8e02 4e3d
00000050: 4384 24bd 0879 b13d 9a91 94be d90d 9cbc
00000060: 012f 8cbd a33c 8dbb 4878 b83d 3f15 dc3c
00000070: 003b 8ebd da7a 213d 67ac eabd a1ac 4abd
00000080: cd54 a8bc c8f9 68bc 3b3b f63c 9c23 803d
00000090: 1124 a8bf 86b8 953c 3352 173d 73e6 01c0
000000a0: af04 f5bc a069 df3b 683e c8bc 4022 fa3d
000000b0: 0cac 8abd ad18 adbb dc2c d5bc dc2c 19bd
000000c0: 1a7b 073d d0f3 443d 63f4 03bd 6abc 14bc
000000d0: ad9e 1abd 0965 a0bc 31fc 143e d99b e3bf
000000e0: c6cc 9a3c 0332 b43b 0b79 09bd 7bd3 b53d
000000f0: fb7b 023d ca03 ecbd c12b 483c a787 17bd
00000100: 54c6 5fbc 0e95 223d 5a99 463a 6d7e b1bd
00000110: 9111 f8bc 1108 5b3f 85c5 54be 059f 19bb
00000120: 9bbc ec3c e917 893d 29a1 89bd 7eb8 173c
00000130: b850 1bbd b897 313e eaba 303d 3f64 5cbd
00000140: b2d4 9c3e f3cd 84bd c7a2 7b3c 0d61 5e3d
00000150: 87f4 3a3d c4b2 64bd 2675 fd3e 85b9 25be
00000160: 5607 20be 9790 0a3e cb4b 89bc e06a 213e
00000170: 06c7 a63d e6e6 8ebd c7cd 463f 6eb1 843d
00000180: 79fb 153d 2241 2c3d a0dd 43bd dd2a f03c
00000190: f353 863d d8c6 c63d b541 f73d 1362 253e
000001a0: c6cc 86bb 276c 7f3f f8b0 4cbc 2917 88bd
000001b0: 083c 323d 2fa7 b53d 4a1b a3bd a198 18bb
000001c0: 2694 cbbd dd78 303d d271 5bbe d3c4 b43e
000001d0: dff1 573d 7f3b 9f3d 4641 463d bbcc d53d
000001e0: 3a9e 3ebd be93 47be d7e8 a03e 3c80 2f3c
000001f0: 095d 34bd 9516 2ebd 2c46 963d 5e69 1c3e
00000200: cd77 c2bd 4ce9 013f ef27 2e3e a0fe 53bd
00000210: 1b52 b2be 99db b9bc 2c30 62bd aaf3 373d
00000220: f881 b3be a72d 553d 2e70 27bd 2167 0940
00000230: 4f5b d83b d879 38bc 125d 803c e961 07be
00000240: 158f bb3d ad50 7abd 68dd 39bd 6896 423e
00000250: 3cd6 803d 62c3 153d 7660 b3bd 130b d33d
00000260: 62c2 0e3d 0361 773d 800c a33d bb8a 4a3f
00000270: 378c 003d a261 b13c da8e 63bd 33c6 c23d
00000280: df1b 8d3d 2f6b ad3e 4507 493d be0c 543e
00000290: 6c1a 133f 77b7 9cbd cbd6 183c cf55 083d
000002a0: bbd5 70bc a246 1dc0 90cb 84be 7fff 8d3e
000002b0: 32c3 ba3d 2623 67bd 9933 a4b9 3209 c63c
000002c0: cf1c d43d 2d13 01be d827 c13c f4c3 f5bc
000002d0: ff0a cebe b733 08bd ad78 a93c 7f26 2b3d
000002e0: fbcc 863d ec65 22bd 093d abbf c3d9 b53d
000002f0: 3c63 bf3c 5c88 89bd 5b0c a4bc f00c 0fbd
00000300: e4c6 18bd 17cc 823d bfe7 19be e0c0 513d
00000310: e474 8b3d 1bda 7aba a910 82bd 796f 0e3c
00000320: e4ee c2bd 8796 913d 3c57 efba d335 b2bc
00000330: 87f5 77bd ea7c fcbd 9bee 71bd 9bcb cebc
00000340: fdf6 25be 3fe9 b73c 5a89 153d 5d10 583e
00000350: cd1b bfbd dfce 013d 0a31 043e a3c4 473f
00000360: 713d 97bd f9b2 95bd bc58 a4bc 40b2 7b3d
00000370: c07a f8bc 7974 843d 0a64 02bf 8118 1bbd
00000380: 3bdf 8cbd 1925 af3c b704 3e3d d514 88bc
00000390: de6e 0b3d 78ef d3be 74ec cebc 7070 123e
000003a0: f8fe 3b3f a7ff d4bd 971e 5fbd 7a51 8e3d
000003b0: b28c 13c0 a49b 863c 4f67 8f3c bed5 3e3e
000003c0: 60bf da3d 909f 3fbc 544b 453d 3547 943d
000003d0: 27d9 c3bd 952b 2c3e 73f0 8a3d f0c1 80ba
000003e0: 4e4c 21bc 25ad 023d fafb e03d 7520 efbb
000003f0: 8ca6 efbc e0ac 2abc 6ae2 113e 39ea cbbe

predictor.4.bias f4 [4]
0.050574366 3.8861165 1.2958887 -3.4600728
00000000: 1127 4f3d 22b6 7840 aedf a53f d571 5dc0
