models/squares/100/student_config.pt (torch, 45966 bytes, 6 tensors)

predictor.0.weight f4 [100, 2]
-0.43447408 -0.22223544 0.009683346 0.23644388 0.18321232 0.24583536 -0.4659543 -0.50325286
0.03832287 -0.6480936 -0.123172306 -0.6294974 0.37969255 0.1611959 0.5815645 0.08268621
-0.47172338 -0.4698747 0.17126529 -0.51092625 0.111400194 -0.38216633 -0.17476772 -0.057429127
-0.31373784 -0.082491666 0.52734536 -0.09788196 -0.5543709 -0.6625154 0.109472714 -0.7135063
0.5895459 -0.31588686 -0.025724273 0.4764365 -0.6449672 -0.34368402 0.43260333 -0.40721998
-0.35592732 0.18149051 -0.0048157903 -0.0029936712 0.31926796 -0.49248028 0.23264863 -0.47518116
0.058884595 0.27824044 -0.5486318 0.4789341 0.06778344 -0.0051730224 -0.8584335 0.22219877
0.16543227 -0.6688242 -0.61236006 0.59647983 -0.35758466 -0.28304374 0.35076967 0.19127658
0.508971 -0.5373614 -0.15863948 -0.59901124 -0.6776902 0.11258976 -0.20375483 0.044726443
-0.49060914 0.6017828 -0.30335957 0.4732371 -0.108295456 0.43593398 0.35093632 -0.4239934
0.5746013 -0.24778707 0.28447935 0.6307041 0.20798016 -0.24724223 -0.6902842 -0.6040165
0.32181343 0.4266684 -0.02517996 -0.5102266 -0.27387303 0.2916276 0.24314253 0.39371985
0.12288195 -0.32730177 0.64139086 -0.59851223 0.12648268 -0.8238724 -0.025692351 0.40297562
0.38984296 0.59484285 0.64321965 -0.6798253 -0.19379213 -0.17520748 0.42673892 -0.14957105
0.30210006 0.05959894 0.42502362 -0.69296205 -0.14781903 0.6535648 0.07182879 0.36669078
0.4840956 0.46555874 0.63493747 -0.29853296 -0.67706376 -0.3922956 -0.2816187 0.3205782
0.01140827 0.04918238 0.52861726 -0.5524569 -0.45014367 0.13233407 0.33538035 -0.45536757
-0.043494873 -0.38960218 -0.4015798 -0.39802802 0.03692507 0.43790188 -0.11483254 -0.48303962
-0.45704025 0.12823588 0.23387279 -0.03997229 -0.58395267 -0.1298224 -0.4059856 -0.13234885
-0.6574453 -0.56738716 0.41582605 0.22530541 0.3563803 -0.5456767 0.29360124 -0.35106456
0.19215362 0.2613361 -0.52295977 -0.15763234 0.4788556 0.08713963 -0.5025031 -0.41641852
0.12012878 0.06146369 -0.35336068 -0.13314721 0.46834984 -0.46884948 0.045013208 -0.38462195
0.67893416 -0.42368257 -0.0069889626 0.15875125 -0.50435877 0.14977291 0.004670679 0.32951066
0.5472486 0.21306919 0.14316222 -0.05432284 -0.54259 -0.2177924 0.21852762 0.61347324
-0.37496448 -0.3162985 0.12989047 -0.5261891 0.46385765 -0.697098 -0.80546457 0.16609931
00000000: 6373 debe b091 63be e6a6 1e3c 581e 723e
00000010: 039c 3b3e 44bc 7b3e 9091 eebe 2ed5 00bf
00000020: 71f8 1c3d 76e9 25bf c341 fcbd be26 21bf
00000030: 1067 c23e 8a10 253e 69e1 143f 6357 a93d
00000040: ba85 f1be 6b93 f0be 2b60 2f3e 10cc 02bf
00000050: c925 e43d 4eab c3be 4ff6 32be ce3a 6bbd
00000060: 3fa2 a0be 64f1 a8bd 1b00 073f 5676 c8bd
00000070: 40eb 0dbf 9c9a 29bf 3b33 e03d 59a8 36bf
00000080: 7bec 163f ecbb a1be b6bb d2bc 7cef f33e
00000090: 921c 25bf 5af7 afbe 2f7e dd3e 237f d0be
000000a0: 1b3c b6be a6d8 393e c7cd 9dbb 7831 44bb
000000b0: 1777 a33e 6026 fcbe 713b 6e3e f24a f3be
000000c0: f930 713d 8875 8e3e 2273 0cbf da36 f53e
000000d0: 0bd2 8a3d 7582 a9bb 4cc2 5bbf 1388 633e
000000e0: 1467 293e 1038 2bbf a1c3 1cbf e7b2 183f
000000f0: 5615 b7be 1ceb 90be 1598 b33e 02de 433e
00000100: ec4b 023f 8490 09bf 6372 22be cd58 19bf
00000110: 1b7d 2dbf 7695 e63d 1ba5 50be 1333 373d
00000120: 1f31 fbbe 700e 1a3f f251 9bbe 224c f23e
00000130: 02ca ddbd bd32 df3e edad b33e aa15 d9be
00000140: 1219 133f e5bb 7dbe 47a7 913e d375 213f
00000150: c0f8 543e 112d 7dbe 77b6 30bf d3a0 1abf
00000160: bbc4 a43e 4874 da3e 3446 cebc 369e 02bf
00000170: 1639 8cbe 3650 953e 5bfa 783e a695 c93e
00000180: 88a9 fb3d 1994 a7be 3132 243f 1938 19bf
00000190: ad84 013e 4de9 52bf c478 d2bc d252 ce3e
000001a0: 7f99 c73e 9f47 183f 0baa 243f 0809 2ebf
000001b0: 7271 46be 9769 33be 867d da3e 2729 19be
000001c0: dcac 9a3e 051e 743d b29c d93e f665 31bf
000001d0: df5d 17be 0650 273f f91a 933d e5be bb3e
000001e0: 61db f73e b75d ee3e 438b 223f 50d9 98be
000001f0: 0d54 2dbf f8da c8be 5430 90be d322 a43e
00000200: c1e9 3a3c 7773 493d 7653 073f d16d 0dbf
00000210: 3b79 e6be 9582 073e f9b6 ab3e f025 e9be
00000220: ae27 32bd f079 c7be de9b cdbe 54ca cbbe
00000230: be3e 173d ad34 e03e 532d ebbd f850 f7be
00000240: 2e01 eabe 4450 033e 597c 6f3e fcb9 23bd
00000250: ec7d 15bf 2af0 04be 58dd cfbe 7586 07be
00000260: 564e 28bf 4940 11bf 27e7 d43e 76b6 663e
00000270: 7b77 b63e 78b1 0bbf e752 963e bcbe b3be
00000280: ebc3 443e d8cd 853e b1e0 05bf 5f6a 21be
00000290: 902c f53e 4376 b23d 0ba4 00bf cf34 d5be
000002a0: 1406 f63d 5ac1 7b3d b1eb b4be be57 08be
000002b0: 8dcb ef3e 0a0d f0be c55f 383d 2bed c4be
000002c0: a1ce 2d3f ecec d8be ab03 e5bb b08f 223e
000002d0: a81d 01bf 125e 193e 7f0c 993b 9fb5 a83e
000002e0: 7c18 0c3f cf2e 5a3e 1e99 123e a081 5ebd
000002f0: 2ee7 0abf f904 5fbe b4c5 5f3e 950c 1d3f
00000300: 58fb bfbe e1f1 a1be 0202 053e 54b4 06bf
00000310: c07e ed3e 0475 32bf ed32 4ebf f015 2a3e

predictor.0.bias f4 [100]
0.006029528 -1.9412355 -1.3123444 0.00010452418 1.7064317 -0.56058854 -2.3930945 2.2466476
0.24683563 0.8656057 -1.8729763 0.07611847 0.5593336 1.1998194 -0.52129984 -1.437159
1.467285 -2.1559114 -0.62936157 2.5354817 1.189527 3.3361394 -2.1025941 -1.9021568
2.3665333 -2.2379646 -2.490477 -1.0755359 1.3307062 1.3474294 0.57104975 -1.5719178
2.1464198 -0.57313997 -0.1011857 2.3828757 1.7185593 2.0817244 -1.1112063 -1.380909
-1.7705791 -1.7693672 -2.447362 -0.027111972 1.25557 -0.3145157 -2.2221832 1.1512985
-1.8808001 1.2830702 1.9616399 -1.1968408 -1.5298413 -1.6224612 0.31910905 1.9418982
-1.4112991 2.6833355 -1.7504463 1.8443587 -2.1615536 1.7576991 0.1639353 0.98959064
-2.255963 -2.0606422 1.8062334 1.3744715 -0.63227206 -0.20934348 1.340357 0.49382064
2.5525897 1.1536344 -0.017214037 -0.48092648 0.35316935 -2.2513673 2.0620408 -1.9643672
-1.7528864 0.4983768 2.2678494 0.1479056 -1.4613779 0.4750351 1.5052886 -1.2885015
-1.5115442 0.4965246 1.703948 -0.9373891 1.5421556 -2.8742893 -0.35112825 -1.3681787
-0.30815017 1.0933915 -1.4857383 0.3527309
00000000: 5993 c53b 687a f8bf e7fa a7bf fe33 db38
00000010: 5b6c da3f bb82 0fbf 7628 19c0 13c9 0f40
00000020: 7bc2 7c3e 5698 5d3f b0bd efbf 00e4 9b3d
00000030: 7d30 0f3f af93 993f e873 05bf d3f4 b7bf
00000040: ffcf bb3f 74fa 09c0 d71d 21bf 5545 2240
00000050: 6c42 983f 4f83 5540 e790 06c0 e079 f3bf
00000060: 4875 1740 d03a 0fc0 fa63 1fc0 29ab 89bf
00000070: 9554 aa3f 9178 ac3f 5130 123f 9a34 c9bf
00000080: f15e 0940 4db9 12bf 733a cfbd 0981 1840
00000090: c0f9 db3f f93a 0540 023c 8ebf a0c1 b0bf
000000a0: 56a2 e2bf a07a e2bf 94a1 1cc0 ed19 debc
000000b0: 85b6 a03f 3408 a1be 4038 0ec0 c05d 933f
000000c0: 0fbe f0bf a53b a43f 0417 fb3f 1432 99bf
000000d0: d7d1 c3bf cfac cfbf 4362 a33e 1f90 f83f
000000e0: 73a5 b4bf c5bb 2b40 a00e e0bf f213 ec3f
000000f0: e556 0ac0 49fc e03f a8de 273e d055 7d3f
00000100: b361 10c0 90e1 03c0 a832 e73f afee af3f
00000110: 95dc 21bf 235e 56be d190 ab3f 0fd6 fc3e
00000120: a15d 2340 4baa 933f 7404 8dbc ff3b f6be
00000130: 9dd2 b43e 6716 10c0 7af8 0340 6270 fbbf
00000140: 955e e0bf 3e2b ff3e 7224 1140 9174 173e
00000150: 6e0e bbbf cd37 f33e 4cad c03f 9eed a4bf
00000160: 487a c1bf 7938 fe3e f81a da3f bbf8 6fbf
00000170: 5b65 c53f 5bf4 37c0 15c7 b3be 7b20 afbf
00000180: dcc5 9dbe 41f4 8b3f ac2c bebf 2599 b43e

predictor.2.weight f4 [100, 100]
-0.06718731 0.021829348 -0.09498157 0.07009639 0.027497757 -0.06661894 -0.09648018 -0.027030349
0.059911516 -0.08312624 -0.07544857 -0.09611075 -0.011091495 -0.09454104 -0.09646835 0.039535034
-0.07276957 -0.008993811 -0.07191368 -0.049286548 0.23693416 2.5818381 -0.08636915 0.02977841
-0.0034462248 0.07631147 -0.47596577 -0.24875757 -0.02387308 0.063824944 -0.05149281 0.032133833
-23.636696 -0.0702693 0.14642404 1.1040257 0.056699272 0.0934502 0.07803663 0.06302789
-0.1523548 0.08409967 0.09728849 0.03341457 0.026851527 -0.07900437 -0.022747807 0.10956746
0.019499052 -0.6241521 0.01756295 0.06885438 -0.045069903 0.019928208 0.09362712 -0.0054475
0.00092391745 0.05211401 -0.02459468 0.10108741 -0.011292865 -0.030982839 -0.08838283 -0.034503825
-0.18138035 -0.06271395 0.24586292 -0.09488726 0.022918856 -0.05422722 0.10702106 -4.3082237e-05
0.1652536 0.10706559 -0.033620227 -0.06914349 -0.04869629 -0.087429404 -0.009456146 -0.05189146
0.06901512 0.025582194 0.053649895 0.0005393505 -0.047038633 0.06271546 1.591497 -0.052058805
-0.37771702 -0.06044563 0.20994061 5.6015604e-05 0.047915928 -0.7305289 -0.001532793 0.08296492
-0.055872392 0.08362887 -0.09455375 0.04455688 0.09803752 -0.046954166 -0.026410513 0.056663882
0.15725061 0.017346596 0.037832707 0.04962887 0.049332928 -0.0344749 -0.057855096 -0.016002584
0.08815515 -0.03947263 -0.09477963 -0.27893233 0.09082316 0.011460334 0.062467135 0.003868483
-0.009702542 1.3836607 -0.06413893 -0.10149836 0.03350447 -1.1024517 -0.24099188 -0.059499767
-0.011991366 -0.72607696 0.03330648 -0.051908154 0.01556978 -0.028629972 -0.06568864 -0.04286034
0.34883547 0.1283222 0.071239345 -0.05782448 -0.05727521 -0.06428344 -0.06794313 0.016342176
0.10823456 -0.055523958 -1.4826058 -0.06589508 0.0059660566 0.08936147 0.1940428 -9.996758e-05
0.017086862 -0.033596866 -0.06010356 -0.009352414 0.013526864 -0.038720794 -0.038314424 0.052498367
-0.106460966 0.107649654 0.033622157 -0.117023446 -0.74097776 -0.0016448179 0.10092418 -0.03451768
0.06850647 0.06366801 0.031050958 -0.09782378 -0.07813377 -0.08923253 0.060623135 0.03633354
-0.04724697 0.0674316 0.023148114 0.04898837 -0.027031925 -0.009008074 0.0849034 -0.043957092
-0.097742036 -0.045295384 -0.04687633 -0.11333132 0.03298329 0.08607719 -0.03117882 -0.015310921
-0.05455851 -0.26641035 0.025118101 0.05468926 0.095319144 -0.031097693 0.06456843 0.03037072
-0.04038843 -0.031306356 -0.11132979 0.0073325397 -0.036446467 -0.023576582 0.05791062 -0.046133317
-0.038188934 0.012483502 -0.100705594 -0.06282462 -0.0140221 0.04145165 -0.039900113 0.03016339
-0.04550206 -0.0565707 0.03431771 -0.045419436 0.06920209 -0.00026869192 6.1654784e-05 -0.13952027
0.045664027 -0.037728272 -0.009780902 -0.09848392 -0.09737045 -0.016602803 -0.05051011 -0.028227065
-0.10455065 0.018293178 -0.029396797 0.040420618 -0.050231565 -0.11749625 -0.04723868 0.02148857
0.008091091 -0.011732304 -0.13732655 -0.0683439 -0.016578197 0.07296379 0.05173508 -0.0036049236
0.023368657 0.03779322 0.056590896 -0.0076370635 -0.07841648 -0.02626114 -0.09875464 0.03745611
00000000: 8099 89bd 76d3 b23c b385 c2bd b28e 8f3d
00000010: fa42 e13c 836f 88bd 6797 c5bd c06e ddbc
00000020: c765 753d 173e aabd c884 9abd b7d5 c4bd
00000030: 1ab9 35bc bc9e c1bd 3391 c5bd 7def 213d
00000040: 3608 95bd c75a 13bc 7b47 93bd b1e0 49bd
00000050: de9e 723e d63c 2540 4fe2 b0bd daf1 f33c
00000060: 0fda 61bb 3049 9c3d c9b1 f3be 4eba 7ebe
00000070: 7a91 c3bc a7b6 823d 20ea 52bd c49e 033d
00000080: f417 bdc1 5ae9 8fbd 2ff0 153e b750 8d3f
00000090: 7f3d 683d d262 bf3d abd1 9f3d c414 813d
000000a0: e602 1cbe 733c ac3d 303f c73d b7dd 083d
000000b0: bcf7 db3c 0bcd a1bd 9c59 babc e864 e03d
000000c0: 7abc 9f3c 6fc8 1fbf 2de0 8f3c 8603 8d3d
000000d0: 389b 38bd 7b40 a33c 93bf bf3d f180 b2bb
000000e0: 0d33 723a 8075 553d c87a c9bc ea06 cf3d
000000f0: b505 39bc b9cf fdbc 0f02 b5bd e253 0dbd
00000100: c5bb 39be 2c70 80bd 7dc3 7b3e 4054 c2bd
00000110: 53c0 bb3c 5d1d 5ebd dc2d db3d 33b3 34b8
00000120: 3d38 293e 3445 db3d 5db5 09bd 1a9b 8dbd
00000130: c375 47bd 300e b3bd f3ed 1abc 248c 54bd
00000140: cd57 8d3d c091 d13c febf 5b3d 3363 0d3a
00000150: 95ab 40bd f770 803d 2cb6 cb3f 9d3b 55bd
00000160: 2064 c1be d695 77bd acfa 563e 4cf2 6a38
00000170: 7e43 443d f103 3bbf 00e8 c8ba 83e9 a93d
00000180: 73da 64bd 9d45 ab3d 65a5 c1bd 4681 363d
00000190: e5c7 c83d 0353 40bd dc5a d8bc 6318 683d
000001a0: 4e06 213e 731a 8e3c 78f6 1a3d a447 4b3d
000001b0: 5311 4a3d 8e35 0dbd 77f9 6cbd da17 83bc
000001c0: b08a b43d 0dae 21bd d31b c2bd 38d0 8ebe
000001d0: 7e01 ba3d 20c4 3b3c 8add 7f3d 6086 7d3b
000001e0: 69f7 1ebc cb1b b13f 455b 83bd 5fde cfbd
000001f0: fc3b 093d 231d 8dbf 93c6 76be 07b6 73bd
00000200: 6f77 44bc 2ee0 39bf 606c 083d a59d 54bd
00000210: 6418 7f3c 6789 eabc c487 86bd 538e 2fbd
00000220: 909a b23e e566 033e efe5 913d 5dd9 6cbd
00000230: 6999 6abd 09a7 83bd c525 8bbd 07e0 853c
00000240: 15aa dd3d 176d 63bd 07c6 bdbf 00f4 86bd
00000250: e97e c33b 2503 b73d 28b3 463e b0a5 d1b8
00000260: bff9 8b3c de9c 09bd 272f 76bd de3a 19bc
00000270: c89f 5d3c b299 1ebd 96ef 1cbd 8708 573d
00000280: 3508 dabd 6c77 dc3d 63b7 093d fda9 efbd
00000290: b8b0 3dbf ee96 d7ba 56b1 ce3d 6962 0dbd
000002a0: 1f4d 8c3d 6064 823d 945e fe3c d557 c8bd
000002b0: 9904 a0bd 8bbf b6bd f74f 783d 7ad2 143d
000002c0: 0a86 41bd 9419 8a3d 1da1 bd3c 07a8 483d
000002d0: 0e72 ddbc 9a96 13bc d5e1 ad3d 5a0c 34bd
000002e0: fa2c c8bd a787 39bd 6501 40bd 401a e8bd
000002f0: 7c19 073d 3d49 b03d ba6a ffbc a8da 7abc
00000300: bf78 5fbd f066 88be 7ac4 cd3c d801 603d
00000310: af36 c33d 97c0 febc 743c 843d 04cc f83c
00000320: 576e 25bd 183b 00bd df00 e4bd cd45 f03b
00000330: e448 15bd ad23 c1bc b033 6d3d 4af6 3cbd
00000340: 006c 1cbd 9a87 4c3c bc3e cebd 32aa 80bd
00000350: f3bc 65bc 35c9 293d 4d6e 23bd 3719 f73c
00000360: 5e60 3abd aeb6 67bd ba90 0c3d bb09 3abd
00000370: d3b9 8d3d 38df 8cb9 a94c 8138 67de 0ebe
00000380: 340a 3b3d f688 1abd 1440 20bc f0b1 c9bd
00000390: 296a c7bd 9a02 88bc b0e3 4ebd 723c e7bc
000003a0: a71e d6bd 93db 953c 8dd1 f0bc 1790 253d
000003b0: 9dbf 4dbd e0a1 f0bd 597d 41bd cc08 b03c
000003c0: 7f90 043c d938 40bc 559f 0cbe e3f7 8bbd
000003d0: 00cf 87bc 0a6e 953d 2ae8 533d 9540 6cbb
000003e0: a06f bf3c 10cd 1a3d dbcb 673d 5540 fabb
000003f0: d298 a0bd 9a21 d7bc df3f cabd 946b 193d

predictor.2.bias f4 [100]
1.5211935 1.1723517 -0.056834407 1.3877397 0.06958355 -0.004963306 0.53618133 -0.93779296
-1.1671547 -0.6633596 -1.143582 -1.1090299 0.6260395 0.08936741 1.3170807 1.2052735
1.8281683 1.2546909 1.2691197 -0.8561584 1.9052936 1.9917841 1.2965568 -0.0845325
-0.020652454 0.18286234 -0.36216778 -1.4148449 -0.047669496 -0.9981516 -0.15257946 1.3255348
-1.7046944 -2.155305 -0.059245855 -1.6751244 -1.2500846 -0.053662825 0.9351485 -1.1593615
0.97565264 1.9539685 0.049696922 -1.2689779 0.015571079 0.6212564 -0.0701481 -0.05035622
0.05784763 0.07719995 -1.4502219 -0.0026284575 0.030483413 0.031485666 -0.57096976 -0.04642233
0.012663939 1.4753774 -0.80857277 0.092344664 -0.04809388 0.016824387 0.79098576 -0.09083865
-0.060980774 -0.9310846 0.031514633 1.0155255 1.7977831 -1.3142161 -0.086682454 -0.9887355
0.36007947 0.04899473 1.0585107 -1.6763858 1.3355035 -1.0599941 -1.5059555 -0.042274892
-0.96439576 -0.083084725 0.06662773 -0.026751664 0.05244028 1.0148795 0.09362816 -0.06280737
2.109066 -0.04955225 -1.3912053 -0.06593647 1.4669689 -0.050712217 -0.07882931 1.2760227
1.2976267 -1.1648189 0.9157857 -1.6666721
00000000: 78b6 c23f 9f0f 963f 32cb 68bd 74a1 b13f
00000010: d281 8e3d 3aa3 a2bb 2e43 093f 3313 70bf
00000020: 5365 95bf efd1 29bf e560 92bf b1f4 8dbf
00000030: 2044 203f 4306 b73d 1a96 a83f 6746 9a3f
00000040: 6b01 ea3f b699 a03f 8472 a23f 322d 5bbf
00000050: a9e0 f33f c8f2 fe3f 93f5 a53f 601f adbd
00000060: 562f a9bc 4440 3b3e 0e6e b9be a319 b5bf
00000070: 1741 43bd dd86 7fbf ca3d 1cbe 20ab a93f
00000080: 6d33 dabf 84f0 09c0 c8ab 72bd 7a6a d6bf
00000090: c602 a0bf 8dcd 5bbd e465 6f3f f565 94bf
000000a0: 5fc4 793f a41b fa3f 008f 4b3d de6d a2bf
000000b0: d71d 7f3c a90a 1f3f cfa9 8fbd 5342 4ebd
000000c0: a3f1 6c3d 021b 9e3d dfa0 b9bf 3342 2cbb
000000d0: 5ab8 f93c 1df7 003d 132b 12bf 5725 3ebd
000000e0: 697c 4f3c 2bd9 bc3f a0fe 4ebf 331f bd3d
000000f0: 17fe 44bd 4cd3 893c 0b7e 4a3f 9d09 babd
00000100: fac6 79bd 8f5b 6ebf 7d15 013d bdfc 813f
00000110: c21d e63f 3c38 a8bf 9286 b1bd c51d 7dbf
00000120: 565c b83e b3ae 483d 477d 873f cf93 d6bf
00000130: c7f1 aa3f e3ad 87bf 26c3 c0bf 7028 2dbd
00000140: a4e2 76bf 5328 aabd 1f74 883d 4e26 dbbc
00000150: 9ecb 563d 92e7 813f 1fc0 bf3d 27a1 80bd
00000160: f0fa 0640 4df7 4abd 0413 b2bf b309 87bd
00000170: a3c5 bb3f 9db7 4fbd 4371 a1bd b654 a33f
00000180: a218 a63f c918 95bf ee70 6a3f 8355 d5bf

predictor.4.weight f4 [4, 100]
0.2813132 -0.17924066 -0.038799535 0.041451894 0.044847906 -0.033383004 -0.11355967 0.045071572
-0.07012711 -0.15975061 0.059669167 -2.2395952 0.091021374 0.062635176 -4.1768103 0.11048907
0.19472827 0.025548963 0.024205312 -0.1129696 0.052998018 0.49518606 -0.19883887 -0.059697986
0.0018068303 0.02555663 0.06565055 0.08078403 0.0024715306 -0.052813865 0.003176603 -0.6019671
-0.0037194646 0.025665035 0.06216702 -0.121208884 0.012830569 0.020093024 -0.14105396 0.34598854
0.08598297 -0.33157334 0.024582732 0.09374331 0.033503696 -0.44808668 0.09531845 0.07161134
-0.08449625 -0.072827674 0.0034456416 -0.028292025 0.04921179 0.0695128 0.062498894 0.090889014
0.07448049 -0.2641891 0.047211427 0.08748492 -0.08119929 -0.004581686 0.019304525 0.09478196
0.011197197 -0.00018031348 0.057162654 -0.01717666 -0.19327082 -0.43604434 -0.09636944 -0.19428141
0.0042793415 -0.029694855 0.017106533 0.0610943 0.04095542 -0.07403153 0.09330881 -0.0095782755
0.079724304 0.022981798 0.017848397 -0.0016532639 -0.018087868 -0.16093144 -0.09533862 -0.076999485
0.20516637 -0.026748968 0.008772853 -0.004452443 0.0034666988 -0.05092959 0.01619712 0.12803575
0.21738486 0.052637883 0.11250764 -0.037845585 0.026293911 1.3262365 -0.015303538 0.05265463
0.07032015 0.036491744 0.0329363 0.04015419 -1.3526342 0.8006099 -0.026403246 0.41307336
-0.106779 -0.059709467 -5.405022 -0.046424776 0.21031585 0.19185965 -0.050573252 0.1026181
-1.1048944 0.012562116 -0.08267215 0.03215393 0.07564086 0.05431421 -0.44257167 -0.04738131
0.022398591 -0.04851686 -0.002318 1.164626 -0.047116414 -0.9616009 0.09240548 0.7248531
-0.07684997 -0.006830883 0.09425665 0.049585003 -0.5286862 1.67968 -0.029368533 0.057118665
0.09008966 2.4188068 -0.054415118 -0.042423595 0.066812955 -0.09239825 -0.021125529 -0.07395581
0.08273097 0.049951494 0.046454508 0.013429833 0.026855996 -0.07262667 0.04395732 -0.0027298927
-0.013490654 0.02421882 -0.11201837 -0.042780757 -0.08121347 0.07702581 0.03885137 0.05733998
0.99487716 0.24905421 -0.034533836 0.08398961 0.07725702 -0.06839752 -0.0077258125 -0.0528034
0.22105777 -0.017227316 -0.052651536 0.07011404 0.068054065 0.07927571 -0.035333853 0.08708041
-0.039287623 -4.6761446 0.052647065 0.09415691 0.75405324 -0.071783714 -0.060584247 0.057556927
0.068482816 0.02446737 0.051016357 0.11614388 0.5480596 -0.06980471 -0.006933332 -0.4789953
-0.22917014 -0.06288229 0.0252854 -0.16118789 -0.00869056 -0.06325922 -0.03542014 0.027264353
0.15339322 -0.034862198 0.1670567 0.2628876 -0.05693772 0.06035809 0.08125824 -0.14309058
-0.26729044 -0.04495926 -0.24333179 0.10900572 -0.9421653 -0.25385627 -0.007755371 -0.022430409
-0.036847606 0.05381968 0.09424508 0.14563924 0.035814073 0.015361711 -0.030617425 0.013443938
0.11507928 0.550296 -0.04977759 0.18919009 0.056941275 0.021102441 0.008172481 0.054991685
0.05123534 -0.87123495 -0.06470982 0.08090576 -0.053894266 0.008239598 -0.008419204 0.07827369
0.07781686 0.055650473 -0.000295157 0.008981264 -0.027695298 0.02769879 0.03779698 0.06822286
00000000: 4908 903e dd8a 37be 43ec 1ebd 76c9 293d
00000010: 70b2 373d 9ebc 08bd f991 e8bd f89c 383d
00000020: cd9e 8fbd aa95 23be a867 743d 8755 0fc0
00000030: 6a69 ba3d df46 803d 6ea8 85c0 1848 e23d
00000040: d966 473e 0f4c d13c 384a c63c 9b5c e7bd
00000050: 7314 593d 0789 fd3e 6b9c 4bbe e085 74bd
00000060: 2ad3 ec3a 235c d13c cc73 863d 1972 a53d
00000070: 67f9 213b 5a53 58bd 8e2e 503b 841a 1abf
00000080: 43c2 73bb 7b3f d23c d8a2 7e3d 5d3c f8bd
00000090: 4f37 523c 209a a43c 7370 10be 6925 b13e
000000a0: d717 b03d fbc3 a9be ba61 c93c 7efc bf3d
000000b0: 2c3b 093d 9e6b e5be 5236 c33d f7a8 923d
000000c0: 5f0c adbd ad26 95bd 46d0 613b adc4 e7bc
000000d0: 4d92 493d ba5c 8e3d d7fe 7f3d 0524 ba3d
000000e0: 3a89 983d cb43 87be c560 413d 4b2b b33d
000000f0: d04b a6bd f821 96bb 8624 9e3c 0b1d c23d
00000100: 7374 373c 8812 3db9 6323 6a3d 11b6 8cbc
00000110: c9e8 45be 3441 dfbe 575d c5bd b5f1 46be
00000120: b839 8c3b a042 f3bc 0023 8c3c 043e 7a3d
00000130: dfc0 273d d89d 97bd b018 bf3d 33ee 1cbc
00000140: 7f46 a33d 5344 bc3c cd36 923c 55b2 d8ba
00000150: 022d 94bc 36cb 24be e540 c3bd e8b1 9dbd
00000160: 2217 523e a720 dbbc 03bc 0f3c cde5 91bb
00000170: 8e31 633b 8c9b 50bd d3af 843c ce1b 033e
00000180: 239a 5e3e d29a 573d 686a e63d f903 1bbd
00000190: 5466 d73c 1ec2 a93f b1bb 7abc 62ac 573d
000001a0: 0304 903d 5e78 153d 37e8 063d b878 243d
000001b0: 1e23 adbf c5f4 4c3f 9f4b d8bc 5a7e d33e
000001c0: f3ae dabd ea91 74bd f1f5 acc0 e827 3ebd
000001d0: 0a5d 573e db76 443e e625 4fbd 7029 d23d
000001e0: 2e6d 8dbf 55d1 4d3c 0450 a9bd d7b3 033d
000001f0: 98e9 9a3d 9478 5e3d c198 e2be e812 42bd
00000200: 407d b73c 9db9 46bd 96e9 17bb 7712 953f
00000210: 24fd 40bd 7a2b 76bf 163f bd3d f98f 393f
00000220: 8463 9dbd 9ad5 dfbb a109 c13d a519 4b3d
00000230: fb57 07bf c1ff d63f 4796 f0bc 43f5 693d
00000240: ed80 b83d bbcd 1a40 63e2 5ebd 5dc4 2dbd
00000250: 3bd5 883d 4b3b bdbd 720f adbc 2576 97bd
00000260: db6e a93d f099 4c3d 1547 3e3d cd08 5c3c
00000270: 1b01 dc3c 4bbd 94bd 970c 343d 00e8 32bb
00000280: e707 5dbc 8c66 c63c e369 e5bd e03a 2fbd
00000290: 3f53 a6bd b5bf 9d3d 9d22 1f3d 54dd 6a3d
000002a0: 45b0 7e3f 1108 7f3e 5a73 0dbd bf02 ac3d
000002b0: ee38 9e3d 0014 8cbd d028 fdbb 6148 58bd
000002c0: f85c 623e 4d20 8dbc 23a9 57bd f397 8f3d
000002d0: ee5f 8b3d 4e5b a23d 3bba 10bd 3757 b23d
000002e0: 0fec 20bd faa2 95c0 73a4 573d 57d5 c03d
000002f0: a209 413f 5703 93bd 3027 78bd d0c0 6b3d
00000300: b840 8c3d cb6f c83c 87f6 503d d8dc ed3d
00000310: a24d 0c3f c6f5 8ebd 0131 e3bb df3e f5be
00000320: 94ab 6abe 6ec8 80bd 5423 cf3c 700e 25be
00000330: da62 0ebc 0d8e 81bd b514 11bd 7e59 df3c
00000340: 1d13 1d3e aacb 0ebd e910 2b3e 3499 863e
00000350: 8737 69bd 0b3a 773d b86a a63d 5686 12be
00000360: 4bda 88be 3327 38bd f82b 79be 643e df3d
00000370: bf31 71bf 73f9 81be c420 febb fabf b7bc
00000380: 84ed 16bd 0672 5c3d 9103 c13d 7422 153e
00000390: c7b1 123d b0af 7b3c 65d1 fabc f743 5c3c
000003a0: b0ae eb3d 33e0 0c3f 96e3 4bbd 0cbb 413e
000003b0: 413b 693d 07df ac3c dfe5 053c f63e 613d
000003c0: 26dc 513d 4109 5fbf 9586 84bd ebb1 a53d
000003d0: 3cc0 5cbd 61ff 063c b3f0 09bc f54d a03d
000003e0: 725e 9f3d c0f1 633d 4dbf 9ab9 2726 133c
000003f0: 40e1 e2bc 93e8 e23c 02d1 1a3d 6db8 8b3d

predictor.4.bias f4 [4]
0.25291947 0.8886375 -1.2275546 1.3638451
00000000: a97e 813e bf7d 633f 8220 9dbf 7a92 ae3f
