models/squares/100/teacher_config.pt (torch, 144730 bytes, 9 tensors)

decoder.0.weight f4 [2, 400]
000000 ea ab fc bd c2 73 60 b9 92 7f 21 be 31 7c 52 bd
       -0.123374775 -0.00021405428 -0.1577132 -0.05138797
000010 d7 57 11 3d ed b2 0b be 5f fa 08 3e 07 49 f1 3d
       0.03548416 -0.13642474 0.13376759 0.11781507
000020 d7 7a 09 3d 2d 26 b2 3c 69 88 da 3d 02 53 0f be
       0.033564415 0.02174672 0.106705494 -0.13996509
000030 5d bf 3c bd 69 84 26 bd 83 1c 20 3e 19 83 c6 3c
       -0.046080936 -0.04065362 0.15635876 0.024232434
000040 85 c4 cd 3c 8d 0c e5 3b e7 0f 0f 3d bf f1 a2 3c
       0.025118122 0.0069900216 0.034927275 0.019890664
000050 de 77 ac 3b 8a ac 01 bb c7 49 1d bd 29 a0 27 3e
       0.0052633127 -0.001978668 -0.038400438 0.1636969
000060 e8 84 46 bc 75 1e e0 3d 23 a4 43 3d a9 d8 a8 bd
       -0.012116648 0.10943309 0.047763955 -0.0824445
000070 0b 84 8e 3c bd 29 1a be 0d ab b3 bd 67 a1 1b 3d
       0.017396947 -0.15054984 -0.0877286 0.037995722
000080 87 8e 84 3c b7 81 04 3d f6 b7 f8 3d 6a 25 05 3e
       0.016181244 0.03235027 0.12144463 0.13002554
000090 35 9a 0f bd 6c 08 86 bc 23 80 f4 bc 9f 44 36 3d
       -0.035059173 -0.016361438 -0.029846257 0.044499036
0000a0 02 1c 02 3e 63 3e de bc df bd 21 3d d0 0b 2b be
       0.12705997 -0.027129358 0.039487716 -0.16703725
0000b0 b5 de 21 3d 9f d9 3f bd b2 3b 34 be c1 d9 b7 bd
       0.03951903 -0.0468384 -0.17600897 -0.0897708
0000c0 2d 48 22 bd 6d c1 37 bd 99 18 d1 3d 72 73 46 3c
       -0.039619613 -0.0448622 0.1020977 0.012112485
0000d0 60 f2 01 be ca 53 e6 bd 9d 8a d2 3d f2 16 63 3c
       -0.12690115 -0.1124645 0.10280345 0.013860451
0000e0 65 5c 18 3d 4f f9 98 3c 3b 10 ed bc f3 ee 1a bd
       0.03719749 0.018673567 -0.028938403 -0.037825536
0000f0 3f f3 d8 3d 1c d5 09 3e 7d 3b 22 3e c0 5d f3 bd
       0.105932705 0.13460201 0.15843005 -0.11883116
000100 1f f3 2f 3e 06 c1 2d bc cd 02 b0 bd ee 60 f4 bb
       0.17182587 -0.010605102 -0.08594284 -0.007457844
000110 24 36 26 be 56 dd ee bd d1 a8 2f bd 70 3d ac 3a
       -0.1623159 -0.1166331 -0.042885605 0.0013140868
000120 65 21 0d bd 1d d5 bc bd 1b 6d 33 3e 03 99 2a 3e
       -0.034455676 -0.09220336 0.17522089 0.16659932
000130 32 c0 05 bd 9c a2 3a bc d5 0c 26 3e 89 cd b8 3c
       -0.032653995 -0.011391308 0.16215833 0.022558944
000140 18 cd 09 3e 10 47 07 3e 9e 32 f1 3c fb 01 cc 3d
       0.13457143 0.13210702 0.029443081 0.09961315
000150 88 af 0b ba d7 01 15 3e b7 3d 0e 3e ab 8d b3 bd
       -0.00053285854 0.14551483 0.1389073 -0.087672554
000160 f7 bb 9d 3c 31 8a 19 3e 62 c3 1c be a1 17 e9 bd
       0.019254668 0.14994122 -0.15308908 -0.1138146
000170 d9 ca ac 3c 77 4c b8 3d af 31 30 3e e5 5a 19 3d
       0.021092819 0.089989595 0.17206453 0.0374402
000180 c6 a5 0a 3e 15 01 c2 bd b2 30 f4 3c 89 de 25 bd
       0.135398 -0.09472863 0.029808376 -0.04049543
000190 83 10 25 bd 31 96 b7 bd b7 e1 bc bd 05 17 d3 bd
       -0.04029895 -0.089641936 -0.09222739 -0.10307125
0001a0 f9 fd cf 3d 55 ff cc 3d 7f 76 7f 3c 53 08 a8 bd
       0.10155863 0.10009638 0.0155922165 -0.08204713
0001b0 fd cc 33 3d 20 de 1b be 64 44 28 be 62 27 ed 3d
       0.043896664 -0.15221453 -0.16432339 0.11579777
0001c0 54 42 20 be 2d b5 d2 bd 82 31 0a be 7b b1 0f bd
       -0.15650302 -0.10288463 -0.13495448 -0.035081368
0001d0 c0 91 f3 bd 0f 2f c0 bd 4b f6 0d 3d df 1f 2f 3e
       -0.11893034 -0.09383976 0.03465871 0.17102002
0001e0 52 b3 2a bc cb 5e ec bc e1 4e 3a 3e e5 c0 a4 bd
       -0.01041873 -0.028853795 0.18194152 -0.08044604
0001f0 31 fc 7e 3c 48 57 bb 3b 55 ae 9b bc d2 22 1e be
       0.015563057 0.005717192 -0.019004026 -0.1544297
000200 5d c1 ca bb ae 06 22 be 74 27 f2 ba 65 7c 1b 3e
       -0.0061876015 -0.1582286 -0.0018474893 0.15184171
000210 23 c9 23 3e 49 7a a2 bd cc 03 2c 3c ff 31 9f 3c
       0.15994696 -0.0793348 0.010498952 0.01943302
000220 f0 05 24 be 8f dc fa bc c1 6e 75 3c e3 f5 c5 3d
       -0.1601789 -0.030622749 0.014980019 0.0966604
000230 a0 ea 21 3c 44 47 31 be 03 53 28 bd 2d 37 3d 3e
       0.009882599 -0.17312342 -0.04109479 0.18478079
000240 e8 bc 13 3e 83 07 d6 bd 3f 4f 0a bd c1 66 03 3e
       0.14427531 -0.104506515 -0.03376698 0.12832166
000250 b9 a8 ca 3d c2 a3 65 3c b7 b5 b9 3d 74 56 1b be
       0.098954625 0.014016094 0.090678625 -0.15169698
000260 d1 41 1e 3d 93 cf ab bd 03 fe 0e be b1 f4 c7 3c
       0.038636986 -0.08389201 -0.13964085 0.02440867
000270 08 a9 a5 bb 7a f9 2c be d3 48 fc 3b 2d d6 17 be
       -0.0050555505 -0.16892043 0.007699111 -0.14827795
000280 c8 30 31 be 8c af ff 3d 8c 58 09 bc 0d a2 12 bd
       -0.17303765 0.12484655 -0.008382928 -0.035799075
000290 af 37 c0 bc 9b 23 33 bd af 31 e3 3c b7 a0 0e bc
       -0.023464052 -0.043735128 0.027733652 -0.00870531
0002a0 a5 8f 19 3e c8 da 11 3e 46 d8 fc bc 78 78 c4 bb
       0.14996202 0.14243615 -0.030864846 -0.0059958063
0002b0 77 61 2f 3e 15 ed a2 bd 82 21 2c bc 64 5c f9 bd
       0.17127024 -0.07955376 -0.010506036 -0.12175825
0002c0 e3 f9 13 3d 54 0b 03 3e 56 eb 07 be 92 62 f6 bd
       0.036126982 0.1279729 -0.13273367 -0.120305195
0002d0 fc 8e 13 be 38 f9 15 be 83 ba 6e 3c 3f 54 e2 bd
       -0.14410013 -0.1464585 0.014570835 -0.11051225
0002e0 89 54 d8 3c 63 25 df 3c b1 76 2e 3d 37 86 09 be
       0.026407497 0.027239507 0.04259366 -0.13430105
0002f0 5f bd ba bc 19 63 d1 3d 81 26 1e 3c 65 e7 31 3e
       -0.022795377 0.102239795 0.009652735 0.17373426
000300 eb 5f 06 bd a2 d4 1b bc a7 23 c6 3d f0 31 48 bb
       -0.03280632 -0.009511145 0.09674769 -0.0030547343
000310 61 34 c3 bd aa 71 2b be a0 53 47 3c c8 e6 1b be
       -0.09531475 -0.16742578 0.012165934 -0.15224755
000320 16 2b fc bd b7 58 2b 3d 6d e4 98 bc eb 5c b1 3c
       -0.123129055 0.041832652 -0.01866361 0.021650752
000330 41 18 b9 3d fb 53 3b 3e cf ed 47 3d ce e6 17 bc
       0.09037829 0.18293755 0.048810776 -0.009271337
000340 7f 53 a4 3c 59 c5 bb 3d 75 d1 39 bd fb 49 9f bd
       0.020059345 0.091685005 -0.04536577 -0.077777825
000350 8d 12 30 bd c7 7d 22 3e 7b 8e af bd ab 04 22 3d
       -0.04298644 0.15868293 -0.08572098 0.039555233
000360 47 68 dd 3d 21 45 21 bd 55 19 b6 3d 15 3c 24 bd
       0.10810905 -0.039372567 0.088915505 -0.04009636
000370 61 41 4b bd fd ab 0b 3d c0 b8 02 be 8f 2b 95 3c
       -0.049622897 0.034099568 -0.12765789 0.018209247
000380 da 39 32 be f9 ea bb bd 45 ed 03 bc b4 12 00 3e
       -0.17404881 -0.09175677 -0.008052175 0.12507135
000390 61 69 09 bd ad 75 47 bd 1f 6d 10 be bc 91 ea 3d
       -0.033547763 -0.04869621 -0.14104126 0.11453578
0003a0 5a 7d ff bd 13 e8 1b 3d e1 b3 02 3d a1 6f c3 3c
       -0.12475081 0.03806312 0.031909827 0.02385694
0003b0 8d b9 08 3e d7 0b 92 bc 9f e5 d2 3d 21 d3 ba 3d
       0.13352032 -0.017827911 0.10297703 0.09122301
0003c0 d7 01 2c 3e 3d 9e 25 3d 4d f1 a5 bd ed 89 3e 3d
       0.16797577 0.04043411 -0.08102665 0.046518255
0003d0 f5 d5 c5 3c 3e df 08 3e 0f 89 09 3d a2 1a 19 bc
       0.024149874 0.1336641 0.033577975 -0.009344729
0003e0 6d d2 32 3e 7c 7f f2 bc ed c8 d8 bd 35 78 d7 3d
       0.17463084 -0.029601805 -0.105851986 0.105209745
0003f0 0a d2 25 be 6d 99 97 bc bf 2e b5 3d 1a 70 30 bc
       -0.16193405 -0.018505776 0.08846807 -0.010768915

projector.0.weight f4 [40, 4]
000000 65 b3 39 3f 3f 1b 5c be 83 82 03 3d 04 47 84 bd
       0.7253936 -0.21494769 0.032106888 -0.06458858
000010 ef c6 de 3e d7 cd 74 be eb 2a a3 bd 2a 5b b5 be
       0.4351115 -0.23906647 -0.0796717 -0.35421115
000020 ea b7 09 bd f4 2e 38 bd c1 85 5b 3e 8d 5c 1e be
       -0.03362266 -0.044966653 0.21437742 -0.15464993
000030 91 b9 4b 3e 98 d0 b7 3d ef cb e7 3e cb f7 91 bd
       0.19895007 0.08975333 0.45272776 -0.07127341
000040 48 44 f6 3d 3d 67 00 3f 62 9f 04 3f 67 ea 9e be
       0.12024742 0.5015753 0.518057 -0.3103821
000050 08 82 be be ad 3a 41 3d 5f 9b 7c 3e 3e 34 d1 3b
       -0.3720858 0.0471751 0.24668644 0.0063844016
000060 e8 9d 9e 3e 1c a6 14 be 80 17 a7 3b f8 73 c6 3e
       0.30979848 -0.1451649 0.005099237 0.38760352
000070 d4 e1 19 3e 97 50 71 3e e5 a3 37 3e 98 34 7f be
       0.15027553 0.23565899 0.17933615 -0.24922407
000080 18 b8 da bd 0e 49 e5 3d 4e b5 8f bd a8 9a 83 3e
       -0.10679644 0.11195575 -0.07017003 0.2570393
000090 73 51 34 3e 8e 56 d8 3e 1e 5a fe 3e 08 2a b2 3d
       0.17609195 0.42253536 0.4967813 0.08699423
0000a0 cb 58 d9 3d 03 ab a8 3d 57 43 2f be bc a7 53 3e
       0.10612639 0.08235743 -0.17115532 0.20669454
0000b0 5e 98 ea be e6 d9 af be df 0f b0 bc 7d e1 b5 be
       -0.45819372 -0.3434593 -0.021491943 -0.35523596
0000c0 06 35 20 3e bf 9a de 3c 10 c5 07 bf 7f b8 80 bd
       0.15645227 0.027173398 -0.5303507 -0.0628519
0000d0 8c ee 82 be 6c e9 01 be e0 3c 79 3c 86 26 f5 be
       -0.25572622 -0.126867 0.015212268 -0.47880954
0000e0 51 fd 51 be cd 94 85 be 57 35 d1 3e 74 a4 00 be
       -0.20506789 -0.26090088 0.40861008 -0.12562734
0000f0 e0 60 2a be c4 57 55 3e 70 f1 23 3e 68 92 f5 be
       -0.16638517 0.20834261 0.1601007 -0.47963262
000100 fb a5 75 3e 74 7b 0e be 12 9a df 3d 1b 0a e7 3e
       0.23989098 -0.13914281 0.109180585 0.45124897
000110 60 60 8a 3e 90 a2 2d be be 35 9d 3e b6 67 66 3d
       0.27026653 -0.16956544 0.30705065 0.05625125
000120 4d c9 72 3e 87 7c e3 3a 9d 18 f8 bd e8 95 ce 3e
       0.23709603 0.0017355838 -0.121140696 0.40348744
000130 5d 66 94 be ce b2 74 3e 41 6a e2 3e 47 83 bd 3e
       -0.28984347 0.23896334 0.4422169 0.3701422
000140 ff 72 43 3e 47 5a 8f 3e 3b 02 cf be be 21 82 be
       0.19086836 0.27998564 -0.4043139 -0.25416368
000150 26 63 5e 3e 9b d0 e5 be e3 ed 2a be 07 13 be 3e
       0.2171751 -0.44885716 -0.16692309 0.37123892
000160 67 24 02 bf e7 f5 06 3f ee 69 01 3f 85 ec cf 3e
       -0.50836796 0.5271897 0.5055226 0.40610138
000170 c1 d4 b7 be 9f 00 9d be 32 09 11 3e ce 56 a1 3e
       -0.35904506 -0.30664536 0.14163664 0.3151154
000180 52 9f bd be c9 0f 52 bd 01 3c 08 bf 8c 3a b0 be
       -0.37035614 -0.051284585 -0.5321656 -0.34419668
000190 9a 55 31 bd ab 31 b7 be a1 e3 a3 3e 8e b9 00 3f
       -0.043294527 -0.3578008 0.32009605 0.50283134
0001a0 4b b6 ee bd 82 ad e3 3e b3 77 8c be db 83 ff be
       -0.116558634 0.44468313 -0.27435073 -0.49905285
0001b0 6e 94 46 be ce ff 9f be a9 eb ad 3e d8 33 98 be
       -0.19392559 -0.3124985 0.33968857 -0.29727054
0001c0 ed 61 fc be 60 69 20 3e d2 d6 4e 3e ea 5a cb 3d
       -0.4929346 0.15665197 0.20199135 0.0992945
0001d0 e3 37 b6 3d c5 ff a9 be 40 99 a9 3e 2a 57 2a 3e
       0.08897378 -0.3320295 0.33124733 0.16634813
0001e0 fe 47 a4 be 81 42 0f 3f 29 af 0f bf 70 79 63 bd
       -0.32086176 0.5596085 -0.5612665 -0.055535734
0001f0 dd 12 a5 be d8 f8 eb 3b 5b 07 9e bd 1c 57 27 3e
       -0.32240954 0.0072012953 -0.07716247 0.16341823
000200 23 d3 99 be 21 64 4a bd 1c 19 4c bd b8 e6 ce be
       -0.30043897 -0.049411897 -0.049828634 -0.404104
000210 e6 b7 80 bb 51 ab 96 bd 26 d7 0b 3f d7 61 23 3c
       -0.0039281724 -0.07356895 0.54625165 0.009972057
000220 96 f6 c1 bd 7e c7 41 be f3 77 89 be b0 03 45 bd
       -0.09470861 -0.18923756 -0.26849326 -0.04809922
000230 9c ea ec bd 08 8f 3c 3e dd ac a6 3e 70 68 8a 3d
       -0.11568186 0.18413937 0.3255376 0.06758201
000240 fd 23 62 3e a9 5c fd 3e 42 7d 08 bd 0d 74 62 be
       0.22084041 0.49484757 -0.03332258 -0.22114582
000250 85 8d 8f be 16 a5 e9 3e 41 1b d4 be a2 36 5e 3e
       -0.28037658 0.45633763 -0.41427043 0.21700528
000260 04 71 f0 3e 20 9b 79 3e 92 18 aa 3e 7c 68 87 be
       0.46961224 0.24375582 0.3322187 -0.26446903
000270 6b 8e 3a 3e 57 17 df bd 6e b9 c7 be ba d5 d4 bd
       0.1821839 -0.108931236 -0.3900866 -0.103923276

projector.0.bias f4 [40]
000000 32 5c c8 bd 9d ab df 3c 47 53 b5 bd 34 c8 41 be
       -0.0978321 0.027303511 -0.088537745 -0.18924028
000010 fb ad 0a 3f 11 6f c6 3d 30 29 f7 be a0 d6 d6 3e
       0.54171723 0.09689153 -0.4827361 0.4196062
000020 29 8b b3 be 99 4a d7 3e 65 80 6a be d0 92 5e 3d
       -0.35067108 0.420491 -0.22900541 0.05433923
000030 b1 b8 eb 3e d0 91 ff 3d 49 7e 41 3e 0d 54 e7 3e
       0.46039346 0.124789834 0.1889583 0.45181313
000040 b4 33 ab be fa 9b fd 3e 80 b6 b1 3e a6 a2 f9 3e
       -0.33437884 0.49533063 0.3470955 0.48756903
000050 c1 07 93 3e e0 6b 2b bd 7e cd 6a 3d 03 cb 87 bc
       0.28716853 -0.041850924 0.05732488 -0.016576296
000060 95 69 e6 3c e3 48 41 bd 87 1a d9 3e ae 55 99 3e
       0.028126517 -0.04718865 0.4240305 0.2994818
000070 3c a7 22 3d 7d 1e 63 3e ba d3 d3 3e 01 8e 7e be
       0.03971027 0.22179599 0.41372472 -0.24858858
000080 cc e7 e9 3e a4 87 ad be f0 9a ca be c4 10 52 3d
       0.4568466 -0.33892548 -0.39571333 0.05128552
000090 93 f4 81 be 12 f1 d4 3d 67 71 ee 3e 84 1b ba 3e
       -0.25381908 0.10397543 0.46570894 0.36349118

projector.2.weight f4 [400, 40]
000000 53 ec 01 3e b7 4b 5b bd 45 fe 5b bd 06 4c 16 bd
       0.12687807 -0.053539004 -0.053709287 -0.036693595
000010 db e7 19 3e 7f 3f 27 3e 79 26 a1 bd 32 84 5c 3e
       0.15029852 0.16332816 -0.07868666 0.21534804
000020 90 a9 62 bd e6 82 11 3d 44 a7 92 3c a1 3b 28 bc
       -0.05533749 0.035525225 0.017902024 -0.010268123
000030 a6 fa 4e 3e 73 ce 58 3e 34 7b 12 3e 05 cf 47 3e
       0.20212802 0.21172504 0.14304811 0.19512565
000040 93 4a cb bd 3b 0f 3e 3e f9 dd 31 3e 87 05 04 3e
       -0.09926333 0.18560497 0.17369832 0.12892734
000050 ce cd 74 3e d8 08 27 bd de 39 1f 3e 9f 21 33 3e
       0.23906633 -0.04077992 0.15549418 0.17493294
000060 b0 54 1f 3e cc 49 71 bd d8 f0 23 bd b5 5f 5b bd
       0.1555965 -0.05890827 -0.04002461 -0.05355807
000070 d6 81 c7 3c 4b a7 de bc 1c 6d 76 3e 75 ce 5c bb
       0.024353903 -0.02717938 0.2406506 -0.0033692394
000080 48 6f f1 bc 09 9f 68 3d 74 37 26 3e 7e 36 5c 3c
       -0.029472008 0.056792293 0.16232091 0.013440726
000090 17 33 d4 3d 49 29 be bc e5 8f 50 bd 4a 22 53 3e
       0.10361307 -0.023213046 -0.05091848 0.20618549
0000a0 58 27 d8 3d 03 af 91 bd b5 51 60 3e bc 1f c7 3d
       0.10554379 -0.07113459 0.21906169 0.0972285
0000b0 f8 0e 13 3e 86 32 4a 3e 3b db 8a bd 19 7f 1f 3e
       0.14361179 0.19745836 -0.06780096 0.15575828
0000c0 0d d3 de 3d 85 82 f6 3d 56 6f 10 3e 58 6b bb 3c
       0.108800985 0.120366134 0.14104971 0.022878334
0000d0 53 19 d4 3c 0e 0c 7a 3e d3 2d 73 3d 35 e8 fd 3c
       0.025890982 0.24418661 0.059369873 0.030994514
0000e0 8e a1 86 3d 38 d6 93 3d 5d d7 41 3d 4f c2 a1 3d
       0.06573783 0.07218593 0.047324527 0.078983895
0000f0 c7 f3 06 3e fa 20 e1 bd 54 08 9c bd ad dc d8 bd
       0.13178931 -0.10992618 -0.07618776 -0.105889656
000100 ac 39 28 3d ce af fb bc f4 0c 17 3e f6 d8 87 ba
       0.041070625 -0.030723479 0.14751035 -0.0010364342
000110 9f c9 b6 bd a9 10 15 3e d8 6a e0 3d e1 b5 cc bd
       -0.08925175 0.14557137 0.10957879 -0.09995628
000120 40 ac 15 3e 92 e5 6a 3e d2 00 91 3c 2d 1a 07 3e
       0.1461649 0.22939137 0.017700586 0.13193579
000130 1f 24 6e bd 15 36 7a 3e 0e 5a 8d 3b 94 79 9a 3d
       -0.058139917 0.24434693 0.004313714 0.075427204
000140 69 ce 09 3e 00 d9 4c bc fb 62 3e bd b7 14 c0 bd
       0.13457645 -0.012502909 -0.046481114 -0.09378951
000150 0a 0c d5 3c e8 8b b7 bd d9 84 02 3e dd 1d 24 bc
       0.026006717 -0.08962232 0.1274599 -0.010016886
000160 96 d4 6b 3d a3 29 a8 bd cf c4 4a 3d 28 db 86 3d
       0.057575785 -0.082110666 0.049504098 0.065847695
000170 d8 dd a6 3d 2e e7 b9 bd fe 90 5b 3d e0 a7 9a bd
       0.08147782 -0.09077297 0.053605072 -0.07551551
000180 4e d8 55 3d 55 84 16 be 14 8b 1e be 53 18 4a bd
       0.052208237 -0.14698918 -0.15482742 -0.049339604
000190 94 cf df bd 17 e7 85 bc 39 d7 05 be 79 c8 65 bd
       -0.10928264 -0.016345544 -0.13070382 -0.05609939
0001a0 3d 83 9d 3d 16 49 fe 3d d9 d9 bf bd 67 7f a0 3d
       0.07691047 0.12416284 -0.09367723 0.078368
0001b0 36 f6 1a be fa ac 7b bd d4 ca 82 bc 05 c7 30 bd
       -0.15132985 -0.06144426 -0.015965857 -0.04315855
0001c0 04 4a e6 3d 99 cc e6 bd df 0b ed bd 48 92 f9 3d
       0.11244586 -0.11269493 -0.1157453 0.12186104
0001d0 9e e1 73 3d 92 63 94 bc 63 ca 91 3c dc b1 11 bd
       0.059541337 -0.018113885 0.0177967 -0.03557001
0001e0 99 38 d7 3d 49 81 0b 3d 4a be 6e 3d 9c 80 25 bd
       0.10508842 0.034058843 0.058286943 -0.040405855
0001f0 07 a6 f5 bd 72 d0 30 be 2c e6 9a 3b fb 62 0f bc
       -0.11994558 -0.17267016 0.0047271457 -0.008751626
000200 4d d2 0f bd 8d 11 ce 3d d8 23 36 3d 03 40 40 be
       -0.035112668 0.10061941 0.044467777 -0.18774419
000210 3a 3d 42 3c aa 26 41 3d 1e fd 44 3d 2c 97 2e be
       0.011855418 0.047156014 0.048092954 -0.17049855
000220 e4 90 41 3e 7f e6 e8 bd b5 d1 58 3e d8 f9 68 bd
       0.18902928 -0.11372089 0.21173747 -0.056878895
000230 b4 4e c2 3d 7f 3e 22 3e b6 ad f5 bd 6e be 66 bd
       0.09487668 0.15844153 -0.11996023 -0.05633395
000240 4d a1 ef bc 6f 61 00 be 5e d5 0a bd b8 34 8a 3d
       -0.029251719 -0.12537168 -0.03389489 0.067483366
000250 65 19 85 3d 56 bf b9 bc 6f 08 9d bc 93 49 60 3d
       0.06498984 -0.022674244 -0.01916906 0.054757666
000260 0f da 90 bc d9 1e 30 be 28 05 c1 bc 84 e3 02 be
       -0.017682103 -0.17199267 -0.023562029 -0.12782103
000270 df 68 a5 bd d9 87 de bd ee c6 2a 3d bc 77 b9 bc
       -0.08076643 -0.10865755 0.04169362 -0.022640102
000280 0e 7d 9e 3e 98 0f 72 bd f9 45 5d 3e 25 31 5e 3e
       0.30954784 -0.059096903 0.21608724 0.21698435
000290 e4 6c 71 3e 8e de 66 3e 94 a8 19 bd 74 68 05 3c
       0.23576695 0.22545835 -0.037514284 0.008142579
0002a0 bb d5 03 bd 58 de 49 3e e0 6f 97 bd 26 35 92 bd
       -0.03218625 0.19713724 -0.07394385 -0.071390435
0002b0 21 a8 38 bd 10 0f 04 3d e6 74 13 3e 7d 0a af 3d
       -0.045082215 0.032240927 0.14400062 0.08546922
0002c0 cb a8 bf 3d 77 14 76 3d ea 52 a3 3d 6f 7b f9 3c
       0.093583666 0.06007811 0.07974799 0.030454366
0002d0 7a d3 30 3e 7a 8c 9d 3d 8e 8d 3a 3e f3 cd 82 3c
       0.17268172 0.076928094 0.18218061 0.015967345
0002e0 d4 de 0d bd 5f 15 0b 3e b7 d4 9b 3c 78 ba 06 3e
       -0.034636334 0.13582371 0.019022329 0.1315707
0002f0 11 67 42 3e 09 99 c1 3d 0d 6d e7 3d e7 e4 77 3d
       0.18984629 0.09453017 0.11300097 0.060521033
000300 b2 8d 77 3e 35 8b 1d 3e 2d ca 3a 3d 63 ad 03 bd
       0.24175146 0.15385135 0.045602966 -0.032147776
000310 2a da 65 3e eb 97 66 bd 4b 32 8b 3d 25 f9 38 bd
       0.22446504 -0.056297224 0.06796702 -0.045159478
000320 fe ea a5 3d 7a a9 12 be c5 69 40 bc 1b 0f 7f 3d
       0.08101462 -0.14322463 -0.011743967 0.062270265
000330 5e 06 56 bd d7 2d 62 3b 3a 69 11 bd da f4 d1 bd
       -0.052252166 0.0034512186 -0.035500742 -0.1025178
000340 f1 02 0f 3c 91 40 27 3c 05 d3 3f be af 81 49 be
       0.008728729 0.010208265 -0.18732841 -0.19678377
000350 5c 5c 9e 3d 53 b2 b5 3c 5f 03 0b be b6 06 1b be
       0.0773246 0.022179758 -0.13575505 -0.15139279
000360 8c 10 08 3e 26 dd 24 bd ed 1d a7 bd e5 2e 10 be
       0.13287562 -0.040249966 -0.08160005 -0.14080389
000370 49 9d ec bc 5f ed 7f 3d 0d 27 08 be 12 a4 6b 3d
       -0.028883593 0.062482234 -0.13296147 0.057529517
000380 4d 9d 11 be 0b cc 9f bd f8 de cb bd c0 66 a1 3a
       -0.14220162 -0.0780259 -0.09954637 0.0012313947
000390 56 6d f2 bd 97 49 01 3e 19 10 1c 3c 4f 37 f4 bd
       -0.118372604 0.12625729 0.009525322 -0.11924612
0003a0 41 f0 b7 3d dc 86 14 3e 90 61 cc 3d cf 17 b0 3d
       0.08981372 0.1450457 0.09979546 0.08598291
0003b0 c0 22 e4 bc 80 00 8e 3c e7 43 29 bd c7 a1 37 be
       -0.027848601 0.017334223 -0.041324522 -0.17932807
0003c0 54 df 6a bd 68 54 8c bd 58 74 7c bd f9 ef 06 3d
       -0.05734189 -0.06852037 -0.06163439 0.0329437
0003d0 ca 00 f4 bc f1 d0 01 3d f0 3e 87 bd 7a 2b 4f be
       -0.029785533 0.031693403 -0.06603801 -0.20231429
0003e0 8f 80 e3 3c 84 48 58 be 1c d3 66 bd 3c 51 01 3d
       0.027771262 -0.21121413 -0.056353673 0.03157161
0003f0 e9 1e 26 be ea 2b 07 be 5e 41 04 3e 3f ea dd 3c
       -0.16222729 -0.13200346 0.1291556 0.027089236

projector.2.bias f4 [400]
000000 5d a5 c8 3d e7 86 81 3e 53 15 b7 3d 55 e3 81 3d
       0.097971655 0.25298235 0.08939614 0.06342188
000010 0a 3a e7 3d bc 32 e9 bd 80 78 16 be 43 65 48 3d
       0.11290367 -0.1138663 -0.14694405 0.048924696
000020 b9 25 23 3d e0 14 a5 3d 54 5d 3a bc 82 e0 c3 bd
       0.039830897 0.08060622 -0.01137479 -0.09564306
000030 75 cc eb 3d e2 76 cb 3d 70 cb 8d 3d 4d e3 57 3e
       0.115136065 0.099347845 0.06923568 0.21082802
000040 e3 3c 7c 3d 28 5f f0 3d 78 3c 05 be 94 ba 85 3e
       0.061581504 0.117368996 -0.13011348 0.2611891
000050 9a ea 52 be 1e f1 87 bd 4b eb 87 3d 89 61 10 be
       -0.20597306 -0.06637786 0.066366754 -0.14099707
000060 a1 64 9f 3d db dd d6 3d 3f d9 9d 3d 3e c9 1b be
       0.07782865 0.10491534 0.07707452 -0.15213487
000070 36 af e2 3d da 32 35 be fe 7b 56 be 09 c2 87 3e
       0.11068575 -0.1769518 -0.20945737 0.26515225
000080 3c 8c a9 bd f5 d0 59 3e e4 53 4c bd b0 50 03 be
       -0.08278701 0.21271117 -0.04988469 -0.12823749
000090 7f 85 26 3e 13 62 f7 3d 33 ef 1a be 08 9b 75 bd
       0.16261862 0.12079253 -0.1513031 -0.059962302
0000a0 83 17 9f 3e df ac 4a 3e ac 00 55 3e fb 08 79 bd
       0.31072626 0.19792508 0.20801038 -0.06079958
0000b0 d4 43 1a 3e 51 65 6b bd 6b 9a 7a 3e 1e ad 95 3e
       0.15064937 -0.05746967 0.24472968 0.2923364
0000c0 7a 24 50 3d 81 2c 56 3e 10 a6 88 3d 35 ec d5 bd
       0.050816037 0.20915414 0.06672299 -0.104454435
0000d0 87 92 f9 bd 23 ba 97 bc 00 f0 48 3e fe 31 90 bd
       -0.12186151 -0.018521374 0.19622803 -0.07040785
0000e0 14 40 73 3e 00 63 dd 3d 13 7a 88 3d 65 1d cf 3c
       0.23754913 0.108098984 0.06663909 0.025282571
0000f0 91 15 20 3e 94 a9 1e 3d a5 aa 3b bd 2d 2a 3f 3e
       0.15633227 0.03873594 -0.045817036 0.18668433
000100 e3 da e2 bc be fb 08 bd 7d 7d 7c 3e 47 07 98 bd
       -0.027692264 -0.033443205 0.24657245 -0.07423263
000110 ef fe c2 bd 98 0e 5a 3e e3 ce 98 3c 47 db 05 3e
       -0.09521281 0.2129463 0.018653339 0.13071929
000120 5d 7c aa 3d 9b 1d ed bd 59 52 d4 bc a0 64 22 3d
       0.08324502 -0.115779124 -0.025918173 0.039646745
000130 9c 9e 4a be 7b c5 9b 3e f3 16 ff bd 42 91 1a 3d
       -0.19787067 0.30424103 -0.12455549 0.037736185
000140 1b 67 14 3d 52 a8 4a 3c b6 42 de 3d 2c e0 50 3e
       0.03623114 0.012369232 0.10852568 0.20398015
000150 ee fd 4a bd 8c f0 7a 3d e0 21 a5 3c 58 22 f6 3d
       -0.049558572 0.06126456 0.020157754 0.12018269
000160 23 a5 e3 3d df 18 c7 3d e8 8b aa 3c 85 34 dc bc
       0.11115482 0.09721541 0.020818666 -0.026880512
000170 4f bb 12 3e 57 ce 3f be 2e 34 6c 3c 76 6e de bd
       0.14329265 -0.18731056 0.0144167375 -0.108609125
000180 33 e3 4f 3e 24 81 93 3e f8 df 32 3d 6e 45 eb 3d
       0.20301513 0.28809464 0.043670624 0.11487852
000190 50 6e c9 3d 01 15 48 3e ec 25 1c 3e 54 bf 99 3c
       0.098354936 0.19539262 0.15248841 0.01876799
0001a0 6f bb 3e bc 50 f3 aa bd 01 0b 77 3e 6c e5 55 3e
       -0.011641367 -0.083471894 0.24125291 0.20888299
0001b0 42 e8 8d 3e 64 fb 1d 3c 15 a7 65 bd 4c af 19 bc
       0.2771626 0.009642456 -0.056067545 -0.009380173
0001c0 dd c1 18 be 9e 6a eb 3c c6 88 5c ba 12 93 1d bd
       -0.14917703 0.028737362 -0.0008412715 -0.038470335
0001d0 cb d4 3b be 67 79 22 3e 50 ed f5 bd 27 4d 00 be
       -0.18342893 0.15866624 -0.120081544 -0.12529431
0001e0 e1 e5 58 bd 63 f7 ee 3d 47 46 49 be 96 54 d5 3d
       -0.052953605 0.11668279 -0.19655715 0.10416524
0001f0 59 a5 0c be de d1 df 3c 42 9b ac bd 07 dd 32 3e
       -0.1373495 0.027321752 -0.084280506 0.17467128
000200 61 7e 0d 3e 4c 36 5d 3d 1b c3 03 3e fd 5a 9d 3e
       0.13817741 0.05400686 0.12867396 0.3073348
000210 e0 53 9e 3e 36 94 ab bd f7 38 df 3d c5 f0 f6 ba
       0.30923367 -0.08377878 0.10899537 -0.0018840065
000220 23 32 3b 3c ba c9 2e bd 1c c8 81 3e e1 af 3a 3d
       0.011425528 -0.04267285 0.25347984 0.045577887
000230 fd 86 19 3e 72 d3 05 3d c3 54 cd bd a7 36 03 3e
       0.149929 0.032672353 -0.10025933 0.12813817
000240 40 b9 d3 3d 0f 84 34 bc 12 a8 0a 3e c0 b5 a4 3d
       0.10338068 -0.011017813 0.13540676 0.080424786
000250 8c a1 f2 bc d4 63 75 3d 44 80 1f be d3 a1 e9 ba
       -0.029618047 0.059909657 -0.15576273 -0.0017824717
000260 67 60 18 3e d8 6e ca 3d 15 4a 99 bd c9 3d 97 3e
       0.14880525 0.09884423 -0.07484833 0.29539326
000270 7a bc 96 bc 93 f5 63 3d 94 50 a9 3d b9 ac bb bd
       -0.01840042 0.05565412 0.08267322 -0.091638036
000280 27 ea 2f 3e 51 3f 1e bd 8e 5a e6 bb 5c df 10 3e
       0.17179166 -0.038634602 -0.007029838 0.14147705
000290 b5 a8 a0 bd 0a 9e 8e bd da 4b d9 3d cf 65 c3 3d
       -0.07844678 -0.06963737 0.10610171 0.09540903
0002a0 eb 65 83 3d f4 25 7c 3e 08 f3 1b bd 33 a2 a1 3e
       0.06415924 0.24623853 -0.03807357 0.3156906
0002b0 4c 42 b8 bd b2 b1 4c 3e 16 7a 8d 3e c8 db 1c 3e
       -0.0899702 0.1998966 0.27632207 0.15318215
0002c0 84 7f 1d 3e be 79 93 bd 0b fc fd bd 3a ac 03 be
       0.15380675 -0.07200955 -0.12401589 -0.12858668
0002d0 cc 63 4b 3e be 9c e8 bc 2a b2 e8 3b 4c bb d5 3c
       0.19862288 -0.028395053 0.007101317 0.026090287
0002e0 da cc 4c 3e 04 df d1 3d 5e b0 a3 bc 05 cf 31 be
       0.2000002 0.10247615 -0.01998156 -0.17364128
0002f0 b6 67 a8 ba 1c b1 86 bd 9c d8 33 3e 89 da 0c 3e
       -0.0012848291 -0.0657675 0.17563099 0.1375524
000300 86 9a c9 3d 25 92 1f 3e 68 2c b5 3d b5 3f a4 3c
       0.09843926 0.15583093 0.088463604 0.02004991
000310 d0 1d 70 bd 56 c3 08 3d 11 1c 5d 3e 9d be 6c 3e
       -0.05862218 0.033389412 0.21592738 0.23119588
000320 b8 b9 71 bc 99 9d 94 3c f0 97 63 bc 0d 9e e4 bc
       -0.014753751 0.018141555 -0.013891205 -0.027907396
000330 3c ae 08 3e ec 6a 8e 3e bb 47 71 bd da a7 c5 bd
       0.13347715 0.2781595 -0.058906298 -0.09651156
000340 8c d8 a1 3e 3a e9 3b 3e 76 9f d1 b9 6a 8c e6 3c
       0.31610525 0.18350688 -0.00039982394 0.028143127
000350 83 df 9d 3e 8e 2b 1f be 28 57 9c 3d 84 34 b8 3b
       0.30834588 -0.15543959 0.07633811 0.0056214947
000360 b5 c5 1f be 61 c0 3c 3e e1 27 a6 3d 9c c5 99 3d
       -0.15602763 0.18432762 0.08113075 0.07508394
000370 4c c2 96 3d 2e d4 3c be a2 58 73 bd 38 76 2d 3d
       0.07361278 -0.18440315 -0.0594107 0.04234907
000380 79 bb 36 bd 88 9e 59 3e c6 92 41 3e e2 93 14 3e
       -0.04461238 0.21251881 0.18903646 0.14509538
000390 0f 44 23 3e e8 47 65 3a e9 90 81 bd 37 8a 52 3e
       0.15943931 0.00087463716 -0.063264675 0.20560537
0003a0 f4 a0 41 3d b4 61 e0 3d f1 79 8f bb 15 15 78 3e
       0.047272637 0.109561354 -0.00437855 0.24226792
0003b0 24 82 87 3e 59 2c 01 3e a8 03 20 3e ac 1f de 3d
       0.26466477 0.12614574 0.15626395 0.10845885
0003c0 6e 2a 48 3e 0c ac 89 3e f3 08 46 3e 91 b5 f1 bd
       0.19547436 0.26889074 0.19339351 -0.11802209
0003d0 ec d5 b5 bc 08 ec 9a 3e 9d 39 2c be 4e fc f6 3c
       -0.022196732 0.30258203 -0.16818853 0.030149605
0003e0 94 e5 a9 bc 4c 92 81 bd e1 d2 36 be 4d 2b 38 3d
       -0.020739354 -0.06326732 -0.17853881 0.04496317
0003f0 d0 79 32 3d ac 9a 9a bc 64 29 10 be c2 77 92 3a
       0.0435732 -0.018872581 -0.1407829 0.0011174607

projector.4.weight f4 [40, 400]
000000 42 a1 12 bc c4 37 d1 bc e7 2b a9 3c 92 02 37 3d
       -0.00894958 -0.025539286 0.020650817 0.044680186
000010 a7 4b 2f 3d 13 5e 1c bc e7 9c 32 3b f3 5c 65 3c
       0.042796757 -0.009543913 0.0027254166 0.013999212
000020 bf ac 2a bd 67 82 38 3a 08 83 25 bd 48 16 3e 3d
       -0.04166865 0.00070384744 -0.040408164 0.046407968
000030 2b 35 3e bd ee ab c2 bd 5b 24 f4 bc cd 76 7d 3a
       -0.046437424 -0.09505449 -0.029802492 0.0009668887
000040 47 76 c9 bd 77 c4 5d bd e8 4b 0a 3d 07 8f c5 bd
       -0.09837013 -0.05414244 0.033763796 -0.09646421
000050 67 65 ff 3c 53 fa 49 3c 8a 1b ed bc d3 6c b7 3c
       0.031176282 0.012327748 -0.028943796 0.022390759
000060 1a f0 44 bd a0 cb 3b 3c 8b 84 92 bd f8 a8 44 3d
       -0.04808054 0.011462122 -0.07154187 0.048012704
000070 ab c2 35 3d 10 9c 27 bd e3 70 eb bc 3a f9 06 bd
       0.044375103 -0.040920317 -0.028740352 -0.032952525
000080 6d 1e 92 3c de b6 72 bd 67 00 cc 3c da 3c fe bc
       0.017836774 -0.059256427 0.024902536 -0.031034876
000090 5e 57 cb bd f0 54 2e bd d0 66 86 3c f7 94 ba 3c
       -0.09928773 -0.04256147 0.016406447 0.02277611
0000a0 a7 d2 bf 3b 67 45 de 3c df 17 c8 bd 0d 90 e2 bc
       0.005853969 0.027132703 -0.09770178 -0.02765658
0000b0 63 b6 40 bd 6a c4 47 3d ce 55 94 bd bd c6 8e bd
       -0.047048938 0.0487713 -0.072429284 -0.069715
0000c0 a0 c3 a2 bc 14 3d 90 bd 65 5c 17 bd 17 17 9c bc
       -0.019868672 -0.070429 -0.03695335 -0.019053979
0000d0 f7 aa 28 bd 2a 01 03 3d cd ca c9 bd 9b c5 42 bc
       -0.04117867 0.031983532 -0.09853134 -0.011887933
0000e0 ac dd 0a bd b3 fe 93 bd 0b 9d 01 bd 7d 65 8e bc
       -0.03390281 -0.072263144 -0.03164391 -0.017382378
0000f0 12 be 3d bd 9f c8 16 bd 43 03 3e 3d 09 61 cd bd
       -0.046323843 -0.03681242 0.04638983 -0.100282736
000100 c5 6f ab bd 2d 80 7b 3c ab 22 53 bd 3d 5f 83 3c
       -0.08370928 0.015350384 -0.051546734 0.016036624
000110 ed 49 b3 bd 72 f2 1f bc 9c 06 20 bc b7 ca 05 3d
       -0.087543346 -0.009762393 -0.009767201 0.032664027
000120 9a 72 40 3c d3 4a ad 3c 6d e2 f3 3c 53 47 6a 3c
       0.011746073 0.021153843 0.029771054 0.014299232
000130 42 88 0e 3d 9e 92 91 bc 88 0a 22 3d 42 91 30 bd
       0.034797914 -0.017770108 0.039560825 -0.04310728
000140 9e 0d 8f bd a7 53 10 bd 2e 95 47 bd 10 77 9c bd
       -0.06985019 -0.035236027 -0.048726253 -0.07639897
000150 56 00 c5 bd 8f cd 08 bd cf 4b 1a bd 00 15 80 bc
       -0.09619205 -0.03339916 -0.037669953 -0.015635014
000160 4f 50 c2 bd f4 56 3e bd 62 de 02 bd 53 61 31 bc
       -0.09487974 -0.046469644 -0.031950362 -0.010826427
000170 53 cf cd bb 4d e5 e0 3b 45 cd 50 bd 55 16 45 bd
       -0.0062808185 0.0068632723 -0.05097701 -0.048117
000180 59 b8 5c bd cb ec 85 bd 05 d7 2c 3d 18 83 c3 bd
       -0.053886745 -0.06539305 0.042197246 -0.095464885
000190 30 fa 00 bd 82 b0 2e 3d 80 64 e4 bc 9a 47 2f 3c
       -0.031488597 0.0426488 -0.027879953 0.0106982235
0001a0 ff 99 c0 bd 3b 14 46 bd a8 22 85 bd 2c be 9b bd
       -0.094043724 -0.048359137 -0.06500751 -0.07604632
0001b0 3c c6 a9 bd 57 ca 3c bd 89 6a a9 bc 9c 63 26 bd
       -0.08289763 -0.046091404 -0.020680683 -0.04062234
0001c0 47 f2 1d bc 0d e0 7a bc 4a cf f2 bc 43 4e ec bb
       -0.009640283 -0.015312207 -0.029639859 -0.007211478
0001d0 da 7b 46 3d c2 16 5c bd 07 16 46 3d 0d 2d 36 bc
       0.048457958 -0.05373264 0.04836085 -0.011119139
0001e0 ed 6b e2 bc 83 7a cc 3c bd 22 a4 bc 2c 10 59 bd
       -0.027639354 0.024960762 -0.020036096 -0.05299394
0001f0 30 1e 87 bc 7d d1 a0 3c 00 6b a5 bc 9f a9 6e bd
       -0.016493887 0.019631142 -0.020192623 -0.058267232
000200 58 a4 2b bd b1 e0 85 bd d2 7a 06 3d 2a b3 64 bd
       -0.041904777 -0.06536997 0.032831974 -0.055834927
000210 8d 32 97 bb dd 17 c7 bc 13 a6 68 bd 23 83 98 3c
       -0.0046141804 -0.024303371 -0.056799006 0.018617218
000220 7f 77 9d bd 9a ce 88 3c cd 68 86 bd a3 c9 90 3c
       -0.07688808 0.016700078 -0.06562958 0.017674273
000230 57 5f 35 bd 2a 2b 8b 3c e3 d7 24 bc 82 87 72 bd
       -0.044280376 0.016988356 -0.010061237 -0.05921126
000240 90 31 bc bc 5f c6 34 3d af f0 6a bd 90 23 0f bd
       -0.022972852 0.044134494 -0.05735844 -0.034946024
000250 e7 4c e5 3c 9e f1 a7 bb b3 e6 6c 3c bd 7f c2 bd
       0.027990771 -0.0051252386 0.0144593 -0.094970204
000260 47 48 43 3c 4c 48 b9 bc cc 1a a6 bc aa f9 9b bd
       0.011919088 -0.022617482 -0.02027645 -0.07615979
000270 ea 12 e0 bc ce 2c 62 bd da a7 b5 3c 20 40 92 3c
       -0.027352769 -0.05521851 0.022174764 0.017852843
000280 7b 41 51 bd e0 ea 2e 3d cc 69 91 bd 7b fe 45 bd
       -0.051087838 0.042704463 -0.07100257 -0.048338395
000290 87 e8 3d bc 2a 92 93 bc 00 21 0e 3b 88 48 96 bd
       -0.011591083 -0.018014032 0.002168715 -0.07338053
0002a0 6d 9b d1 3c 8d 58 3b 3c b7 cb f6 3c a5 64 e5 bc
       0.025586808 0.011434686 0.030126436 -0.028002093
0002b0 a3 9b ab bc 16 53 a4 bd 61 1a 28 bd df 41 c5 bd
       -0.020948237 -0.0802366 -0.041040782 -0.096317045
0002c0 6f 15 32 bd 1d 4c 0a 3d 29 13 a8 bd 03 7b a4 bc
       -0.043477472 0.033763994 -0.082067795 -0.020078188
0002d0 44 19 20 bd 8d 6b 23 3c ba 73 37 bc 79 22 07 bd
       -0.039086595 0.009974373 -0.011197025 -0.03299186
0002e0 ab b3 17 bd 2b a1 0f bd 5a 1f ef 3c 30 ad 1b 3d
       -0.03703658 -0.03506581 0.029189754 0.03800696
0002f0 d5 01 35 bd d3 46 4a bc ff 86 00 bc 66 0c ca bd
       -0.0441912 -0.012345987 -0.007844686 -0.09865646
000300 67 4c be bc d3 af d0 bd a7 f1 cf bc 07 f8 2c 3c
       -0.02322979 -0.10189786 -0.025383784 0.010557181
000310 ed 64 47 bc 7a 38 5f bd 37 97 30 3d 90 00 92 bd
       -0.012170059 -0.05449722 0.04311296 -0.071290135
000320 92 23 47 3d b5 5a 03 3d 97 98 de 3c 3b 25 b1 bd
       0.048617907 0.032068927 0.02717237 -0.08649679
000330 2e 01 47 bc 09 fa 8b bc f3 54 f8 bc e7 83 3c bb
       -0.012146277 -0.017087 -0.030313944 -0.0028765143
000340 71 36 bf bd 28 77 04 bc 53 fc f2 3c 27 5a ea bb
       -0.09336556 -0.00808505 0.029661333 -0.0071518603
000350 8d 72 8a bd 5b 2b 46 3d bb be ac bd fd 34 0c bd
       -0.0676013 0.04838119 -0.084348164 -0.03423022
000360 a0 cc 19 bd cf 14 e0 bc e0 27 cc bc a3 dd f0 3c
       -0.03754866 -0.027353672 -0.024921358 0.02940256
000370 df 30 ad bd ca 01 80 3c 13 a1 41 3d dd 04 67 bd
       -0.08456587 0.015625853 0.047272753 -0.056401122
000380 ed aa 07 3d e8 46 a0 bd e5 8a bf bd c3 89 c1 bd
       0.033121992 -0.07826024 -0.09352664 -0.09450104
000390 a3 1a ba bd 5a b9 af 3c e7 f4 9e 3c ff 03 b0 bd
       -0.09087112 0.021450687 0.019403888 -0.08594512
0003a0 4d d4 88 bd a2 1e ff bc 5b 53 5c bd c7 6b dc bc
       -0.06681118 -0.031142537 -0.05379043 -0.026906861
0003b0 33 0d 83 bc 78 ce 25 bd b1 b6 51 bd 08 f7 3b bd
       -0.015997505 -0.040480107 -0.05119962 -0.045889884
0003c0 ab b7 49 bd f1 3f 8e bd ac 7e 2a bd cd a6 1b 3b
       -0.049247425 -0.069457896 -0.04162471 0.0023750544
0003d0 dd 93 dc bb 75 d5 07 bd 07 d5 1e bd a4 b3 04 bd
       -0.006731494 -0.033162553 -0.038777377 -0.03239788
0003e0 43 fc 3d bd a3 aa 73 bd 58 71 3d bd 30 44 41 bd
       -0.046383154 -0.059488904 -0.04625067 -0.04718417
0003f0 88 ad 45 3d e7 83 1b bb e7 59 f1 bc ca ed 3b 3d
       0.048261195 -0.0023729743 -0.029461814 0.04588107

projector.4.bias f4 [40]
000000 87 8e 2b bd 44 c7 e0 bc d9 0b 3b 3e 04 21 64 3e
       -0.04188397 -0.027438767 0.18266238 0.2227822
000010 e5 63 31 bd 27 80 d6 3d 98 18 db bd 00 31 7e bd
       -0.043308157 0.10473662 -0.1069805 -0.06205845
000020 32 56 da bd 68 08 1e bd 1e b4 7b bd 47 af e8 bc
       -0.10660972 -0.038582236 -0.06145107 -0.028403891
000030 4e 94 91 bd a9 5f de bc 74 52 88 3d d0 d0 4e 3e
       -0.07108365 -0.027145224 0.06656352 0.20196843
000040 ef 8d b2 bb db 8b 5a 3e e8 0b c5 bd 76 9e 88 bd
       -0.0054490487 0.21342413 -0.096214116 -0.06670849
000050 c0 5e dd 3d 65 f4 8b bd 6c a3 bc bd a3 2e a7 bd
       0.10809088 -0.06833724 -0.09210858 -0.08163192
000060 74 48 46 bd ef 50 88 bd 81 5b bf bd 1b 2c 92 bc
       -0.04840894 -0.06656062 -0.09343625 -0.017843297
000070 d8 7a 1f 3d 37 9c 1c 3e 70 8e e4 bc 93 78 2d 3c
       0.038935512 0.15293966 -0.02789995 0.010587829
000080 c9 a9 c7 bd 93 aa 40 bc 8b f6 9b bd 53 f6 03 bc
       -0.09749181 -0.011759418 -0.07615384 -0.008054334
000090 77 22 b8 bc d1 16 9a bd df fe a1 bc b3 c5 9c bd
       -0.022477372 -0.07523883 -0.019774852 -0.07654896

projector.6.weight f4 [4, 40]
000000 98 ee 6b 3d fa 28 b7 3c 06 f8 4e 3e 09 7a ec 3d
       0.057600588 0.022358406 0.20211801 0.11546714
000010 68 ed ee bb fb b6 1a 3d 15 21 25 bd af ab 75 bd
       -0.0072914846 0.03777216 -0.040314753 -0.059978183
000020 e8 1e ba bd 8d d5 1d 3c b2 e7 a8 3c 9f 6b f8 bc
       -0.09087926 0.009633434 0.020618293 -0.030324755
000030 e0 bb b5 bd 0a 9f ea 3d b7 ce 23 3d 57 0d d7 bb
       -0.08873725 0.114561155 0.03999206 -0.0065628695
000040 21 25 09 be 88 68 5b 3e c5 b8 c4 bd 53 75 90 bc
       -0.1339307 0.21426594 -0.096055545 -0.01763407
000050 9f 4c 44 3e 2d c5 86 bc 87 2a e1 3d f6 64 26 ba
       0.19169854 -0.016451443 0.109944396 -0.0006347442
000060 cb ab 59 3e 0a 4e 42 3c b2 c2 90 bd 2f 85 4d 3e
       0.2125694 0.011859426 -0.07068385 0.20070337
000070 aa d7 3a bc 10 6e 03 3e 0e 77 b1 bd e9 c3 1e be
       -0.011403957 0.12834954 -0.08665286 -0.15504421
000080 cf de 00 bd c8 00 01 3e 8a 79 63 bd 93 21 9b bd
       -0.031462487 0.12597954 -0.05553583 -0.07574763
000090 f1 93 18 be 36 cd ff 3c b3 33 95 3c cc be b4 3d
       -0.14900185 0.031225782 0.018213129 0.08825454
0000a0 29 09 88 bc 2a 1e a6 3d 47 55 8d 3c af c4 1e 3e
       -0.01660593 0.08111222 0.017252577 0.15504716
0000b0 18 f6 04 be d1 9b 12 3e e3 02 3a bd 18 fc f0 bd
       -0.12984502 0.14317252 -0.04541291 -0.11766833
0000c0 76 2a 98 3d fa 13 7d bd 60 80 b4 3c 36 83 9f bd
       0.07429974 -0.06178663 0.02203387 -0.077886984
0000d0 c3 15 35 3e 7f d9 60 bc 0e 3a c3 bd f7 62 4b 3e
       0.17684083 -0.01372373 -0.095325574 0.19861971
0000e0 73 81 90 3d 23 02 11 3e 03 cb 83 3d 1e 20 d8 3c
       0.070559405 0.14160971 0.06435206 0.026382502
0000f0 bd 24 29 3e 01 f6 b0 3d 98 db ed 3d d3 fd 56 3e
       0.16517921 0.086406715 0.1161415 0.20995264
000100 2f ef e7 3d cb 2f 9e bd 70 c4 e1 3d 82 35 68 bd
       0.113249175 -0.077239595 0.110237956 -0.056691654
000110 c4 b3 ce bd b8 07 30 3e 43 8e aa bd df 9c 58 3d
       -0.10092881 0.17190444 -0.083279155 0.05288398
000120 8f 57 b1 3d db 90 0c 3b 08 23 a0 bd 93 fc b7 bd
       0.086592786 0.0021448645 -0.07819182 -0.089837216
000130 8d c0 9a bd 08 ee 18 3e f3 53 89 bd 66 0a a8 bd
       -0.075562574 0.14934552 -0.06705465 -0.08205108
000140 6c b0 df 3d 1d 7d 79 bd 46 a9 79 3e 9b 29 7f 3e
       0.10922322 -0.060910333 0.24380979 0.24918215
000150 23 1e fe 3c ee d9 92 3c 09 93 3c bd ad 53 8b 3d
       0.03102023 0.017926183 -0.04603866 0.06803069
000160 35 b6 10 3e 11 fc 3d bd c9 83 ec 3d 6e 97 4a bd
       0.14132006 -0.046382967 0.115485735 -0.04946082
000170 fe 19 65 3d e8 e8 35 bd 15 25 42 3e b6 ff 06 3e
       0.05593299 -0.04441157 0.18959458 0.13183483
000180 1d 65 b2 3d 21 aa 79 3e 1f 9a e6 bd 41 14 38 3e
       0.08710692 0.24381305 -0.11259865 0.17976476
000190 f5 ee bb 3c e3 2d a6 bd 87 6c 07 bd e4 fd 85 bd
       0.022941092 -0.08114221 -0.033062484 -0.065425664
0001a0 65 18 8f bb 45 a9 ce 3d 6e 40 6b 3d 38 17 83 bd
       -0.0043669217 0.10090879 0.05743449 -0.06400913
0001b0 01 15 98 3d de 0f 84 3d 77 11 7a 3b e8 03 dd bc
       0.07425881 0.06448339 0.0038157383 -0.026979402
0001c0 23 a0 a2 3d 8f 8a 05 3e 53 df ac 3d 8c ca e5 bc
       0.079407 0.13041137 0.08441033 -0.028050683
0001d0 e6 9a 0a 3e 17 c5 bb bd 1a e6 94 bd 94 bb 0d be
       0.13535652 -0.09168451 -0.07270451 -0.13841087
0001e0 9e 62 1c bd ae 73 29 bd c0 88 66 3e 89 c5 7b 3d
       -0.038179986 -0.041370086 0.22513103 0.06146768
0001f0 9c 35 f1 3d 9a 8c 3c 3e 31 3c e6 3c 25 80 9c 3c
       0.11777803 0.1841301 0.028104873 0.019104073
000200 e5 ae 14 3e 44 b9 16 3d 57 52 b9 3d 83 07 0e 3e
       0.14519842 0.036797777 0.09048908 0.13870053
000210 c1 f0 fd 3d 4a 12 12 bd c6 dc 3c 3b c5 60 3a 3e
       0.12399436 -0.035661973 0.0028818115 0.18200977
000220 47 9c 26 bb 24 61 84 3d 25 7b 86 bd f6 31 4b bd
       -0.0025422738 0.064638406 -0.06566457 -0.049608193
000230 c3 16 1c 3e db 68 78 3a 89 8a b1 3d 0f 53 2c 3e
       0.15243058 0.0009476074 0.086690016 0.1682856
000240 8d c1 89 3d 0c 89 e2 3c ea c2 b7 3c 0e 53 a2 bd
       0.0672637 0.02765324 0.02243181 -0.07925998
000250 2d 0e 90 3d 99 ed 3d 3e 53 91 45 bc 32 04 ff 3d
       0.07033954 0.18547668 -0.012058574 0.12451972
000260 53 e2 1d 3d ae 0e 52 3d 46 39 b8 bd 09 d7 ae bc
       0.038545918 0.05128353 -0.08995299 -0.021342771
000270 e4 e2 0e 3e 22 7b 44 3d aa 41 d1 3d 20 10 8b bd
       0.1395374 0.04796899 0.102176026 -0.06790185

projector.6.bias f4 [4]
000000 45 e1 7a 3d dd 5c 14 3e 92 50 9c 3e 26 cf 00 3e
       0.06124999 0.1448855 0.3053022 0.12579021
