models/squares/100/teacher_config.pt (torch, 144730 bytes, 9 tensors)

decoder.0.weight f4 [2, 400]
0	0x3abcce0e	0.0014404671
1	0x3e8105cc	0.25199735
2	0xbd1bfb2e	-0.03808134
3	0x3e0c7fe8	0.13720667
4	0xbcb0a79c	-0.021564297
5	0x3db6e69b	0.08930703
6	0x3d1b8774	0.037970975
7	0x3cc56058	0.024093792
8	0x3dc891cb	0.09793433
9	0x3c286e68	0.010280229
10	0xbc70b1b5	-0.014690806
11	0x3e4d19f7	0.20029436
12	0x3e8b4515	0.27201143
13	0xbce210f6	-0.027595978
14	0x3d6819c6	0.056665204
15	0x3d086fb6	0.03330966
16	0x3da97d32	0.08275832
17	0x3cada058	0.021194622
18	0x3e0c78f0	0.13718009
19	0x3e39bdc2	0.18138793
20	0x3e7205b6	0.23634991
21	0x3e880fb1	0.26574472
22	0xbc487526	-0.012234962
23	0xbd2dbdad	-0.042417217
24	0xbcfd28ac	-0.030903183
25	0xbd02ad81	-0.031903747
26	0x3e85a931	0.26105645
27	0x3e1602ba	0.14649478
28	0x3d3ab8ab	0.04558627
29	0x3e8005e0	0.25004482
30	0xbd348dd3	-0.044080567
31	0x3d09c979	0.033639405
32	0x3e492295	0.19642098
33	0x3e533d42	0.20628837
34	0x3dbc3abf	0.091908924
35	0x3e153acb	0.14573209
36	0x3e1bed16	0.1522716
37	0x3e0c624c	0.13709372
38	0x3e8787e8	0.26470876
39	0x3e0fdef8	0.140499
40	0x3d452959	0.048135135
41	0xbceee046	-0.029159676
42	0xbd1c5e6e	-0.038175993
43	0xbbe94680	-0.007119
44	0x3de90df0	0.113796115
45	0xbca5c040	-0.020233274
46	0xbd49c5ea	-0.04926101
47	0xbd15eefc	-0.036604866
48	0x3c71f031	0.014766739
49	0x3e7a9425	0.24470575
50	0x3e1a55be	0.1507177
51	0x3da57857	0.08079594
52	0x3e89b33a	0.26894552
53	0x3e59b665	0.21260984
54	0x3de41237	0.11136287
55	0x3bc8d826	0.0061292825
56	0x3c30f53d	0.010800657
57	0xbaad110e	-0.0013203935
58	0x3e022143	0.12708001
59	0x3e411cc3	0.18858628
60	0x3be530a0	0.006994322
61	0x3dd72af3	0.10506239
62	0x3d0870e9	0.033310805
63	0xbd3a2b26	-0.045451306
64	0x3de0f307	0.10983854
65	0xbc220878	-0.009889714
66	0xbd052054	-0.032501534
67	0xbd181b52	-0.03713543
68	0x3e7a83bf	0.2446432
69	0xbd4e93c2	-0.05043388
70	0x3c911fac	0.017715298
71	0x3c70e82a	0.01470379
72	0x3e3375ca	0.17525402
73	0xba704c80	-0.0009166673
74	0x3ceae9ea	0.028675992
75	0x3e892929	0.26789215
76	0x3e72c766	0.23708877
77	0x3d806a49	0.06270272
78	0xbd680be0	-0.05665195
79	0x3da3e201	0.08002091
80	0x3e076ffd	0.13226314
81	0x3dc27de1	0.09496666
82	0x3e80a6a3	0.25127134
83	0xbccc65f4	-0.024950959
84	0x3e648d7b	0.22319596
85	0x3e8b0f41	0.27160075
86	0x3e1002bc	0.14063543
87	0xbbe54326	-0.00699653
88	0x3c98e00c	0.018661521
89	0x3e0c3e32	0.136956
90	0xbd07d687	-0.033163574
91	0x3d998828	0.07496673
92	0x3e04812f	0.12939905
93	0x3b948f7c	0.0045337062
94	0x3d195d3d	0.037442435
95	0xbcad7556	-0.021174114
96	0x3c42b1fb	0.011883254
97	0x3e7a43a3	0.24439864
98	0x3d670b3a	0.05640719
99	0x3e4f39f7	0.20236956
100	0xbb296957	-0.002585014
101	0x3cd7a0fe	0.026321884
102	0x3e34f93c	0.176732
103	0xbd1f01a0	-0.03881991
104	0xbd10f476	-0.035389386
105	0x3e60bc4d	0.21946831
106	0xbcf502ba	-0.029908527
107	0x3d05d743	0.032675993
108	0x3e397137	0.18109594
109	0x3e522913	0.20523481
110	0xbc11448d	-0.008866441
111	0xbcf95c6a	-0.030439574
112	0xbd76c11a	-0.06024275
113	0x3dc4a7db	0.096023284
114	0x3de8002b	0.11328157
115	0x3e74223f	0.23841189
116	0x3e512665	0.20424803
117	0x3c842f31	0.016135784
118	0xbd2e6de2	-0.04258526
119	0x3e1e71d3	0.15473108
120	0xbd011343	-0.03151251
121	0x3e8865db	0.2664021
122	0x3db14505	0.086557426
123	0x3cc6f62c	0.024287306
124	0x3cab84ac	0.020937286
125	0x3d114ec6	0.035475515
126	0x3c556d21	0.013026507
127	0xbcac8468	-0.02105923
128	0x3e03f9fb	0.12888329
129	0x3c2f42e1	0.0106970975
130	0xbd4851cf	-0.048906144
131	0x3d7ad5ea	0.06123916
132	0xbc07fea0	-0.008300453
133	0x3e88a497	0.26688072
134	0x3bd23720	0.006415263
135	0x3e063549	0.13106264
136	0xbc491e7d	-0.012275335
137	0x3ba94080	0.0051651597
138	0xbd1e780c	-0.038688704
139	0x3dfdb410	0.1238786
140	0x3de3fdcf	0.111323945
141	0x3d82b451	0.06382049
142	0xbd231148	-0.039811403
143	0x3e60ace1	0.21940948
144	0x3d27e492	0.040989466
145	0x3e759ee1	0.23986389
146	0x3e02c950	0.12772107
147	0x3dc35edb	0.095395766
148	0x3cbdc550	0.023165375
149	0x3e31771d	0.17330594
150	0x3e395604	0.18099219
151	0xbd41e11b	-0.047333818
152	0x3e0a52d2	0.13508156
153	0x3be497de	0.006976112
154	0x3e5c1622	0.21492818
155	0x3af49f7e	0.0018663255
156	0x3e85d69f	0.26140305
157	0x3e83bd92	0.25730568
158	0x3d3d6ca2	0.04624618
159	0x3df9a692	0.12189974
160	0x3b70e58f	0.0036757921
161	0xbd51b202	-0.051195152
162	0x387d95c0	6.0459366e-05
163	0x3e15854b	0.14601628
164	0x3df4f178	0.11960119
165	0x3e4dc875	0.20096
166	0xbd159a36	-0.03652402
167	0xbc4234ec	-0.011853438
168	0x3d0dd071	0.034622613
169	0x3d637ad8	0.055537075
170	0x3d2bf71d	0.041983712
171	0x3ddd4e0f	0.10805904
172	0x3e8b1aa4	0.27168763
173	0xbcc1ec94	-0.02367238
174	0x3d85f26b	0.06540378
175	0x3e712f83	0.2355328
176	0x3e3bba9b	0.18332903
177	0x3cf7654a	0.030199666
178	0x3e1908e8	0.14944804
179	0x3c6643c1	0.01405424
180	0x3e371e68	0.17882693
181	0x3d62a2ac	0.055330917
182	0x3e6d2378	0.23158062
183	0x3d2f6626	0.042822026
184	0x3c35c7d5	0.011095007
185	0x3d14f3e3	0.0363654
186	0x3e6efa93	0.23337774
187	0x3d83996d	0.06425748
188	0x3e13db07	0.14439021
189	0x3e724a36	0.23661122
190	0xbd1c66f0	-0.038184106
191	0xbc708f25	-0.014682566
192	0xbcf315ee	-0.029673543
193	0xbcb7855a	-0.022402454
194	0xbc6d09c2	-0.0144676585
195	0x3df43538	0.11924213
196	0x3db614cd	0.08890686
197	0x3daed334	0.085363775
198	0x3bb15ecc	0.005412912
199	0x3d15e76d	0.036597658
200	0x3cda8dd4	0.026678957
201	0xbcceedf6	-0.025259953
202	0x3e65ab0b	0.22428529
203	0x3e39cdc9	0.18144907
204	0xbbcbc34c	-0.0062183496
205	0x3e0fb272	0.14032915
206	0x3c85dd77	0.016340954
207	0x3c9e0cbc	0.019293182
208	0xbc538206	-0.012909418
209	0xbd302aff	-0.043009754
210	0x3cda5e5e	0.026656326
211	0x3e732a9f	0.23746727
212	0x3e660a9f	0.22464989
213	0x3e32deb6	0.1746777
214	0x3d430c2f	0.04761904
215	0x3df2d850	0.118576646
216	0x3c8c82fd	0.017152304
217	0xbcfc3f2e	-0.030791845
218	0x3e1ace6e	0.15117809
219	0xbc2c26df	-0.0105073145
220	0x3c70e511	0.014703051
221	0x3cf606de	0.030032571
222	0xbaf5f84e	-0.0018766017
223	0x3e5ef083	0.21771435
224	0x3ce37a78	0.027768359
225	0xbd486b36	-0.04893037
226	0xbcbee9b8	-0.023304805
227	0x3da49db3	0.08037891
228	0x3e879893	0.26483592
229	0x3d98c683	0.07459738
230	0x3da7b1a0	0.08188176
231	0xbd3c9da3	-0.04604877
232	0x3e32f8c8	0.17477715
233	0x3e758a07	0.23978435
234	0x3ca93ea4	0.020659752
235	0xbd57306e	-0.05253642
236	0xbb36d79e	-0.0027899514
237	0x3e50a4d3	0.20375375
238	0x3d8b9725	0.06815938
239	0xbd4958d7	-0.04915699
240	0x3dddb077	0.108246736
241	0x3e898dd7	0.26866028
242	0x3e6a810d	0.22900791
243	0xbd4c79bf	-0.049920794
244	0xbcb64072	-0.022247527
245	0x3d82abd9	0.063804336
246	0x3e4ede8a	0.2020208
247	0x3c8ba7da	0.017047811
248	0x3df26da0	0.118373156
249	0x3cdd2892	0.026996884
250	0xba1ad6e6	-0.0005906656
251	0x3e4c58bb	0.19955723
252	0x3e170ae5	0.1475025
253	0x3e418651	0.18898894
254	0x3dded2cf	0.10880052
255	0x3d8db58b	0.06919392

projector.0.weight f4 [40, 4]
0	0xbce84bb5	-0.028356412
1	0x3ef2cfcb	0.47424158
2	0x3e87089a	0.2637375
3	0xbefbdd85	-0.49192443
4	0x3e06797e	0.13132283
5	0x3ef2a862	0.4739409
6	0xbe9bca19	-0.30427626
7	0x3e8f30f0	0.27967024
8	0xbe81b58a	-0.25333816
9	0xbe9e2f2e	-0.3089537
10	0xbe2b18ba	-0.16708651
11	0xbefe0a53	-0.49617252
12	0xbd959215	-0.073032536
13	0xbe09d294	-0.13459235
14	0x3f11fd97	0.5702757
15	0x3f07bbc1	0.53020865
16	0x3e0a390e	0.13498327
17	0xbea67667	-0.3251221
18	0x3f01c6d0	0.5069399
19	0xbddb93de	-0.10721563
20	0x3f19e2ce	0.601117
21	0x3eb7f147	0.35926268
22	0xbe29c234	-0.16577989
23	0x3df0ea75	0.11763469
24	0x3f065912	0.5247966
25	0xbe93db7a	-0.28878385
26	0x3e6b5dd3	0.2298501
27	0x3ef764d5	0.48319116
28	0xbe0d6331	-0.1380737
29	0x3ec2c3b5	0.38039938
30	0xbda9d3fe	-0.082923874
31	0xbf055305	-0.520798
32	0x3d2791e2	0.04091061
33	0xbef72885	-0.482731
34	0x3eee7eb4	0.46581042
35	0x3e8bd28e	0.27309078
36	0x3ea25d87	0.3171198
37	0xbec30f69	-0.38097695
38	0xbe4885c4	-0.19582278
39	0xbee575d2	-0.44816452
40	0x3c934c7e	0.01798081
41	0x3efbeda8	0.49204755
42	0xbe8872a6	-0.2664997
43	0xbf001cd0	-0.50043964
44	0x3bc7b6fc	0.0060948115
45	0xbe8c9465	-0.27456966
46	0xbeaaffc6	-0.33398265
47	0x3ee93787	0.45550177
48	0xbdf7531d	-0.120763995
49	0xbe1e2b96	-0.15446314
50	0xbe9d1439	-0.3067949
51	0xbe99f2f2	-0.30068165
52	0xbe010ee4	-0.12603337
53	0x3e194cda	0.14970723
54	0xbc86ccfb	-0.016455164
55	0xbed849ad	-0.4224371
56	0xbeb9c2c4	-0.36281407
57	0xbe93f5ea	-0.28898555
58	0xbed9e5c5	-0.42558113
59	0xbe952bb8	-0.29134917
60	0x3eb16de1	0.34654143
61	0xbe27cc5d	-0.16386552
62	0xbdec3cd8	-0.115350425
63	0x3cfdec3d	0.030996436
64	0x3d8178f4	0.06321898
65	0xbe8ccc0a	-0.2749942
66	0x3d14c580	0.036321163
67	0xbe83c78a	-0.25738174
68	0x3d666775	0.056251008
69	0x3bd1975b	0.006396217
70	0x3e2f21ce	0.17102739
71	0xbced9429	-0.029001312
72	0xbdff0bb1	-0.12453402
73	0x3e1fe33e	0.1561403
74	0xbec5a3a8	-0.38601422
75	0x3e4c4762	0.19949105
76	0xbeba9892	-0.36444527
77	0xbed5f866	-0.41791075
78	0xbcd622a4	-0.026139565
79	0x3f0749c1	0.52846915
80	0x3defc7ca	0.117080286
81	0x3c0c79fd	0.008574006
82	0x3ed8fbb7	0.42379543
83	0x3ea5d926	0.32392234
84	0x3e86ea96	0.2635085
85	0x3ed7b9ed	0.42134038
86	0xbea4bb77	-0.32174274
87	0x3d5a2829	0.053260956
88	0xbd995b35	-0.074880995
89	0xbed2d7ef	-0.4118037
90	0xbee19d74	-0.4406544
91	0xbea8c5ea	-0.32963496
92	0x3ea0813b	0.31348595
93	0x3dcd50c4	0.100251704
94	0x3eac3067	0.33630678
95	0xbdda708a	-0.106659964
96	0xbe1d645f	-0.1537032
97	0xbd84761e	-0.064678416
98	0x3f01a1fb	0.5063779
99	0xbebabc02	-0.36471564
100	0x3f101d0b	0.56294316
101	0xbefdb685	-0.49553314
102	0xbe4a770d	-0.19771977
103	0xbe161436	-0.14656147
104	0x3e68b56b	0.22725455
105	0xbe14c0d8	-0.14526689
106	0x3ed451a4	0.41468537
107	0xbeb1d119	-0.3472984
108	0xbe6789b1	-0.22611119
109	0xbe879c1c	-0.2648629
110	0x3d2e516d	0.042558122
111	0xbf00307c	-0.5007398
112	0x3ee4c391	0.44680455
113	0x3e120b52	0.14262131
114	0xbebf948e	-0.37418026
115	0xbe1c3bc5	-0.15257175
116	0xbd9db38a	-0.0770026
117	0x3e363fb3	0.17797737
118	0x3e0fde07	0.1404954
119	0xbeb90a90	-0.3614087
120	0xbccfc4d9	-0.025362419
121	0x3ee6cf67	0.4508011
122	0xbea1b0f1	-0.31580308
123	0xbbad1df8	-0.0052831136
124	0x3ed44784	0.41460812
125	0x3e4188f7	0.18899904
126	0xbb6b4a5f	-0.0035902483
127	0x3ea6826b	0.32521376
128	0xbd966e1f	-0.07345223
129	0x3e5630a9	0.20917
130	0x3eeffb5e	0.46871465
131	0xbf000c01	-0.50018317
132	0x3f04d13c	0.51881766
133	0x3e55d346	0.20881376
134	0x3f012f62	0.50462925
135	0x3e02260e	0.12709829
136	0x3d42df43	0.0475762
137	0xbca82882	-0.020527128
138	0xbf049316	-0.51786935
139	0x3ec0dec4	0.37669957
140	0x3dffdeff	0.12493705
141	0x3e56af5a	0.20965329
142	0x3ebfd7be	0.37469286
143	0x3e2d8b22	0.16947606
144	0xbe577bc9	-0.21043314
145	0x3e9d63d1	0.30740216
146	0xbefe5846	-0.49676722
147	0x3d9c5457	0.07633274
148	0x3ebf2642	0.37333876
149	0xbe55051d	-0.20802732
150	0xbeb26f8a	-0.34850723
151	0xbec03964	-0.37543786
152	0x3edd2b5f	0.43197152
153	0x3ebb684c	0.3660301
154	0x3da4d97c	0.08049294
155	0x3ec5c4b7	0.38626644
156	0xbe8dcc80	-0.27695084
157	0x3e752da7	0.23943196
158	0x3db649c7	0.08900791
159	0x3e81fbd4	0.25387442

projector.0.bias f4 [40]
0	0x3df3e548	0.11908966
1	0x3e9e3afa	0.3090437
2	0x3ef499c2	0.47773558
3	0x3e1d4ad3	0.15360574
4	0x3eeef53d	0.46671477
5	0x3e5cc187	0.215582
6	0xbeaef6dd	-0.34172717
7	0x3efcb510	0.4935689
8	0x3f026dfd	0.5094908
9	0x3f032e23	0.51242274
10	0xbb539979	-0.0032287522
11	0xbe632cf8	-0.22185123
12	0xbe79193f	-0.24326037
13	0x3ec349c7	0.38142225
14	0xbe84d146	-0.25940913
15	0x3ec1aa4a	0.37825233
16	0xbe296c68	-0.1654526
17	0x3d6cd3fa	0.057819344
18	0xbe5c1d93	-0.21495657
19	0xbd9dbe3e	-0.077023014
20	0x3f09b3e7	0.53790134
21	0xbd743048	-0.059616357
22	0x3e3e67ba	0.18594256
23	0xbac61f2e	-0.0015115493
24	0x3f0c24a2	0.547434
25	0x3e667aba	0.22507754
26	0x3f100319	0.56254727
27	0xbe99808e	-0.29980892
28	0xbdd625a8	-0.10456401
29	0xbeae4015	-0.34033266
30	0x3eca277e	0.39483255
31	0x3ed08256	0.40724438
32	0x3ee87707	0.4540331
33	0x3e794d4e	0.24345896
34	0xbee33796	-0.44378346
35	0x3ecfeb3e	0.40609163
36	0xbe0f1030	-0.13971019
37	0xbedb3063	-0.42810354
38	0x3e41d1ce	0.1892769
39	0xbea556cd	-0.32292786

projector.2.weight f4 [400, 40]
0	0x3bbacc4b	0.005700623
1	0x3ce67c5f	0.028135477
2	0x3e19f4c3	0.15034775
3	0x3d770431	0.06030673
4	0x3dacd378	0.08438772
5	0x3d4145a8	0.04718557
6	0x3d13c18c	0.036073253
7	0xbd08c173	-0.033387613
8	0x3e67ee12	0.2264941
9	0x3c9adc76	0.018903952
10	0xbd9f24e5	-0.07770709
11	0x3e25dc28	0.16197264
12	0xbd80601a	-0.0626833
13	0x3c9a6b40	0.018849969
14	0xbdbc9845	-0.092087306
15	0xbd0832c0	-0.033251524
16	0xbd717af3	-0.058955144
17	0x3e0ae1be	0.13562676
18	0x3dd0721a	0.10178013
19	0x3e3c3780	0.18380547
20	0x3e7dda3d	0.24790283
21	0x3d1fd7b7	0.03902408
22	0xbdf5d2f3	-0.12003126
23	0xbd9f0d5e	-0.077662215
24	0x3da4c8d1	0.08046115
25	0xbcb489a7	-0.022038294
26	0xbd2c5a61	-0.04207838
27	0x3d3d5906	0.046227477
28	0xbd4c6a8e	-0.049906306
29	0xbcf79bd1	-0.030225666
30	0xbd29ea8f	-0.041483458
31	0x3db88559	0.09009809
32	0x3bde30ac	0.0067807045
33	0x3cfc11d3	0.030770218
34	0xbc0e5af4	-0.008688677
35	0x3bc09cde	0.005878075
36	0x3d800569	0.06251032
37	0xbdc58f3c	-0.096464604
38	0x3e53a608	0.20668805
39	0xbcddf17d	-0.02709269
40	0xbded31a6	-0.11581735
41	0xba15f07d	-0.00057197345
42	0x3dffeb5b	0.12496062
43	0xbc5d0f3f	-0.0134924045
44	0x3d8dffa4	0.06933525
45	0xbdafe482	-0.08588506
46	0x3e247b2f	0.16062616
47	0x3e36db57	0.17857109
48	0xbd90fb11	-0.07079137
49	0xbdc9b5c0	-0.09849119
50	0xbb15a754	-0.002283533
51	0xbde828d9	-0.11335916
52	0xbe22421d	-0.15845533
53	0x3d02a8e0	0.031899333
54	0xbdabc61c	-0.08387396
55	0xbd3839e3	-0.04497708
56	0xbd5482a8	-0.051882416
57	0xbd82d3f2	-0.063880816
58	0x3cdef384	0.027215727
59	0x3e2e2141	0.17004873
60	0x3de9514c	0.11392459
61	0xbdbbe5a9	-0.091746636
62	0x3d42c83e	0.047554247
63	0x3e28ca39	0.16483392
64	0xbd3294fc	-0.043599114
65	0xbd734a39	-0.059396956
66	0xbc12305e	-0.008922664
67	0xbbd1f1b4	-0.006406987
68	0x3db1cf14	0.08682075
69	0x3e2b79f1	0.16745736
70	0xbc936868	-0.01799412
71	0xbd97e8d9	-0.07417459
72	0x3e38cbad	0.18046446
73	0x3e57f39b	0.21089022
74	0x3dfa50d2	0.122224465
75	0x3e51218e	0.20422956
76	0xbde8c188	-0.11365038
77	0x3e196cb9	0.1498288
78	0xbd56d3e1	-0.052448157
79	0xbdf25d8a	-0.118342474
80	0x3d9a7426	0.07541685
81	0x3d9420e9	0.072328396
82	0x3d1a029a	0.037600137
83	0xbe038ef4	-0.12847501
84	0xbd817fdf	-0.063232176
85	0xbd7891c4	-0.060685888
86	0x3d7c730f	0.061633166
87	0xbddf9e7a	-0.10918899
88	0xbe2a791c	-0.16647762
89	0x3e23c3ef	0.15992711
90	0x3d6f0c41	0.058361296
91	0xbdbfeeaa	-0.093716934
92	0x3dd70f96	0.1050102
93	0x3d9ecb83	0.077536605
94	0x3d1fc9b2	0.03901071
95	0xbe42926a	-0.19001165
96	0x3e2d0f3c	0.16900343
97	0x3e110a8d	0.14164181
98	0x3d83c228	0.06433517
99	0x3d85962e	0.06522785
100	0x3d9d7b50	0.076895356
101	0xbda591ed	-0.08084474
102	0x3c28797e	0.010282872
103	0x3c154ea7	0.00911299
104	0xbd90674e	-0.07050954
105	0x3dcd4234	0.10022393
106	0x3daaecba	0.08345933
107	0x3c6559c2	0.013998451
108	0x3d877f67	0.06616097
109	0xbe1b21df	-0.1514964
110	0xba8946d8	-0.0010473384
111	0xbe440bab	-0.19145076
112	0xbe146457	-0.14491402
113	0xbd3f30e6	-0.046677493
114	0x3dc1bc21	0.09459711
115	0xbe502c35	-0.20329364
116	0x3e0aea81	0.13566019
117	0x3da5e006	0.0809937
118	0xbd81ffc2	-0.0634761
119	0x3cb2e902	0.021839622
120	0xbd979950	-0.07402289
121	0xbc052bbb	-0.008128102
122	0x3ca32ffd	0.019920344
123	0x3d3b3c0b	0.04571156
124	0x3e0a80d2	0.13525704
125	0xbce14cf8	-0.027502522
126	0xbd8e6e92	-0.06954683
127	0x3d750b07	0.05982497
128	0x3d869f27	0.06573325
129	0x3d1360e5	0.035981078
130	0x3d751bb9	0.05984089
131	0x3d155d3a	0.03646586
132	0x3d840b91	0.064475186
133	0x3d0d19fe	0.034448616
134	0x3e3da52b	0.18520038
135	0x3e4b8b31	0.19877316
136	0x3e44964b	0.19197957
137	0x3dc11c09	0.094291754
138	0x3de3400e	0.11096202
139	0x3e3e588d	0.18588467
140	0xbd53875e	-0.051642768
141	0xbdbb69fd	-0.09151075
142	0x3e5c866c	0.21535653
143	0xbc363ac6	-0.011122411
144	0x3e51a6c0	0.20473766
145	0xbc6c7c01	-0.014433862
146	0x3e1247a7	0.14285146
147	0xbc1c7193	-0.009548563
148	0x3e03971e	0.12850615
149	0x3df26dca	0.11837347
150	0x3e10f790	0.14156938
151	0x3cd97bff	0.026548384
152	0x3d7d81f9	0.06189153
153	0xbc43112b	-0.011905949
154	0x3d36bdca	0.04461459
155	0xbd949bfc	-0.07256314
156	0xbd342d05	-0.043988246
157	0xbe0bae96	-0.13640818
158	0xbdd49fee	-0.10382067
159	0x3e236d3f	0.15959643
160	0xbd9e09a0	-0.077166796
161	0xbdebd650	-0.11515486
162	0xbe262405	-0.16224678
163	0xbe0afaf8	-0.135723
164	0xbd604638	-0.054754466
165	0x3db8f5ac	0.09031233
166	0x3d8c14ea	0.068399265
167	0x3d921a9f	0.07133984
168	0x3d9bbd50	0.07604468
169	0x3d928f3a	0.071562245
170	0xbc107cb5	-0.008818795
171	0xbdeafd62	-0.1147411
172	0xbc68c2fa	-0.014206642
173	0xbdf5fc72	-0.12011041
174	0x3d416bc1	0.047221903
175	0xbd8324ec	-0.06403527
176	0x3dda6d92	0.1066543
177	0xba727dd8	-0.00092503196
178	0xbde6b088	-0.112641394
179	0x3e02f453	0.12788515
180	0x3d6c7a9d	0.05773412
181	0x3d70f02b	0.058822792
182	0xbd51b521	-0.05119813
183	0x3e2473a1	0.16059734
184	0xbdfce18d	-0.12347708
185	0x3e40222e	0.18763039
186	0xbd208ad8	-0.03919491
187	0xbe440c16	-0.19145235
188	0x3d73ee99	0.059553716
189	0x3d35e0c7	0.044403818
190	0xbd9edbd2	-0.07756771
191	0x3d1d3324	0.03837885
192	0xbe163808	-0.14669812
193	0x3c874be2	0.016515676
194	0xbe15c756	-0.14626822
195	0x3ddf5608	0.10905081
196	0x3ddc82cc	0.10767135
197	0xbbfc1ec9	-0.0076940996
198	0x3d607787	0.05480149
199	0xbda9cc06	-0.082908675
200	0x3d67c661	0.056585673
201	0x3df0ba1a	0.11754246
202	0x3d99e549	0.07514436
203	0x3dd9c4b6	0.10633223
204	0x3d4f1d06	0.05056479
205	0xbd5e8e41	-0.054334883
206	0x3e3a4a27	0.1819235
207	0x3b98f7e3	0.0046682223
208	0x3e0be6ef	0.13662313
209	0x3deab02d	0.11459384
210	0x3dc99450	0.098427415
211	0xbe12c1b9	-0.14331712
212	0xbdbeb935	-0.09312669
213	0xbce96c56	-0.028494041
214	0x3d8e5e81	0.06951619
215	0x3ddc85fc	0.10767743
216	0x3e1b283c	0.15152067
217	0x3e26802e	0.16259834
218	0x3e1583cd	0.1460106
219	0xbc986372	-0.018602107
220	0xba5503d2	-0.00081258744
221	0xbd9076b0	-0.07053888
222	0xbcdac60d	-0.026705766
223	0x3e3d25b9	0.18471421
224	0x3debbf21	0.11511064
225	0x3e1bab24	0.15202004
226	0x3e453f19	0.19262351
227	0x3d82e6a6	0.06391649
228	0x3db1d411	0.086830266
229	0x3e41a744	0.18911463
230	0x3db01627	0.08597975
231	0x3dd2ff07	0.10302549
232	0x3dffe2c8	0.12494427
233	0x3e2c8680	0.16848183
234	0xbd97fb4f	-0.0742098
235	0xbb896d4a	-0.0041939365
236	0x3e45c69a	0.19314042
237	0xbcac9a4b	-0.021069666
238	0x3d9d38b7	0.07676833
239	0x3d545827	0.05184188
240	0xbe2fbf83	-0.171629
241	0x3c0575f6	0.0081458
242	0xbdf58aea	-0.119893864
243	0xbd0f8e7f	-0.035048004
244	0xbe6f7c02	-0.23387149
245	0x3d92e4cb	0.07172545
246	0xbe52ee81	-0.20598795
247	0xbce2399c	-0.02761536
248	0xbe13da31	-0.14438702
249	0xbe130f27	-0.14361249
250	0xbe38440c	-0.17994708
251	0x3d699123	0.05702318
252	0x3e0d6c37	0.13810812
253	0x3ae2c610	0.0017301459
254	0x3d60f794	0.05492361
255	0xbe0d48fc	-0.13797373

projector.2.bias f4 [400]
0	0x3e18a1ed	0.1490552
1	0xbce194fb	-0.02753686
2	0x3b9d4bea	0.0048003094
3	0x3cf551c7	0.029946221
4	0xbd8a3aaa	-0.067494705
5	0x3e8dc4a7	0.27689096
6	0xbdd79384	-0.10526183
7	0xbcf27cef	-0.029600589
8	0x3d36218e	0.044465594
9	0x3e6eb4ab	0.23311107
10	0xbe077c2d	-0.13230963
11	0x3d8c1057	0.06839054
12	0x3bd1b583	0.0063998117
13	0x3dc050a6	0.093903825
14	0x3b8804ab	0.004150947
15	0xbe474704	-0.19460684
16	0xbd289f58	-0.041167587
17	0x3e6c540e	0.2307894
18	0x3cfc71d6	0.030816
19	0x3d72a549	0.05923966
20	0x3e655f80	0.22399712
21	0xbdb7d905	-0.0897694
22	0x3e943ca1	0.28952506
23	0x3e9e2d05	0.30893722
24	0x3de9de8f	0.11419403
25	0xbdf63dd1	-0.12023509
26	0x3df6eabc	0.12056491
27	0xbe010af9	-0.12601842
28	0x3e0ddf6e	0.13854763
29	0x3e915bbf	0.2839031
30	0xbd0bbe4e	-0.034117036
31	0x3e8234e6	0.25430983
32	0x3befd7bc	0.0073194187
33	0x3e0dfa65	0.13865049
34	0xbcc14278	-0.023591265
35	0xbc7c8d44	-0.01541454
36	0xbd548d3a	-0.051892497
37	0x3d7425a6	0.059606217
38	0xbe35e6f0	-0.17763877
39	0x3ddba7cd	0.10725365
40	0x3c870e2b	0.016486248
41	0xbdccb97b	-0.09996315
42	0x3e20b602	0.1569443
43	0xbdcc246d	-0.09967885
44	0xbde7496b	-0.112933
45	0xbcde2e81	-0.027121784
46	0x3e6d3637	0.23165213
47	0x3e42454b	0.18971746
48	0xbcfb1e46	-0.030654084
49	0x3ccd41e7	0.025055839
50	0x3d8e47f2	0.06947316
51	0x3dfd52b4	0.1236929
52	0x3e45e2f0	0.19324851
53	0x3cc11839	0.02357112
54	0x3db1fd16	0.086908504
55	0xbe27a2a2	-0.16370633
56	0xbdb13fde	-0.0865476
57	0xbd5e980d	-0.054344226
58	0x3d7b0055	0.061279614
59	0xbdec4154	-0.11535898
60	0x3e6bbee3	0.23022036
61	0x3d8310ce	0.063996896
62	0xbc2b0844	-0.010438982
63	0x3e2eaf1b	0.17058985
64	0x3d6a642a	0.05722443
65	0xbd156c3b	-0.03648017
66	0xbc9603ba	-0.018312324
67	0xbb07bbb3	-0.0020711243
68	0x3e78381d	0.24240156
69	0x3e415b1e	0.18882415
70	0x3cbded36	0.0231844
71	0x3dc141b4	0.0943636
72	0xbe1f0813	-0.15530424
73	0xbd4d0d87	-0.05006173
74	0xbe0c19a0	-0.1368165
75	0x3d883656	0.06650989
76	0xbe52629f	-0.20545433
77	0xbd8a19a7	-0.06743174
78	0xbdef4099	-0.11682243
79	0x3d1a4fee	0.037673883
80	0xbe312b4d	-0.17301674
81	0x3bdb35a2	0.006689743
82	0xbdd52d88	-0.10409075
83	0x3e37f6fc	0.17965311
84	0xbde5c9ab	-0.11220106
85	0x3bb5d775	0.005549366
86	0x3da7833d	0.081793286
87	0x3cc553bb	0.024087777
88	0xbe4762fd	-0.19471355
89	0x3ca5072e	0.020145025
90	0x3dfcb9be	0.12340115
91	0x3e48621c	0.19568676
92	0x3e58d8f4	0.21176511
93	0x3e87e901	0.26544955
94	0x3e3c5ad8	0.18394029
95	0x3ca52372	0.020158503
96	0x3de11e58	0.10992116
97	0x3c8aa093	0.01692227
98	0x3e53e226	0.20691738
99	0x3e845ad4	0.25850546
100	0x3d8c5f90	0.068541646
101	0x3db8d019	0.090240665
102	0xbd2a746b	-0.04161493
103	0x3df09127	0.117464356
104	0xbe10e456	-0.14149603
105	0x3d4957d7	0.049156036
106	0xbda57d60	-0.08080554
107	0xbd764eca	-0.060133733
108	0x3e17d924	0.14828926
109	0x3dba5723	0.09098651
110	0x3db92c4a	0.090416506
111	0xbe0001a8	-0.12500632
112	0x3e43b37f	0.19111441
113	0x3da3c119	0.07995815
114	0x3d6d650a	0.057957686
115	0x3ea2ae17	0.31773445
116	0xbd41d3b7	-0.047321048
117	0x3da4e60c	0.080516905
118	0x3b9d92ab	0.004808744
119	0x3bd0fd11	0.006377824
120	0xbe082a67	-0.13297425
121	0x3e4e6c03	0.2015839
122	0x3d6e2787	0.058143165
123	0x3dd552b1	0.10416163
124	0x3ea24dc5	0.31699958
125	0x3e41af09	0.18914427
126	0xbe5b0d43	-0.21391778
127	0x3e798938	0.24368751
128	0x3df9ba84	0.12193778
129	0x3db0338a	0.0860358
130	0x3e793611	0.24337031
131	0x3cec3036	0.028831583
132	0xbdfafead	-0.12255607
133	0x3ddf404d	0.10900936
134	0xbb8d02fb	-0.004303334
135	0xbc957fe1	-0.018249454
136	0x3e0a1bb0	0.13487124
137	0x3da09208	0.07840353
138	0xbe267656	-0.16256079
139	0x3dd65ca4	0.104668885
140	0x3e814ae8	0.2525246
141	0x3e86e3b5	0.26345602
142	0xbd6e404e	-0.058166794
143	0xbe4869f2	-0.19571665
144	0x3d961352	0.07327904
145	0x3d65af0e	0.05607515
146	0x3e797f9a	0.24365082
147	0xbd984a31	-0.07436026
148	0xbe07ed99	-0.1327423
149	0x3e4c8e15	0.19976075
150	0xbe51b6fe	-0.20479962
151	0x3d4e9d80	0.050443172
152	0x3e810445	0.2519857
153	0x3e122586	0.14272127
154	0x3e3e1253	0.18561678
155	0x3e8ecffb	0.27893052
156	0xbe19521c	-0.14972728
157	0x3e16c757	0.1472448
158	0x3dbfc6ab	0.09364065
159	0x3e186536	0.14882359
160	0x3d448a55	0.047983486
161	0x3e05e321	0.13074924
162	0xbe0b1625	-0.13582666
163	0x3e2202c0	0.15821362
164	0xbc102cd7	-0.008799753
165	0x3db963b0	0.09052217
166	0x3e71761f	0.23580216
167	0x3c89272b	0.01674231
168	0xbd5cc8e9	-0.05390254
169	0x3e553229	0.20819916
170	0x3d9979e9	0.07493956
171	0x3e4f3dcb	0.20238416
172	0x3db51956	0.08842723
173	0xbdd30748	-0.10304123
174	0x3e1ae2f5	0.1512564
175	0xbdc4fa4b	-0.09618052
176	0xbd39c282	-0.045351513
177	0x3dbc5054	0.09195009
178	0x3e6968a5	0.22793825
179	0x3e64d971	0.22348572
180	0x3cb2fa41	0.021847846
181	0xbde63d1c	-0.112421244
182	0x3e90f36a	0.2831071
183	0x3e070e93	0.13189153
184	0xbddd72df	-0.108129255
185	0x3da7c9c0	0.08192778
186	0xbd41c4fd	-0.047307003
187	0xbe1808e9	-0.14847149
188	0x3e0b52d0	0.13605809
189	0x3d003fd4	0.03131087
190	0x3e14b9e5	0.14524038
191	0xbc2f684e	-0.0107060205
192	0x3dce168e	0.10062896
193	0xbc531227	-0.012882746
194	0xbccc98a3	-0.024975127
195	0xbc248336	-0.010041049
196	0x3e0b07ca	0.1357719
197	0x3d7af902	0.06127263
198	0xbda4817a	-0.08032508
199	0x3d909543	0.070597194
200	0x3c6df367	0.014523364
201	0xbdac9a35	-0.0842785
202	0x3dfaf358	0.122534454
203	0xbe4ee821	-0.20205738
204	0x3c8629ba	0.016377319
205	0x3e175836	0.14779744
206	0x3d9837f0	0.07432544
207	0xbccd994e	-0.025097515
208	0xbe728969	-0.2368523
209	0xbe4ee3b0	-0.20204043
210	0x3e5ea439	0.21742333
211	0x3d79f088	0.061020404
212	0x3aaf2b98	0.0013364432
213	0x3e1fa0f3	0.15588741
214	0x3e301fa4	0.1719957
215	0xbc6b9d22	-0.014380725
216	0x3d93ad63	0.07210805
217	0x3d4dcc23	0.050243508
218	0xbe046c42	-0.12931922
219	0xbda497ea	-0.08036788
220	0xbdd2dab2	-0.10295619
221	0x3e0f06c4	0.13967425
222	0xbe575e98	-0.21032178
223	0x3e0436bd	0.12911506
224	0x3de83bb6	0.11339514
225	0x3e366520	0.17812014
226	0x3d41de43	0.047331106
227	0x3d748378	0.05969569
228	0x3d84e958	0.06489819
229	0x3dfd1959	0.1235835
230	0x3e946d85	0.28989807
231	0x3df73e2a	0.12072404
232	0xbca36b86	-0.019948732
233	0x3da60bee	0.08107744
234	0xbc2f9c34	-0.010718394
235	0x3c4b257c	0.012399074
236	0x3e326379	0.17420758
237	0xbc5855f0	-0.013204083
238	0x3d0ff1d2	0.035142727
239	0x3daef59a	0.085429385
240	0xbd327d5d	-0.043576587
241	0x3ca7b74a	0.020473141
242	0x3c0523b9	0.008126193
243	0xbd24f4f5	-0.04027267
244	0xbd9015e8	-0.07035428
245	0x3e2e5968	0.17026293
246	0x3e6a82de	0.22901484
247	0x3e328d1f	0.17436646
248	0xbda316c7	-0.07963329
249	0x3c9f32da	0.019433428
250	0xbd5626dd	-0.052283157
251	0xbc71733c	-0.014736947
252	0x3cf23aad	0.029568994
253	0x3dbe25a1	0.09284521
254	0xbbd4e1c8	-0.006496642
255	0xbe2b4d11	-0.16728617

projector.4.weight f4 [40, 400]
0	0xbd658ac8	-0.056040555
1	0xbdc5c583	-0.09656813
2	0xbd3a3965	-0.045464892
3	0xbd3cb956	-0.046075188
4	0xbcabbb57	-0.020963354
5	0xbd38ead6	-0.045145832
6	0x3d2acca8	0.04169908
7	0xbd4b94e8	-0.049702555
8	0xbdbafd01	-0.09130288
9	0xbd0ecee8	-0.03486529
10	0x3d3f2e47	0.046674993
11	0xbc221e7a	-0.0098949615
12	0x3c97b8c3	0.018520718
13	0x3cdec7c7	0.02719487
14	0x3b871a1a	0.0041229846
15	0x3cafbb8d	0.021451736
16	0xbb057bcd	-0.002036798
17	0xbd3a168d	-0.045431662
18	0xbd0da872	-0.03458447
19	0x3d0cc6a3	0.034369122
20	0xbdc0f47e	-0.09421633
21	0xbd0d88c8	-0.034554273
22	0xbda0020b	-0.0781289
23	0xbc685b87	-0.014181978
24	0xbd16390a	-0.03667549
25	0x3cf032e7	0.029321147
26	0xbb329a45	-0.0027252596
27	0x3d171fed	0.03689568
28	0xbdc0c0c8	-0.0941177
29	0xbc90b7d0	-0.017665774
30	0x3d32b472	0.043629117
31	0xbd1d00d8	-0.038330883
32	0xbc9c0617	-0.019045873
33	0xbd40d258	-0.0470756
34	0x3d167912	0.036736555
35	0xbd29044a	-0.041263856
36	0xbc2f0a11	-0.010683552
37	0x3c853700	0.016261578
38	0x3d48485b	0.04889713
39	0xbc629bc1	-0.01383108
40	0x3bbf5c73	0.005839878
41	0x3d0b9223	0.034074914
42	0xbcee1c66	-0.029066276
43	0x3cf9482d	0.030429924
44	0xbcb80fcd	-0.022468472
45	0xbd3f8cf0	-0.046765268
46	0xbd8ed6d4	-0.06974569
47	0xbcc46b47	-0.023976935
48	0xbd50d93f	-0.050988432
49	0xbd16eca8	-0.036846787
50	0xbd486d67	-0.04893246
51	0xbd6c56a2	-0.057699807
52	0xbdb66cf8	-0.08907503
53	0xbd70db4a	-0.05880288
54	0xbd1405d7	-0.03613838
55	0xba831467	-0.0010000587
56	0x3d470f3a	0.048598506
57	0x3d39a0fa	0.045319535
58	0xbd99e619	-0.07514591
59	0xbd336734	-0.043799594
60	0xbd3bf29f	-0.04588568
61	0xbdc132d8	-0.09433526
62	0x3cfd5740	0.030925393
63	0xbb430e24	-0.0029763067
64	0xbd6d6a12	-0.057962485
65	0xbc5fd300	-0.013661146
66	0xbdccbe0e	-0.099971876
67	0xbccb7e25	-0.024840424
68	0xbc70bdd7	-0.014693699
69	0xbc932935	-0.017963985
70	0x3c1d976d	0.009618622
71	0xbd476041	-0.04867578
72	0x3d129648	0.03578785
73	0x3cd2c027	0.025726391
74	0xbca400ca	-0.020019908
75	0xbceb7345	-0.028741488
76	0xbd4777d7	-0.048698273
77	0x3c819eed	0.015822852
78	0x3d47f030	0.048813045
79	0x3cd005c3	0.025393372
80	0xbcd3c280	-0.02584958
81	0xbd14f954	-0.03637059
82	0x3d3f4493	0.046696257
83	0x3d02ee32	0.031965442
84	0x3c617b47	0.013762302
85	0x3d0f79cd	0.035028268
86	0xbcfe8a97	-0.031071944
87	0xbd7d7dd0	-0.061887562
88	0x3d35398b	0.04424433
89	0xbd5be780	-0.053687572
90	0xbc849bdd	-0.016187603
91	0xbdb43ee6	-0.088010594
92	0xbd8c1ea6	-0.06841783
93	0xbd95a1f7	-0.07306283
94	0xbd405e09	-0.04696468
95	0xbc974b37	-0.018468482
96	0xbd40af9e	-0.04704248
97	0x3c32d01a	0.010913873
98	0xbd1502e3	-0.036379706
99	0xbc73b8bf	-0.01487559
100	0xbd8d4970	-0.06898773
101	0x3cc85dea	0.024458844
102	0xbcf1ef5a	-0.029533077
103	0xbd5b3a03	-0.05352212
104	0xbc972507	-0.018450273
105	0x3d0aa16a	0.033845343
106	0x3d0c38b8	0.03423378
107	0xbd0845b6	-0.033269607
108	0xbca04ff0	-0.019569367
109	0xbd38c217	-0.045106973
110	0x3cb3c16a	0.021942813
111	0xb80f599a	-3.4177305e-05
112	0xbbae1d05	-0.005313518
113	0xbd03bf5e	-0.032164924
114	0xb9e72333	-0.0004408598
115	0xbcceca55	-0.025242964
116	0xbc51a6da	-0.012796128
117	0xbd92c13b	-0.07165762
118	0xbc05c880	-0.008165479
119	0x3c8210a7	0.015877081
120	0xbca23fa7	-0.019805742
121	0xbd451233	-0.04811306
122	0x3d3a3c00	0.045467377
123	0xbd1f0780	-0.038825512
124	0xbd8994de	-0.06717847
125	0xbd963d6b	-0.07335933
126	0xbbb792b3	-0.0056022047
127	0xbc837120	-0.016045153
128	0xbd506367	-0.050876047
129	0xbdc58443	-0.096443675
130	0xbda6e2cc	-0.08148727
131	0xbbbad2d9	-0.0057014045
132	0xbc8d9d2d	-0.017286861
133	0xbdc14e00	-0.094387054
134	0xbc874f47	-0.016517295
135	0xbd226fe7	-0.0396575
136	0xbd19b04a	-0.037521638
137	0x3bd6c167	0.006553817
138	0x3c866877	0.016407235
139	0xbbbd54c8	-0.005777929
140	0xbda21257	-0.07913654
141	0xbd200a33	-0.039072227
142	0xbc90a95d	-0.017658884
143	0x3cfc49cd	0.03079691
144	0xbd9cd5b2	-0.07657947
145	0x3d458def	0.04823106
146	0xbdb2d288	-0.08731562
147	0xbd11218a	-0.035432376
148	0xbc0e4c80	-0.008685231
149	0xbc878387	-0.01654221
150	0x3ce695fd	0.028147692
151	0xbc11f79a	-0.0089091305
152	0xbd20979c	-0.039207086
153	0xbc73065a	-0.014833057
154	0xbd54a7e7	-0.051917937
155	0xbb4bdfec	-0.003110881
156	0xbd33c6fd	-0.043890942
157	0xbd0fc7fb	-0.035102826
158	0xbd2a41b8	-0.04156658
159	0x3ce52537	0.027971847
160	0xbd6f7fd8	-0.05847153
161	0xbda33c00	-0.079704285
162	0x3d3bff88	0.04589799
163	0xbd35aaa9	-0.044352207
164	0x3c0d2133	0.008613872
165	0xbdbf7d57	-0.093500786
166	0xbb95bfd6	-0.0045699878
167	0xbcfdca83	-0.030980354
168	0xbc8f3467	-0.017481042
169	0xbd07fdd5	-0.033201057
170	0xbd2d687d	-0.042335976
171	0xbd68d637	-0.056844916
172	0xbdca5002	-0.098785415
173	0x3c838a9a	0.016057301
174	0xbc345cb3	-0.011008429
175	0xbcd657a7	-0.026164843
176	0x3d08986a	0.03334848
177	0x3c6e9c9a	0.014563704
178	0xbdc3b5cc	-0.095561594
179	0xbd157535	-0.03648873
180	0xbcf31a40	-0.029675603
181	0xbb907fe7	-0.0044097784
182	0xbcad44f3	-0.021151042
183	0xbc234f9a	-0.009967709
184	0x3cfb897d	0.030705208
185	0x3c771527	0.015080727
186	0x3cb46027	0.022018505
187	0x3cac458a	0.021029253
188	0xbd515ca6	-0.051113747
189	0xbc991e52	-0.018691216
190	0x3d47816a	0.048707403
191	0xbd01af17	-0.03166112
192	0xbca492ba	-0.020089496
193	0xbd3f55a2	-0.046712525
194	0xbdc98370	-0.09839523
195	0xbd9dd8f0	-0.07707393
196	0xbdc7d0e5	-0.0975664
197	0xbd411c97	-0.047146406
198	0xbd49d3d6	-0.049274288
199	0x3d0a4e98	0.03376636
200	0x3d39fd03	0.045407306
201	0x3d0c2b4d	0.034220982
202	0x3c902453	0.017595446
203	0x3c357e67	0.0110775
204	0xbc5a6c73	-0.01333152
205	0x3cb70df3	0.022345519
206	0x3ca4f8b0	0.020138115
207	0x3ce17fca	0.027526755
208	0x3b4762cd	0.003042388
209	0xbd0ec342	-0.03485418
210	0xbd3fbf9f	-0.046813603
211	0xbd4af6fd	-0.049551953
212	0xbdcb2276	-0.09918682
213	0x3a29b933	0.0006474435
214	0xbdaeda32	-0.08537711
215	0xbd803dbc	-0.06261775
216	0xbd49753a	-0.04918406
217	0xbcbdd852	-0.023174439
218	0xbce94ba3	-0.02847845
219	0xbcec2333	-0.028825378
220	0x3d40266a	0.046911635
221	0xbd04810b	-0.032349627
222	0xbd110fc3	-0.035415422
223	0xbd55d308	-0.05220321
224	0xbc69e55b	-0.014275874
225	0xbc82854f	-0.015932707
226	0xbc9bc923	-0.019016808
227	0xbd378f5f	-0.044814464
228	0xbd9f17e8	-0.07768232
229	0xbd6d9b43	-0.058009397
230	0xbd619608	-0.05507472
231	0xbc3bd340	-0.01146394
232	0x3d026673	0.031835984
233	0x3b0d8967	0.002159679
234	0xbca8ede3	-0.020621246
235	0xbb671ce7	-0.003526503
236	0xbccf12a1	-0.025277438
237	0xbdb8873d	-0.0901017
238	0xbc9ffbd7	-0.019529266
239	0x3a27b2cd	0.0006397188
240	0x3cfa9397	0.030587954
241	0xbc98ba54	-0.018643536
242	0xbb9ede73	-0.0048482954
243	0x3c113ae0	0.008864135
244	0xbd552074	-0.052032903
245	0xbb2cc6d4	-0.0026363628
246	0xbd4aab7e	-0.049479954
247	0xbcdd7134	-0.027031519
248	0xbd2476fb	-0.04015253
249	0xbbfb7227	-0.00767352
250	0xbceaeb00	-0.02867651
251	0xbd290738	-0.04126665
252	0x3c9c8cb0	0.019110054
253	0xbdc297ff	-0.09501647
254	0xbd99762c	-0.074932426
255	0x3cd2874d	0.025699282

projector.4.bias f4 [40]
0	0xbdbd10c2	-0.09231712
1	0xbd02abbf	-0.03190207
2	0xbce5e84f	-0.028064875
3	0xbd95b340	-0.0730958
4	0x3decace2	0.11556412
5	0xbd0c4546	-0.03424575
6	0xbc8ffc64	-0.017576404
7	0x3cb29c11	0.021802934
8	0xbdaa1b51	-0.083059914
9	0xbd21ed5c	-0.039533004
10	0xbc9374e0	-0.018000066
11	0xbd2112d8	-0.03932461
12	0x3dd1e03b	0.10247847
13	0xbcfd2aee	-0.03090426
14	0xbd92c82f	-0.07167088
15	0xbc75d1ee	-0.015003664
16	0xba2b3067	-0.0006530345
17	0xbd516f54	-0.05113156
18	0xbcec4540	-0.028841615
19	0x3dbafe07	0.09130483
20	0x3e225f24	0.15856606
21	0x3e37fa10	0.17966485
22	0x3e336771	0.17519929
23	0xbc59856d	-0.01327644
24	0x3e5a3499	0.21309127
25	0x3cc63697	0.024195952
26	0xbdc982aa	-0.09839375
27	0xbcbe4570	-0.02322647
28	0xbdad38be	-0.08458088
29	0xbdb48033	-0.088135146
30	0xbaeb0712	-0.0017931184
31	0x3e2315bb	0.15926258
32	0x3df8a336	0.12140505
33	0xbc06b47a	-0.00822174
34	0xbd570477	-0.052494492
35	0x3e1e03e3	0.1543117
36	0xbcc8eaf5	-0.024526099
37	0xbd1743a2	-0.036929734
38	0x3e07cc87	0.13261615
39	0xbc6df5f0	-0.014523968

projector.6.weight f4 [4, 40]
0	0x3d91818b	0.071047865
1	0x3d2719b2	0.04079599
2	0x3ccc2416	0.02491955
3	0x3e070510	0.13185525
4	0x3e4d9c80	0.20079231
5	0x3d9fe632	0.07807578
6	0xbda143c3	-0.07874253
7	0x3dfbb63c	0.12290618
8	0xbd4a2100	-0.049347878
9	0x3e0ba83f	0.136384
10	0xbdb9547b	-0.090493165
11	0xbcfced8d	-0.030874992
12	0x3e026b67	0.12736283
13	0xbc413db2	-0.011794494
14	0x3c484b2c	0.012224954
15	0xbdbc9984	-0.09208968
16	0x3d8ccbae	0.06874786
17	0x3b814f0a	0.00394619
18	0x3ca5d01d	0.020240838
19	0x3d864163	0.0655544
20	0x3e624c90	0.22099519
21	0x3dc71df0	0.09722507
22	0x3dce897d	0.100848176
23	0x3c2f8fdf	0.010715454
24	0x3df6b26c	0.1204575
25	0x3e1e6512	0.15468243
26	0x3e21291a	0.15738335
27	0x3cb01608	0.02149488
28	0xbceb547d	-0.02872681
29	0xbd5e25cb	-0.05423526
30	0x3e221dcd	0.1583168
31	0x3e2183f5	0.15772994
32	0x3ddb4fc5	0.10708574
33	0x3e10f284	0.14155012
34	0xbbb4cabb	-0.0055173314
35	0x3d0d0873	0.034431886
36	0x3df0ceb5	0.11758176
37	0x3c86f6f3	0.016475176
38	0x3d5f37b0	0.054496467
39	0xbbe1ff99	-0.0068969247
40	0xbc3bb4ac	-0.01145665
41	0xbba7e633	-0.0051238774
42	0xbbe9937b	-0.0071281767
43	0x3d94ad11	0.07259572
44	0x3d874ac6	0.06606059
45	0x3e661c3b	0.22471707
46	0x3da8f73a	0.0825028
47	0x3dd8754c	0.105692476
48	0xbdab1e82	-0.08355428
49	0x3d7b272c	0.061316654
50	0xbd889a53	-0.0667006
51	0x3dcdd853	0.10051026
52	0xbcdf6ac0	-0.027272582
53	0xbdc65474	-0.09684077
54	0x3dbbcbb6	0.09169714
55	0x3dea13cc	0.11429557
56	0x3dac406e	0.084107265
57	0x3d89b207	0.06723409
58	0xbd05f9b5	-0.032708842
59	0x3e143892	0.14474705
60	0x3de71026	0.11282377
61	0x3d4c4dd7	0.04987892
62	0x3ce7f4f1	0.02831504
63	0x3d0772b6	0.03306838
64	0x3dc80dc9	0.09768254
65	0xbc07ad97	-0.008281133
66	0xbd8e89e7	-0.069598965
67	0x3ad5ecf5	0.0016321229
68	0x3b9d3cca	0.0047985064
69	0xbd127b1c	-0.035761937
70	0x3dcd761c	0.10032293
71	0x3e513cc5	0.20433338
72	0x3e2cca14	0.16873962
73	0x3e1e83dd	0.1547999
74	0x3e36d0a9	0.17853035
75	0x3def62b3	0.11688747
76	0xbd823571	-0.063578494
77	0xbb927c42	-0.004470379
78	0x3e28001d	0.16406293
79	0x3df77246	0.12082343
80	0xbdfd544b	-0.12369593
81	0x3d9b70bd	0.075898625
82	0xbd58bfbc	-0.052917227
83	0xbde98d92	-0.114039555
84	0xbd929c77	-0.071587496
85	0x3d0c905b	0.034317356
86	0x3d006c74	0.03135343
87	0xbd552498	-0.05203685
88	0x3c8c5eb7	0.017135007
89	0xbdb1a057	-0.086731605
90	0xbdc5f750	-0.09666312
91	0x3d983d76	0.07433598
92	0x3d056efd	0.03257655
93	0x3d14a83d	0.036293257
94	0xbd81a573	-0.06330385
95	0xbc8b6db1	-0.017020078
96	0xbd82019c	-0.06347963
97	0x3bb0a554	0.0053908024
98	0x3df0d0ce	0.11758576
99	0x3e047c5f	0.12938069
100	0x3db7e73e	0.08979653
101	0x3db02a24	0.08601788
102	0x3df20352	0.118170395
103	0x3db577b0	0.08860719
104	0x3e197cdb	0.14989035
105	0xbdaa7728	-0.083235085
106	0xbdab9a77	-0.08379071
107	0x3e0e3676	0.13887963
108	0xbc22d6d3	-0.009938913
109	0xbe08361f	-0.13301896
110	0x3c8d1767	0.017223073
111	0x3e23d9ac	0.16001004
112	0xbd17b253	-0.037035298
113	0xbe2098eb	-0.15683334
114	0x3c0ec4ed	0.008713943
115	0x3dd11d0c	0.102106184
116	0xbdcb0188	-0.099124014
117	0x3dea2367	0.11432534
118	0x3da24e63	0.07925107
119	0xbd0c1533	-0.034199905
120	0xbced5026	-0.028968882
121	0x3d0c1e22	0.034208424
122	0x3e568c31	0.20951916
123	0x3b6924a8	0.0035574827
124	0x3e3137a7	0.17306386
125	0x3d4d2c13	0.05009086
126	0x3cedaca7	0.029012991
127	0x3d456686	0.048193477
128	0x3dc48d0f	0.09597217
129	0xbc9f5f3b	-0.01945459
130	0xbda0ee1b	-0.07857915
131	0xbd634e42	-0.055494554
132	0x3e1689b3	0.14700966
133	0x3dc230da	0.09481974
134	0x3dfcb115	0.12338463
135	0x3df39062	0.11892773
136	0x3b110cbb	0.0022132832
137	0x3e0bc2ac	0.1364848
138	0xbdb24638	-0.087047994
139	0x3ad51007	0.0016255387
140	0x3df4d724	0.11955097
141	0x3db0feed	0.08642373
142	0x3e48a7e4	0.19595295
143	0x3d524c19	0.051342104
144	0x3dd0bd15	0.101923145
145	0xbdb050c3	-0.08609154
146	0x3e2d26bc	0.16909307
147	0xbdee352d	-0.11631236
148	0x3da19152	0.07889046
149	0x3db3ef1a	0.087858394
150	0xbd51d361	-0.051226977
151	0x3d28a6d4	0.041174725
152	0x3e5f95ce	0.2183449
153	0xbce63319	-0.028100537
154	0x3ce995d2	0.028513823
155	0x3d0dfef8	0.034666985
156	0xbdd18f3f	-0.102324
157	0xbcd950a5	-0.026527712
158	0x3de1f53d	0.110331036
159	0x3e04aba3	0.12956099

projector.6.bias f4 [4]
0	0x3ddf1545	0.10892729
1	0x3e0df28e	0.13862059
2	0x3e4ddcd6	0.20103773
3	0x3e535dae	0.20641205
